pretrained/cvrp_nls/500/cvrp500_sd0/50.pt (torch, 348709 bytes, 229 tensors)

emb_net.v_lin0.weight f4 [32, 1]
0	0xbc6269ba	-0.0138191525
1	0x3f06ab42	0.5260507
2	0xbf5863d5	-0.8452733
3	0xbf3c594e	-0.7357377
4	0xbec4b200	-0.38417053
5	0x3e8109b8	0.25202727
6	0xbcd9a555	-0.026568094
7	0x3f4c5957	0.7982382
8	0xbda1afd1	-0.078948624
9	0x3e8e7da4	0.2783023
10	0xbe93e7f6	-0.2888791
11	0xbe58f9e5	-0.21189077
12	0xbf71c71d	-0.9444445
13	0xbf294fff	-0.6613769
14	0xbed25d09	-0.41086605
15	0x3d126d78	0.03574893
16	0x3ec0d333	0.37661132
17	0x3f1bc2b0	0.60843945
18	0xbf2910b6	-0.66041124
19	0xbee49066	-0.44641417
20	0x3eb8a9dc	0.36067092
21	0x3f539a0a	0.8265692
22	0xbe3ef1f3	-0.18646984
23	0x3f3f8cda	0.748243
24	0xbe18d01e	-0.1492314
25	0x3deee143	0.11664059
26	0x3f649b57	0.8929953
27	0xbf6a5d41	-0.91548544
28	0xbf24962c	-0.64291644
29	0xbe82fb78	-0.2558248
30	0xbecac0b8	-0.39600158
31	0x3f616ad5	0.8805364

emb_net.v_lin0.bias f4 [32]
0	0xbf2b854d	-0.67000276
1	0xbeeda5d3	-0.46415576
2	0xbf2b14b7	-0.66828483
3	0xbf706846	-0.9390911
4	0xbf143ab3	-0.5790207
5	0x3f5e6012	0.8686534
6	0x3eeffc33	0.468721
7	0x3f01041c	0.50396895
8	0x3d4268fa	0.047463395
9	0xbefd982d	-0.49530163
10	0x3e1f3b4b	0.15549962
11	0xbf6ace65	-0.91721183
12	0xbf38b9b3	-0.72158355
13	0xbf00b6dc	-0.5027902
14	0x3f220ea3	0.63303584
15	0x3f17fc64	0.5936949
16	0xbeeb6b8b	-0.45980486
17	0xbcb401e9	-0.021973567
18	0x3f1ecc1b	0.6203019
19	0x3f7bae20	0.9831257
20	0x3ec85f02	0.39134985
21	0x3e0ed167	0.13947068
22	0x3f303aa9	0.6883951
23	0xbf149bb6	-0.58050096
24	0x3e445351	0.19172408
25	0xbf41c56f	-0.75691885
26	0xbf33ca1a	-0.7023026
27	0xbf064850	-0.5245409
28	0x3ef02582	0.46903616
29	0x3ed30483	0.4121438
30	0xbf14d097	-0.5813078
31	0x3ea47059	0.32116964

emb_net.v_lins1.0.weight f4 [32, 32]
0	0x3dd77dae	0.105220184
1	0xbcf7bc4f	-0.03024116
2	0x3c3c76cb	0.011502932
3	0x3d35ed9e	0.044416063
4	0x3deca063	0.11554029
5	0x3e265224	0.16242272
6	0xbe0254f1	-0.12727715
7	0xbd93a533	-0.072092436
8	0x3d9b8941	0.075945385
9	0x3e0d9e47	0.1382991
10	0x3e23c3dc	0.15992683
11	0x3e25a096	0.1617454
12	0x3d20c6e4	0.039252177
13	0xbe17392b	-0.14767902
14	0x3cbba295	0.022904674
15	0xbdedfc91	-0.11620439
16	0xbe2fd238	-0.17170036
17	0x3e187c73	0.14891224
18	0x3e0fd81f	0.14047287
19	0xbe2d2fba	-0.16912737
20	0x3cd401b8	0.025879726
21	0xbd18d63d	-0.03731369
22	0xbcb669e7	-0.022267295
23	0xbdb63fd0	-0.0889889
24	0x3d98a74e	0.07453786
25	0xbde4ee4d	-0.11178265
26	0x3d65ec56	0.05613359
27	0x3dc0a3fe	0.09406279
28	0x3e07d820	0.13266039
29	0x3d94a5c3	0.07258179
30	0xbe2c52b8	-0.1682843
31	0xbdf9f942	-0.12205745
32	0x3db63ce7	0.08898335
33	0x3d0baf56	0.03410276
34	0xbe0f0e76	-0.1397036
35	0xbdd90572	-0.10596742
36	0x3e2a2285	0.1661473
37	0x3def4ed8	0.1168496
38	0xbd9b6d80	-0.07589245
39	0xbd3eec29	-0.04661194
40	0xbe2a12b1	-0.16608693
41	0xbbafcf43	-0.0053652837
42	0xbe069167	-0.13141404
43	0xbe0b0187	-0.13574801
44	0xbc512a04	-0.012766365
45	0x3cd4bf7c	0.025970213
46	0xbd913887	-0.0709086
47	0x3dd0dcda	0.10198374
48	0xbde0fb77	-0.10985463
49	0x3e214088	0.15747273
50	0x3df9a5e6	0.12189846
51	0xbe16bcb2	-0.14720419
52	0xbd3c0edc	-0.04591261
53	0x3bae1264	0.005312251
54	0x3cdeb59f	0.027186213
55	0x3d1d099d	0.038339246
56	0x3d9094bd	0.070596196
57	0x3c0c13a6	0.008549606
58	0xbdb8949e	-0.090127215
59	0x3da7cb26	0.08193044
60	0xbe2c29e8	-0.16812861
61	0xbdd304e0	-0.10303664
62	0xbd33a0dd	-0.043854583
63	0xbdb4e58f	-0.08832847
64	0xbd7e41b2	-0.06207437
65	0xbe182e62	-0.14861444
66	0xbd3c0878	-0.045906514
67	0x3cdf7de2	0.027281705
68	0xbdf494fe	-0.119424805
69	0xbc16221d	-0.009163407
70	0x3e0194e8	0.1265446
71	0xbca452e1	-0.020059051
72	0x3b8c710d	0.0042859376
73	0xbc8d1be6	-0.017225217
74	0x3d07d30f	0.033160266
75	0x3ddc3e42	0.10754062
76	0x3e216aa0	0.1576333
77	0x3dd896a0	0.105756044
78	0x3e28f11d	0.16498227
79	0xbc52a551	-0.012856797
80	0xbe2515ce	-0.16121599
81	0xbdb10b93	-0.08644786
82	0x3def8f6a	0.11697276
83	0xbb1767ba	-0.0023102597
84	0xbdb51758	-0.08842343
85	0xbe0da8bf	-0.13833903
86	0xbe29c2b4	-0.1657818
87	0xbe1fc636	-0.15602955
88	0xbd16387c	-0.03667496
89	0x3dc469bf	0.09590482
90	0x3dad39d9	0.08458299
91	0xbe3608e3	-0.17776828
92	0x3dda6379	0.10663504
93	0xbe0e96b8	-0.13924682
94	0xbd2c4a90	-0.042063296
95	0xbd982321	-0.07428575
96	0xbd31fd66	-0.04345455
97	0xbcfece9a	-0.031104375
98	0xbe3e0c97	-0.1855949
99	0xbe4467eb	-0.19180267
100	0xbd2bc0ab	-0.04193179
101	0x3c239b86	0.00998581
102	0xbdb5df66	-0.088805005
103	0x3d936df9	0.0719871
104	0xbe2b7b9b	-0.1674637
105	0xbbd1c606	-0.00640178
106	0x3e1459f0	0.14487433
107	0xbdb04955	-0.08607737
108	0x3e019395	0.12653954
109	0x3d393ab0	0.045221984
110	0xbe2d172d	-0.16903372
111	0x3df53100	0.11972237
112	0xbc80a911	-0.015705617
113	0xbd975b2a	-0.07390435
114	0x3e0507fd	0.12991329
115	0xbe1b84fa	-0.15187445
116	0x3cd2f908	0.025753513
117	0xbd05aaf6	-0.032633744
118	0x3def7447	0.116921
119	0x3d4dd470	0.050251424
120	0x3d9a8892	0.0754558
121	0x3d8c7af5	0.0685939
122	0xbd314072	-0.04327435
123	0xbd7af8af	-0.06127232
124	0xbe207a97	-0.15671764
125	0x3db05d52	0.086115494
126	0x3e0068c5	0.12539966
127	0x3e006dee	0.12541935
128	0xbdf07513	-0.1174108
129	0xbb97052c	-0.004608771
130	0xbe11ce7c	-0.14238924
131	0xbe053a91	-0.13010623
132	0xbdd34daf	-0.10317551
133	0x3d578873	0.052620362
134	0xbdca2f97	-0.09872358
135	0xbc640f88	-0.013919719
136	0x3c5e8aaf	0.013582869
137	0x3dd3ca74	0.10341349
138	0xbe03c043	-0.12866311
139	0xbdf801bd	-0.121097066
140	0xbe029b56	-0.12754568
141	0x3deff02b	0.1171573
142	0xbd6f87d3	-0.05847914
143	0x3e10d4a1	0.14143611
144	0x3d57a095	0.052643377
145	0x3c37db7f	0.011221766
146	0x3b0f3455	0.002185126
147	0xbcf0110d	-0.029305005
148	0x3c5d62e1	0.013512344
149	0xbd542a2c	-0.05179803
150	0x3b986c92	0.0046516145
151	0x3bf2fd2c	0.0074154343
152	0xbe0764b4	-0.13222009
153	0xbdcf8250	-0.10132277
154	0x3e003dc5	0.12523563
155	0xbe20e660	-0.15712881
156	0xbc1d91e0	-0.009617299
157	0x3e3815fc	0.17977136
158	0x3d80d893	0.06291308
159	0xbbc6df5a	-0.006069106
160	0xbe1f47b1	-0.15554692
161	0x3db870a2	0.09005858
162	0xbe056c8b	-0.13029687
163	0xbd636221	-0.055513505
164	0xbd81093c	-0.063005894
165	0xbcbc0150	-0.022949845
166	0xba95a1b4	-0.0011415989
167	0x3e17e74b	0.14834325
168	0x3c9a5379	0.018838631
169	0x3e24a80c	0.1607973
170	0x3dd5e53b	0.10444113
171	0xbdec0fdd	-0.11526463
172	0x3d978051	0.07397521
173	0xbe03d4a8	-0.1287409
174	0xbd9ff18c	-0.07809743
175	0x3d5ee5df	0.05441844
176	0x3d79c2d0	0.060976803
177	0x3e0a4f45	0.13506801
178	0xbd76cf8f	-0.060256537
179	0xbb45c3f6	-0.0030176616
180	0x3dc0258d	0.09382162
181	0xbe2bb77e	-0.16769215
182	0x3dfe067d	0.12403581
183	0xbe12e133	-0.14343719
184	0xba79c4a7	-0.00095278997
185	0xbcdcf21a	-0.026970912
186	0xbdba0543	-0.09083035
187	0x3c9a2b8c	0.018819593
188	0x3e11a8fb	0.14224617
189	0xbd606749	-0.054786
190	0xbdde3500	-0.10849953
191	0xbd7f5f16	-0.06234654
192	0xbe4a4404	-0.19752508
193	0x3dc739e4	0.09727839
194	0xbdafcc2e	-0.08583866
195	0xbdde85ea	-0.10865386
196	0xbdf75053	-0.120758675
197	0x3df4344e	0.11924039
198	0x3d974cc1	0.073876865
199	0x3e1cfe4c	0.15331382
200	0x3d3cf3f6	0.046131097
201	0xbd2629d7	-0.040567245
202	0xbd8a72f7	-0.06760209
203	0x3d039e91	0.032133643
204	0x3e19839a	0.14991608
205	0x3d093651	0.033499066
206	0xbdd10045	-0.102051295
207	0xbd88246e	-0.066475734
208	0xbe18c836	-0.14920124
209	0x3d6548e6	0.055977724
210	0xbdf0ddb1	-0.11761034
211	0xbe33edee	-0.17571232
212	0x3e30a96a	0.17252126
213	0xbdc65449	-0.09684045
214	0xbd1c9c91	-0.03823525
215	0x3d8aca1a	0.06776829
216	0xbc4d83be	-0.012543617
217	0xbdcd47cd	-0.100234605
218	0xbe00acfd	-0.1256599
219	0x3e0aa876	0.13540825
220	0x3c1fcfb7	0.009754113
221	0x3e02e0c2	0.12781051
222	0xbda058bf	-0.07829427
223	0x3d8f0b78	0.06984609
224	0xbd14a967	-0.036294367
225	0xbc3d5d6d	-0.011557919
226	0xbddc5a84	-0.10759452
227	0x3d6cafba	0.057784773
228	0x3d6a059d	0.05713426
229	0xbbc333e9	-0.005957116
230	0xbd15ef75	-0.036605317
231	0xbde4d899	-0.11174125
232	0x3dfd67c4	0.12373307
233	0xbe09ba59	-0.13449992
234	0x3d979a04	0.07402423
235	0xbd6c169a	-0.057638742
236	0xbdb06048	-0.08612114
237	0x3d0450cf	0.032303628
238	0xbdb73de4	-0.089473516
239	0x3d1e6106	0.038666748
240	0x3d008a94	0.03138216
241	0xbe0996ab	-0.13436382
242	0x3cfe4e95	0.03104333
243	0x3d9e1ec1	0.077207096
244	0x3d8972ec	0.06711373
245	0xbcd16204	-0.025559433
246	0xbe11f13d	-0.14252181
247	0xbd01cc3a	-0.031688906
248	0x3d813821	0.06309534
249	0xbd89f9ff	-0.06737136
250	0x3d7cc71e	0.06171333
251	0x3defedee	0.11715303
252	0xbdb8fd70	-0.09032714
253	0x3b70280d	0.0036644966
254	0x3d980d64	0.07424429
255	0x3c2a908a	0.010410437

emb_net.v_lins1.0.bias f4 [32]
0	0xbc1a9466	-0.009434795
1	0xbdc7e9e8	-0.09761411
2	0xbdaa2c3d	-0.08309219
3	0x3e07daf0	0.13267112
4	0xbdadd3e7	-0.08487683
5	0x3de5760c	0.11204156
6	0xbd18734b	-0.037219327
7	0xbcda40fb	-0.026642313
8	0x38611909	5.3667496e-05
9	0xbe2192dc	-0.15778679
10	0xba1faceb	-0.00060911354
11	0xbb510b62	-0.0031897654
12	0xbcb1adf3	-0.02168939
13	0xbd4a8bab	-0.049449604
14	0x3e0444d2	0.12916878
15	0x3e1700b8	0.14746368
16	0xbde0dd8e	-0.10979758
17	0x3d8c5b8d	0.068533994
18	0xbdfc0303	-0.12305262
19	0xbe107023	-0.14105277
20	0x3d07a07d	0.033112038
21	0xbc16a834	-0.009195376
22	0xbdc69bca	-0.09697683
23	0xbe29a925	-0.1656843
24	0xbdb63755	-0.088972725
25	0x3d8cecb8	0.06881088
26	0xbe2360ec	-0.15954942
27	0xbe35d947	-0.17758666
28	0x3cdc31b9	0.026879178
29	0xbde0decb	-0.109799944
30	0xbe1360c1	-0.14392377
31	0xbda4734f	-0.08029806

emb_net.v_lins1.1.weight f4 [32, 32]
0	0xbcd04ee0	-0.025428236
1	0xbe25a3e2	-0.16175798
2	0xbde90168	-0.11377221
3	0x3bd0d404	0.0063729305
4	0xbe2d9a51	-0.16953398
5	0xbcb4f656	-0.022090118
6	0xbdf041d6	-0.11731307
7	0xbdf26077	-0.118348055
8	0x3d849fd4	0.06475797
9	0xbe076f40	-0.13226032
10	0xbe0e34ea	-0.13887373
11	0x3dbdbb3f	0.0926423
12	0x3d016abf	0.03159594
13	0x3e274925	0.16336496
14	0xbd31e54c	-0.043431565
15	0xbdba66c4	-0.09101632
16	0xbc6814a1	-0.014165075
17	0xba8cb678	-0.0010735532
18	0x3e044b6b	0.12919395
19	0xbe380119	-0.17969169
20	0xbc02b923	-0.00797871
21	0x3d9a9264	0.07547453
22	0xbdcd1020	-0.10012841
23	0xbdb12760	-0.08650088
24	0x3db0cdca	0.08633001
25	0xbe2a6885	-0.16641434
26	0x3d40389c	0.046928987
27	0xbe0ef33d	-0.13959976
28	0x3db56f4e	0.0885912
29	0xbe1bc2c7	-0.1521102
30	0x3dd36637	0.1032223
31	0xbe2ed474	-0.17073232
32	0xbe1b6838	-0.15176475
33	0xbafae699	-0.001914221
34	0x3e09f6f7	0.13473116
35	0xbe239cd8	-0.159778
36	0xbdad06bc	-0.0844855
37	0x3e19ddbf	0.15025996
38	0xbd14b966	-0.036309622
39	0x3d95f31b	0.07321759
40	0xbe33b28c	-0.17548579
41	0xbd670589	-0.056401763
42	0xbdca6e4a	-0.09884317
43	0x3e101b03	0.14072804
44	0x3d86c7d5	0.06581084
45	0xbe005d8c	-0.12535685
46	0x3cd01398	0.025399968
47	0xbc3977ac	-0.011320036
48	0xbd954b71	-0.0728978
49	0xbdc0bd02	-0.094110504
50	0xbd83aab5	-0.06429044
51	0x3e0af439	0.13569726
52	0xbdf6c373	-0.12048998
53	0xbe07cfdf	-0.1326289
54	0xbd87b955	-0.06627146
55	0x3a9dcfbd	0.001204006
56	0x3d3a19d2	0.04543478
57	0x3b77cce7	0.003781134
58	0xbd3a1566	-0.045430563
59	0xbdec3002	-0.11532594
60	0xbd096e2f	-0.033552345
61	0xbd991668	-0.07474977
62	0x3e0a6d75	0.13518317
63	0xbe3156b6	-0.17318234
64	0xbe085867	-0.13314973
65	0xbe1606fb	-0.146511
66	0xbd73adad	-0.059491802
67	0x3e13003b	0.14355557
68	0x3e1f305e	0.15545794
69	0xbe1a1464	-0.15046841
70	0xbbc6d0e7	-0.0060673836
71	0x3dae8895	0.08522145
72	0x3d9533e6	0.072852895
73	0x3dfa4b49	0.12221391
74	0xbcee1f63	-0.0290677
75	0xbde4afe3	-0.1116636
76	0x3dee70f4	0.11642638
77	0xbd8a6c0a	-0.06758888
78	0x3d86e6e6	0.06587009
79	0xbd18324e	-0.03715735
80	0x3d67f423	0.05662931
81	0x3e275589	0.16341223
82	0x3e29ff64	0.1660133
83	0xbe2838f3	-0.16427974
84	0xbe14ef5a	-0.1454443
85	0xbd9241ef	-0.07141482
86	0xbde8d6b4	-0.11369076
87	0x3e1411fe	0.14459988
88	0xbd126226	-0.035738133
89	0xbe0e411a	-0.13892022
90	0xbdcec784	-0.10096648
91	0xbdc0f6c0	-0.09422064
92	0x3d505abb	0.050867777
93	0xbe2f56ad	-0.17122908
94	0xbe23993e	-0.15976426
95	0xbe449adc	-0.19199699
96	0x3d811d0d	0.06304369
97	0x3d9932f5	0.074804224
98	0xbe0e089b	-0.1387047
99	0x3c1cf171	0.0095790485
100	0x3de1dc59	0.11028356
101	0x3b954d7d	0.0045563565
102	0xbd87eb52	-0.06636681
103	0xbc4b9da6	-0.012427723
104	0xbd2430e7	-0.0400857
105	0x3d9a58b2	0.075364485
106	0xbe05713c	-0.13031477
107	0x3d5b04a2	0.053471215
108	0x3d930259	0.07178182
109	0xbdd4c9c2	-0.10390045
110	0x3dec0c27	0.115257554
111	0x3e0b07dd	0.13577218
112	0xbda05a2d	-0.078297
113	0xbd863f62	-0.06555058
114	0x3d844151	0.064577706
115	0xbe1a5040	-0.15069675
116	0x3d5d1b67	0.05398121
117	0x3c1fec38	0.009760909
118	0x3dc27bf0	0.094962955
119	0xbe3f8d68	-0.18706286
120	0xbe280a74	-0.16410238
121	0x3d48fb60	0.049067855
122	0x3d405918	0.046959966
123	0xbe4a4235	-0.19751818
124	0xbe06340a	-0.13105789
125	0xbe34beed	-0.17650957
126	0xbe1b537b	-0.15168564
127	0xbdcdd177	-0.10049718
128	0x3e1f1c4d	0.1553814
129	0xbd4aeca4	-0.049542084
130	0x3df6873f	0.12037515
131	0x3e1665f1	0.14687325
132	0x3d801b14	0.06255165
133	0xbe314969	-0.1731316
134	0x3d90682e	0.07051121
135	0x3d9090d3	0.07058873
136	0x3dfd706e	0.1237496
137	0xbe23c98c	-0.15994853
138	0x3e025832	0.12728956
139	0x3e00224a	0.1251308
140	0xbe3a7bc8	-0.18211281
141	0x3c9ac0d5	0.018890778
142	0x3e2d17f6	0.16903672
143	0xbe192d4e	-0.14958689
144	0x3d992d43	0.07479336
145	0x3d8cab0a	0.068685606
146	0x3cebc984	0.028782614
147	0x3e24a74f	0.16079448
148	0x3e29ecf7	0.16594301
149	0x3e07c64c	0.13259238
150	0xbc8a8c9f	-0.016912756
151	0x3e26614a	0.1624805
152	0xbe19a8a1	-0.15005733
153	0xbd9915d1	-0.07474864
154	0xbce23115	-0.027611295
155	0xbd96ea53	-0.073689125
156	0x3e37b6ac	0.17940778
157	0x3dcded3d	0.10055015
158	0x3dc28f3d	0.09499977
159	0x3e10f52e	0.14156029
160	0xbe062bee	-0.13102695
161	0xbd23fb60	-0.04003465
162	0x3cdbcdeb	0.026831588
163	0x3cdf6529	0.027269917
164	0x3d8ea0d1	0.06964267
165	0xbda10c5a	-0.07863684
166	0xbd8dd376	-0.069250986
167	0x3e13783d	0.14401336
168	0xbd8295a1	-0.06376196
169	0xbdf8ef74	-0.12155047
170	0x3df029d8	0.11726731
171	0x3dd7d75b	0.10539123
172	0xbd9694d8	-0.073526084
173	0xbd1f95c7	-0.0389612
174	0xbe032421	-0.12806751
175	0xbe289657	-0.164636
176	0x3d83ad1d	0.06429503
177	0xbdaa165d	-0.08305047
178	0x3dfa3117	0.122163944
179	0xbe25dd77	-0.16197763
180	0xbc7a82e7	-0.015289999
181	0xbc3dd4c2	-0.01158637
182	0x3dbc6bef	0.09200274
183	0x3e135cb8	0.14390838
184	0x3df42f2b	0.11923059
185	0x3da4fb49	0.08055741
186	0xbda5f402	-0.081031814
187	0xbe108eab	-0.14116924
188	0xbe1c94f7	-0.152912
189	0x3bf2d792	0.007410952
190	0x3e1caca2	0.15300229
191	0xbd0b9229	-0.034074936
192	0x3a8cb16f	0.0010734032
193	0xbddd89a7	-0.10817271
194	0x3d472aad	0.048624683
195	0x3df1da16	0.11809175
196	0xbe26631d	-0.16248746
197	0xbde03096	-0.10946767
198	0x3e0f4f42	0.13995078
199	0x3d83eb26	0.064413354
200	0x3bc93b2d	0.0061410875
201	0x3d20cb50	0.039256394
202	0xbd4c7442	-0.04991556
203	0xbdeeb5e7	-0.11655789
204	0xbe1d0820	-0.1533513
205	0x3e0fe185	0.14050873
206	0xbc951fca	-0.018203635
207	0xbd718c15	-0.058971483
208	0xbd45548b	-0.04817633
209	0xbdb52dae	-0.08846603
210	0xbd30807f	-0.043091293
211	0xbe0b2a52	-0.13590363
212	0x3df1caac	0.11806235
213	0x3da6d4dd	0.08146069
214	0xbd5745d4	-0.052556828
215	0xbd2f1297	-0.042742338
216	0x3db1757c	0.086649865
217	0xbdaa65e8	-0.08320218
218	0x3d7cacff	0.06168842
219	0x3d66eeec	0.056380197
220	0xbddb2fb1	-0.10702456
221	0x3cdeeeeb	0.027213534
222	0x3c8c89f8	0.017155632
223	0x3e0942a0	0.13404322
224	0xbd367c4b	-0.04455213
225	0xbd7828ae	-0.06058567
226	0x3e312729	0.17300095
227	0xbe1ca987	-0.15299045
228	0x3b0461eb	0.0020199965
229	0x3e1fc5e6	0.15602836
230	0xbdb44f7f	-0.08804225
231	0x3e2fd5a2	0.17171338
232	0x3e159922	0.14609197
233	0x3e363973	0.17795353
234	0x3a475016	0.00076031813
235	0x3e192501	0.14955522
236	0xbdb341b2	-0.08752765
237	0xbd74cf3b	-0.059767943
238	0x3daec276	0.08533184
239	0x3ce9e1d0	0.028550059
240	0x3ddfea58	0.109333694
241	0x3e3404a3	0.17579894
242	0xbdf35dca	-0.11883123
243	0x3daafa44	0.08348516
244	0x3d982fba	0.07430978
245	0x3da87df7	0.08227151
246	0x3d937971	0.072008975
247	0xbd54f552	-0.05199177
248	0xbdf618ea	-0.12016471
249	0x3e20e6ac	0.15712994
250	0xbdac2842	-0.08406116
251	0x3dd5b6f9	0.1043529
252	0xbe191cd7	-0.14952408
253	0xbc2cbedc	-0.010543551
254	0xbbf895b4	-0.0075862054
255	0x3d2f975a	0.04286895

emb_net.v_lins1.1.bias f4 [32]
0	0xbdb973fd	-0.09055326
1	0xbc580a4e	-0.013186051
2	0x3d10a1bd	0.035310496
3	0xbd52b4e1	-0.05144203
4	0xbe2bb306	-0.16767511
5	0xbc241190	-0.010013953
6	0x3e118d22	0.14213994
7	0x3dea01af	0.11426102
8	0x3da32cc2	0.07967521
9	0x3cf44506	0.02981807
10	0x3d3fc65f	0.04682004
11	0xbe0f37ef	-0.1398618
12	0x3d7ec706	0.062201522
13	0xbe2c0d8b	-0.16802041
14	0xbd8a61e0	-0.067569494
15	0xbd509721	-0.050925378
16	0x3e0056cc	0.1253311
17	0xbbf96c72	-0.0076118046
18	0xbd8cae67	-0.06869202
19	0x3cc87c5d	0.024473364
20	0xbe1706ce	-0.1474869
21	0xbd51390f	-0.051079806
22	0x3d2ed5b8	0.042684287
23	0xbb441006	-0.0029916777
24	0xbcbd67cb	-0.023120781
25	0x3dd8dece	0.105893716
26	0xbe03f94c	-0.12888068
27	0xbdaa6ee6	-0.083219334
28	0x3e29312e	0.16522667
29	0x3c9431a1	0.018090071
30	0xbc57284a	-0.013132164
31	0x3dba38e9	0.09092886

emb_net.v_lins1.2.weight f4 [32, 32]
0	0x3dc3a645	0.09553198
1	0x3aab2636	0.0013057652
2	0xbd8be1c3	-0.0683017
3	0xb9b4fb8c	-0.00034519692
4	0x3d9b25ea	0.07575591
5	0xbd4d081c	-0.05005656
6	0x3de26143	0.110537075
7	0xbe2bd24d	-0.16779442
8	0xbd76c77f	-0.060248848
9	0x3e124ec6	0.14287862
10	0x3cf2c205	0.029633531
11	0x3d1ce609	0.038305316
12	0x3d61e037	0.05514547
13	0xbda129a4	-0.078692704
14	0xbd63a363	-0.05557574
15	0x3d5fede4	0.05467023
16	0xbd01f335	-0.03172608
17	0xbd3bd9b9	-0.045861933
18	0x3d50ac92	0.050945826
19	0x3d4f5788	0.050620586
20	0x3b93a958	0.0045062713
21	0xbdeba5b0	-0.11506212
22	0xbd71bee9	-0.059019957
23	0xbdbe6873	-0.09297266
24	0x3dc81680	0.097699165
25	0xbe13f530	-0.14449
26	0x3dfd29f9	0.12361521
27	0x3dc7fc6e	0.09764944
28	0xbe020a9c	-0.1269936
29	0x3e05a69d	0.13051839
30	0xbe0ffd1d	-0.14061399
31	0xbd16d22a	-0.03682152
32	0xbddc34ef	-0.10752284
33	0xbdfeb1d1	-0.124362595
34	0x3c3bc467	0.0114604
35	0xbd7e8996	-0.06214293
36	0x3defc1b8	0.11706871
37	0xbe2c46ac	-0.16823834
38	0x3e011535	0.12605746
39	0x3dc3839a	0.095465854
40	0x3e414699	0.18874587
41	0x3c6931d9	0.014233076
42	0xbe0066d2	-0.12539223
43	0xbe0548fc	-0.13016123
44	0x3e04a737	0.12954412
45	0xbdf60a76	-0.12013714
46	0xbd2c3be4	-0.042049304
47	0xbd4b2604	-0.0495968
48	0x3cdfd64d	0.027323866
49	0xbe01f19b	-0.12689821
50	0x3e49151c	0.19636959
51	0xbe12aec1	-0.14324476
52	0x3e4ad520	0.19807863
53	0xbda56c0d	-0.0807725
54	0xbdde8ac8	-0.10866314
55	0xbd24c496	-0.04022654
56	0x3ce2c56f	0.027682034
57	0xbd6cc8b7	-0.057808604
58	0xbe4ef2be	-0.20209786
59	0x3e1aa8e2	0.15103486
60	0x3e0cfc0a	0.1376802
61	0x3d723e4f	0.059141453
62	0x3e1b5b96	0.15171656
63	0x3cc35dbc	0.023848407
64	0x3a93b132	0.0011268018
65	0xbe0ae9f9	-0.13565816
66	0xbe179fc2	-0.14807037
67	0xbe01f91e	-0.12692687
68	0xbd59b98a	-0.05315546
69	0x3dcc3db4	0.099727064
70	0xbdb48a50	-0.088154435
71	0xbc55be86	-0.013045913
72	0xbc98a6b2	-0.018634174
73	0xbe0035a5	-0.12520464
74	0xbcf0809b	-0.029358199
75	0x3e21160f	0.15731071
76	0x3e1e8772	0.15481356
77	0x3df6f9a3	0.12059333
78	0xbca52104	-0.020157345
79	0xbbbaf76a	-0.0057057636
80	0x3d963ecf	0.073361985
81	0xbda54d1d	-0.08071349
82	0xbdabdab3	-0.08391323
83	0x3e0325d0	0.12807393
84	0x3bc2dd41	0.0059467857
85	0xbe0cdf32	-0.13757017
86	0x3e1fc89a	0.15603867
87	0xbbae1cce	-0.0053134924
88	0x3da12cf7	0.078699045
89	0xbe13aa02	-0.14420322
90	0x3d61e2dd	0.055147994
91	0x3dbebbe7	0.09313183
92	0xbd99f9d8	-0.07518357
93	0xbde86d8b	-0.11349019
94	0x3e3791c2	0.17926696
95	0x3d93dd23	0.07219913
96	0x3d58e8dd	0.05295645
97	0x3ca35522	0.019938055
98	0xbbe70d72	-0.0070511634
99	0x3da92055	0.0825812
100	0xbd19b6a3	-0.03752769
101	0xbda59d6a	-0.08086665
102	0x3d9b5d75	0.07586185
103	0x3d55f8ee	0.05223935
104	0x3d545c87	0.051846053
105	0xbca8e7ac	-0.020618282
106	0xbba2eeea	-0.0049723284
107	0xbc7c4e24	-0.01539949
108	0x3d068bf0	0.0328483
109	0xbdf2f377	-0.118628435
110	0xbe244c0f	-0.16044639
111	0x3d90fad6	0.07079093
112	0xbdc46f50	-0.09591544
113	0xbcb884be	-0.022524234
114	0x3d17f7c0	0.037101507
115	0x3d1a9793	0.03774221
116	0x3dbb152f	0.091349
117	0x3c92d244	0.017922528
118	0x3d99a2ee	0.075017795
119	0xbcd8ce04	-0.026465423
120	0x3d1a14df	0.03761756
121	0x3d823eb5	0.06359617
122	0x3de0c1df	0.10974478
123	0xbe350fe7	-0.17681848
124	0xbd980115	-0.074220814
125	0xbe3639be	-0.17795464
126	0xbdbd0d9f	-0.09231114
127	0x3dfb51d2	0.12271465
128	0xbe437ab4	-0.19089776
129	0xbe38861e	-0.18019912
130	0x3da50091	0.08056749
131	0xbe043704	-0.12911612
132	0x3dcc7c9b	0.09984704
133	0x3d96435d	0.07337067
134	0x3c9aa968	0.018879607
135	0x3dec57fb	0.115402184
136	0xbe40c844	-0.18826395
137	0x3dc7c7a9	0.09754879
138	0x3cfd1e1f	0.030898152
139	0xbe12f79e	-0.14352271
140	0x3da12184	0.07867721
141	0xbd4206b0	-0.04736966
142	0xbdcc7c65	-0.09984664
143	0xbd374233	-0.044740867
144	0xbde2c782	-0.11073209
145	0x3e0980c3	0.13428025
146	0x3df1657c	0.11786935
147	0xbd3cafa2	-0.046065934
148	0xbe35f7d5	-0.17770322
149	0xbd0f8bf6	-0.035045587
150	0x3c555bd7	0.013022385
151	0x3dd728bb	0.105058156
152	0xbc936c28	-0.017995909
153	0x3d268416	0.04065331
154	0x3d677a4f	0.056513127
155	0xbdfdd61f	-0.12394356
156	0xbe0165fb	-0.12636559
157	0xbe297f33	-0.16552429
158	0x3bf53b7f	0.007483899
159	0x3d0c02da	0.034182407
160	0xbccc832e	-0.024964895
161	0x3e1c8641	0.15285589
162	0xbccceccc	-0.025015257
163	0xbe0b2865	-0.13589628
164	0x3b958d95	0.004563997
165	0xbd418c63	-0.047253024
166	0xbd2fcae6	-0.04291811
167	0x3e2366b3	0.15957145
168	0xbcb833b8	-0.022485599
169	0x3e05be57	0.1306089
170	0x3c344e32	0.011004971
171	0xbdaae1a2	-0.08343817
172	0x3df6b356	0.12045924
173	0xbde58cbe	-0.11208485
174	0xbc53f819	-0.012937569
175	0x3cd84dae	0.026404228
176	0x3d79dd70	0.061002195
177	0xbe3c39dc	-0.18381447
178	0xbc5983ca	-0.01327605
179	0xbd7f6ea5	-0.06236138
180	0x3dc579d6	0.09642379
181	0x3d316338	0.043307513
182	0x3df3667e	0.11884783
183	0x3dc85499	0.09781761
184	0xbd5b31f0	-0.05351442
185	0xbc5f86cb	-0.013642977
186	0x3e12e1bd	0.14343925
187	0xbe228f7e	-0.1587505
188	0xbe041991	-0.12900378
189	0x3c89c044	0.016815312
190	0xbd8d1bb6	-0.06890051
191	0x3b08ed7a	0.00208935
192	0x3df74e0d	0.12075434
193	0xbd337ab4	-0.04381819
194	0xbe36b881	-0.1784382
195	0xbdde9db2	-0.10869922
196	0x3e187201	0.14887239
197	0xbd51f2f7	-0.0512571
198	0xbdadac19	-0.08480091
199	0x3d82c9ea	0.06386168
200	0xba259464	-0.00063163624
201	0xbe2e0b42	-0.16996482
202	0x3e178a6c	0.14798898
203	0x3dba184f	0.09086668
204	0x3e187466	0.14888152
205	0x3da99b48	0.08281571
206	0xbd949981	-0.07255841
207	0xbd8f8a3d	-0.07008789
208	0x3d8d7de4	0.06908777
209	0xbd380626	-0.04492774
210	0x3add3b57	0.0016878647
211	0xbe371e5c	-0.17882675
212	0xbe039f3d	-0.12853713
213	0x3d7727e8	0.060340792
214	0xbc9b85f8	-0.01898478
215	0xbda833ae	-0.08212982
216	0xbe277e15	-0.1635669
217	0x3de570e5	0.112031735
218	0xbd74cead	-0.059767414
219	0xbe455238	-0.19269645
220	0x3e207c4d	0.15672417
221	0x3d901d0c	0.0703679
222	0xbe1b95cf	-0.15193866
223	0xbe089288	-0.13337147
224	0x3dec2663	0.11530759
225	0x3ba0e40b	0.0049099973
226	0xbe0bd6c7	-0.1365615
227	0x3defe52b	0.11713632
228	0xbcdec195	-0.027191916
229	0xbc241741	-0.01001531
230	0xbdb9e6e7	-0.09077244
231	0xbe41fe2d	-0.18944617
232	0xbdc06ca2	-0.0939572
233	0xbbfdc0ef	-0.0077439467
234	0xbda7cc86	-0.081933066
235	0x3e256329	0.16151108
236	0xbc93d0ff	-0.018043993
237	0xbdcb3292	-0.09921755
238	0x3d986137	0.07440417
239	0xbe2536f4	-0.16134244
240	0xbd836719	-0.06416149
241	0x3db407ad	0.087905265
242	0xbdeced42	-0.11568691
243	0x3dfa2eac	0.12215933
244	0x3c0c0fa2	0.008548649
245	0xbe205ffb	-0.15661614
246	0xbe53be0c	-0.20677966
247	0x3d456cbf	0.04819941
248	0x3dc10cfd	0.094263054
249	0xbd93f247	-0.07223945
250	0xbe424e3e	-0.1897516
251	0xbd9afa12	-0.075672284
252	0x3d593832	0.053032108
253	0xbbecce94	-0.0072267745
254	0x3d22103c	0.039566264
255	0xbbdfe88c	-0.0068331417

emb_net.v_lins1.2.bias f4 [32]
0	0xbd84a71b	-0.06477185
1	0xbd7dcc20	-0.061962247
2	0xbd54f3b5	-0.05199023
3	0xbe1bac6e	-0.15202495
4	0xbdf94fc7	-0.121734194
5	0xbc475d37	-0.01216822
6	0xbcaed39d	-0.02134114
7	0xbe1cd1f6	-0.15314469
8	0x3d1612d9	0.03663907
9	0x3dc75f4d	0.09734974
10	0x3e144cce	0.14482424
11	0x3e196d75	0.14983161
12	0xbe09a959	-0.13443507
13	0xbd5b9591	-0.053609435
14	0xbdaa9d42	-0.08330776
15	0x3cf89fd8	0.030349657
16	0x3d496108	0.0491648
17	0x3d2b74ef	0.041859563
18	0x3dd58e2e	0.10427509
19	0x3dbe039e	0.09278034
20	0xbdb7b6e3	-0.0897043
21	0x3dfe0976	0.12404148
22	0x3dead990	0.11467278
23	0x3ca3ebc8	0.02000989
24	0xbe18be9a	-0.14916459
25	0xbde4da48	-0.11174446
26	0x3d4d5444	0.05012919
27	0x3d71d6eb	0.059042852
28	0x3e295c29	0.16539063
29	0x3db5706f	0.08859336
30	0x3d843523	0.064554475
31	0xbc272e5c	-0.010203924

emb_net.v_lins1.3.weight f4 [32, 32]
0	0x3ddfcddf	0.10927939
1	0xbce1a49b	-0.02754431
2	0x3d2a0bf7	0.041515317
3	0xbd8fe3f7	-0.07025903
4	0xbc849b25	-0.01618726
5	0x3da6b78a	0.08140476
6	0x3d67e5c0	0.05661559
7	0xbd39438f	-0.045230445
8	0x3d0f21b5	0.034944255
9	0xbe093154	-0.13397723
10	0x3d738542	0.059453256
11	0x3dc72cac	0.09725317
12	0x3d2fb4a5	0.042896885
13	0xbe3d7af9	-0.18503942
14	0xbe134053	-0.14380006
15	0x3de932dc	0.11386654
16	0xbd1f168e	-0.03883987
17	0x3e1cac93	0.15300207
18	0x3e0f1a68	0.13974917
19	0xbd6df2ca	-0.05809287
20	0xbdb69ced	-0.0891665
21	0xbe230467	-0.15919648
22	0x3d56dccc	0.052456662
23	0x3dc1a797	0.09455793
24	0xbd124d37	-0.03571817
25	0xbe512b06	-0.20426568
26	0xbde497e6	-0.11161785
27	0x3c078ca4	0.008273277
28	0x3df2c1d6	0.118533775
29	0xbdab89e3	-0.08375909
30	0xbd9a7d57	-0.07543438
31	0xbe074322	-0.13209203
32	0x3e21e799	0.15811004
33	0x3d5a41a0	0.05328524
34	0xbe0e1cc6	-0.13878164
35	0xbdf2d437	-0.11856883
36	0xbe1e5ac4	-0.15464312
37	0x3d3beb62	0.045878775
38	0xbdb5480e	-0.08851634
39	0x3b80d186	0.003931227
40	0xbd2dacdd	-0.042401183
41	0xbe0f358a	-0.13985267
42	0xbe2e0ba8	-0.16996634
43	0xbe19507b	-0.14972107
44	0xbd699ab1	-0.05703229
45	0x3cc64116	0.024200957
46	0xbd9dec91	-0.07711137
47	0xbc3725ae	-0.011178417
48	0x3b0e887e	0.0021748836
49	0x3e1de6c3	0.1542006
50	0xbdbfcab2	-0.09364833
51	0x3e29fa64	0.16599423
52	0xbe00e691	-0.12587954
53	0xbe08a896	-0.1334556
54	0x3d5a842a	0.053348698
55	0xbde45aaa	-0.11150105
56	0x3d9aab22	0.07552172
57	0xbd923b2b	-0.07140192
58	0x3e139f80	0.14416313
59	0x3e2b9bb4	0.16758615
60	0x3b6d0c26	0.003617057
61	0x3d00ca79	0.031443093
62	0x3e08b4b3	0.13350181
63	0x3da5ff3c	0.08105323
64	0xbdf5bb22	-0.119985834
65	0xbc2078f1	-0.00979446
66	0xbe3a0bbf	-0.18168543
67	0x3dfa3f35	0.12219087
68	0xbd9acea5	-0.075589456
69	0xbcf0250f	-0.029314546
70	0xbe1a35fa	-0.15059653
71	0xbdf1dfd9	-0.11810274
72	0x3d604fee	0.054763727
73	0x3e0702bd	0.13184638
74	0xbe08d063	-0.13360743
75	0xbcb3fe5d	-0.021971876
76	0x3e0f2b03	0.13981251
77	0x3e051e16	0.12999758
78	0xbd81f5b6	-0.06345694
79	0x3de2ccbb	0.110742055
80	0x3d90e1e9	0.07074339
81	0x3e2562ba	0.16150942
82	0xbd00cde5	-0.031446356
83	0xbe40023c	-0.18750852
84	0xbde0aab4	-0.10970059
85	0x3dba11a2	0.090853944
86	0x3d79644f	0.060886677
87	0xbe332093	-0.17492895
88	0x3dd80e0c	0.10549554
89	0xbe23b8ff	-0.15988539
90	0x3dcd90a9	0.10037357
91	0x3e052685	0.13002975
92	0x3bda270e	0.0066574877
93	0xbd30e15d	-0.043183673
94	0x3e1cb1c8	0.15302193
95	0xbdc8d646	-0.098064944
96	0xbe2b01c0	-0.16699886
97	0xbe089bbe	-0.13340661
98	0x3df9915a	0.12185927
99	0x3e0a6e3c	0.13518614
100	0x3c4557bd	0.012044844
101	0xbe28d315	-0.16486771
102	0xbe1e760f	-0.15474723
103	0xbd1d7947	-0.038445737
104	0x3da0214a	0.078188494
105	0xbdfe6646	-0.12421851
106	0x3d800278	0.06250471
107	0xbdd520d2	-0.104066506
108	0x3e104366	0.1408821
109	0xbc86826b	-0.01641961
110	0xbd1b1ee5	-0.03787126
111	0xbe22dbe0	-0.15904188
112	0xbe2532de	-0.16132686
113	0xbb03fd42	-0.0020139967
114	0x3cc601cd	0.02417078
115	0x3de3ea8e	0.11128722
116	0xbe2b3e43	-0.1672297
117	0x3cdc4fff	0.026893614
118	0xbcfb9c06	-0.030714046
119	0x3dac73dc	0.08420536
120	0xbd9f656c	-0.077830166
121	0x3d6dc9eb	0.058053892
122	0x3d7a9a27	0.061182167
123	0x3dd1f2f4	0.10251418
124	0xbd9bbca2	-0.07604338
125	0x3cc61eae	0.024184551
126	0xbd281d02	-0.04104329
127	0x3d82ec4b	0.063927256
128	0xbda4b46d	-0.08042226
129	0xbe1043a7	-0.14088307
130	0xbe01b5ec	-0.12667054
131	0xbde6e3e4	-0.112739354
132	0xbddf3f0e	-0.109006986
133	0x3d06ed16	0.032940947
134	0xbd2bfc59	-0.041988704
135	0xbddab540	-0.10679102
136	0xbba75c04	-0.0051074047
137	0xbc6829b9	-0.014170104
138	0x3dba333f	0.09091806
139	0xbe13067c	-0.14357942
140	0xbced901c	-0.02899938
141	0xbdf46cf3	-0.11934843
142	0x3baaaafb	0.0052083707
143	0xbc4fda1c	-0.012686279
144	0x3d15baed	0.03655522
145	0x3e31f3eb	0.17378204
146	0xbda63968	-0.08116418
147	0xbd2bdad3	-0.041956734
148	0x3d10639d	0.03525125
149	0x3e4389b8	0.19095504
150	0x3dee7516	0.11643426
151	0xb99fe1ba	-0.00030495023
152	0xbde27f54	-0.11059442
153	0x3d910c3b	0.07082411
154	0x3df729ca	0.120685175
155	0xbc98d037	-0.018653972
156	0x3db6aa41	0.08919192
157	0x3e07ebf1	0.13273598
158	0xbdc4b5e3	-0.09605005
159	0xbd423016	-0.04740914
160	0xbe21a3c0	-0.15785122
161	0x3d4c0fc1	0.04981971
162	0x3df05711	0.117353566
163	0xbd230911	-0.03980357
164	0x3c9119c1	0.017712476
165	0x3d32907b	0.04359482
166	0xbc672d0e	-0.014109863
167	0x3e021d25	0.1270643
168	0x3d071208	0.03297618
169	0xbe3581dc	-0.17725319
170	0xbe25c6e5	-0.16189153
171	0xbe3ffb60	-0.18748236
172	0xb9a57123	-0.00031555546
173	0x3da4f898	0.08055228
174	0xbcd85b20	-0.02641064
175	0x3e1f44c8	0.15553582
176	0xbc962bef	-0.018331496
177	0x3d2a8b3b	0.041636687
178	0x3e227fd9	0.15869083
179	0x3daf993d	0.0857415
180	0x3c40597e	0.011740087
181	0x3e2c6c6e	0.16838238
182	0xbdda891f	-0.10670685
183	0x3d4cecbc	0.050030455
184	0x3dc4c5b5	0.09608022
185	0xbdeb3e6d	-0.11486516
186	0xbe20c821	-0.15701343
187	0x3d84926e	0.06473242
188	0xbd849efb	-0.064756356
189	0xbdd80eda	-0.10549708
190	0x3ca5225b	0.020157984
191	0xbe162ab7	-0.14664732
192	0x3e23b98d	0.15988751
193	0xbbb4924f	-0.0055106054
194	0xbd879ae6	-0.066213414
195	0x3ddf63b7	0.10907691
196	0x3c895dbb	0.016768327
197	0x3bc4202a	0.0059852796
198	0xbddae44f	-0.10688078
199	0x3e023063	0.1271377
200	0xbd35075d	-0.044196475
201	0x3e537e51	0.20653655
202	0xbd346c63	-0.044048678
203	0x3d9c4093	0.07629504
204	0x3dfcfe65	0.123532094
205	0xbdf83524	-0.12119511
206	0xbe06440e	-0.13111898
207	0xbe4352e2	-0.19074586
208	0x3ddd8513	0.108163975
209	0x3e2aea70	0.16690993
210	0xbd878baf	-0.066184394
211	0xbddc0c47	-0.10744529
212	0x3cd088fa	0.02545594
213	0x3dba620d	0.09100733
214	0x3ce4ed5a	0.02794521
215	0xbcf516a9	-0.029918032
216	0xbe14df98	-0.14538419
217	0x3e0638d5	0.13107617
218	0xbe180556	-0.14845785
219	0xbe4ceca2	-0.20012143
220	0xbd71f07e	-0.05906724
221	0x3cefbe41	0.029265525
222	0x3d8ba73c	0.06819007
223	0x3d383ae4	0.044978037
224	0xbdf9143d	-0.12162063
225	0xbdba9197	-0.091098
226	0xbdbb1546	-0.09134917
227	0xbdcad8c4	-0.09904626
228	0xbdeecd99	-0.116603084
229	0x3cff7205	0.031182298
230	0xbce36fcd	-0.027763272
231	0xbe1dd304	-0.15412527
232	0xbdf44084	-0.11926368
233	0xbda52ec2	-0.08065559
234	0xbcfa33b4	-0.030542232
235	0xbdd8f729	-0.10594017
236	0xbd9f0924	-0.07765415
237	0x3d3a50eb	0.045487326
238	0xbe019a62	-0.12656549
239	0xbcf5bae4	-0.029996343
240	0xbd45e36a	-0.048312582
241	0xbdda10c3	-0.10647728
242	0xbd5fc00d	-0.054626513
243	0xbd61eeef	-0.055159505
244	0x3c4d5d23	0.012534413
245	0xbe3b96fc	-0.18319315
246	0x3d1cb53a	0.03825877
247	0x3ddc01fc	0.10742566
248	0x3e017632	0.12642744
249	0xbd7d9363	-0.061908137
250	0x3c3f25aa	0.011666695
251	0xbe4972c4	-0.19672686
252	0x3e128114	0.14307052
253	0xbe19b449	-0.1501018
254	0xbe463905	-0.19357689
255	0xbe03f08c	-0.1288473

emb_net.v_lins1.3.bias f4 [32]
0	0x3e29c2ce	0.16578218
1	0xbc8c0c58	-0.01709573
2	0x3d8d1be4	0.06890085
3	0x3db6effc	0.08932492
4	0xbe09b067	-0.13446198
5	0xbe14cd45	-0.14531429
6	0x3d89067f	0.06690692
7	0x3da45277	0.080235414
8	0xbdaa91c0	-0.08328581
9	0x3ceea60e	0.029131915
10	0xbe310b61	-0.17289497
11	0x3b07ceb7	0.0020722577
12	0x3d30e66c	0.043188497
13	0x3ac1c4c5	0.0014783373
14	0xbd2c094b	-0.04200105
15	0x3d937783	0.072005294
16	0xbd493174	-0.049119428
17	0x3e0861b6	0.13318524
18	0xbe1b469b	-0.15163653
19	0xbdd0d77e	-0.10197352
20	0xbe18de66	-0.14928588
21	0xbe27ffc0	-0.16406155
22	0x3e07105a	0.13189831
23	0xbd319533	-0.043355178
24	0xbe10695e	-0.14102694
25	0x3d1360b0	0.03598088
26	0xbe087f36	-0.13329777
27	0xbb0a0da3	-0.0021065257
28	0x3dcc41c1	0.09973479
29	0xbd11055a	-0.035405494
30	0x3db2f4ca	0.08738096
31	0x3d1843f4	0.03717418

emb_net.v_lins1.4.weight f4 [32, 32]
0	0xbdff0d49	-0.12453706
1	0x3d75f5c9	0.060048852
2	0x3d949b9d	0.072562434
3	0xbd4ce4de	-0.050022952
4	0xbbdb2b57	-0.006688516
5	0xbb40c201	-0.002941251
6	0xbc9da33c	-0.019242875
7	0x3c9aa63c	0.018878095
8	0xbe10c9e7	-0.1413952
9	0x3e23f189	0.16010107
10	0x3d635492	0.055500574
11	0xbc34d0a2	-0.01103607
12	0x3d4bd176	0.049760304
13	0xbe1a720d	-0.1508257
14	0xbd9b4ee9	-0.0758341
15	0xbc8c577b	-0.017131558
16	0x3d69fd8b	0.057126563
17	0xbd93bee2	-0.072141424
18	0x3d1edde5	0.038785834
19	0xbd9fb927	-0.07798987
20	0x3e18437c	0.14869493
21	0xbe1afd28	-0.15135634
22	0x3a92c464	0.0011197445
23	0x3e09c4fa	0.13454047
24	0xbe10a8e7	-0.14126931
25	0xbd191138	-0.037369937
26	0x3dc09378	0.094031274
27	0x3dbb8fd5	0.09158293
28	0x3d61f1dc	0.055162296
29	0x3da5926f	0.080845706
30	0xbdc983d2	-0.09839596
31	0x3e028674	0.12746602
32	0xba280146	-0.0006408881
33	0x3e0097dc	0.1255793
34	0x3d1cf150	0.03831607
35	0xbc7f7038	-0.01559072
36	0x3d57ad3c	0.052655444
37	0x3e29d814	0.16586334
38	0x3e1344a5	0.14381655
39	0xbe34d492	-0.17659214
40	0x3cbceeb4	0.023063041
41	0xbde52e8d	-0.111905195
42	0x3d97109d	0.073762156
43	0x3da9f2d3	0.08298268
44	0xbdea6c1a	-0.114464
45	0xbcd0edb5	-0.025503973
46	0x3d9fd087	0.07803445
47	0x3dd784ba	0.105233625
48	0xbe069d26	-0.13145885
49	0x3e09393e	0.13400742
50	0xbcdbd993	-0.026837146
51	0xbe3018ad	-0.17196913
52	0x3cccd39b	0.025003245
53	0x3dbeba50	0.0931288
54	0x3dd04e9d	0.10171244
55	0xbde7bbe3	-0.113151334
56	0xbe037c5a	-0.12840405
57	0xbe092c46	-0.13395795
58	0x3ddbc2a9	0.10730488
59	0xbe27a122	-0.16370061
60	0xbd41df52	-0.047332115
61	0xbd7d68af	-0.061867412
62	0x3dc3f1fe	0.09567641
63	0x3ca48fdc	0.020088129
64	0xbde8f1fd	-0.113742806
65	0x3caee038	0.02134715
66	0x3df7f6c0	0.12107611
67	0x3cdb9d0b	0.026808282
68	0xbdd3531d	-0.10318587
69	0xbd49a46e	-0.049229078
70	0xbe1cef2b	-0.1532561
71	0xbe030213	-0.1279376
72	0xbcbe391b	-0.02322059
73	0xbd4a11df	-0.04933345
74	0x3e0e7f4d	0.13915749
75	0x3c402e46	0.011729782
76	0x3e0f79ed	0.14011355
77	0xbdd38e1a	-0.10329838
78	0xbd13ce73	-0.036085557
79	0xbc099307	-0.00839687
80	0xbdbf0d47	-0.09328704
81	0xbd666b5f	-0.05625474
82	0xbe54b6ac	-0.20772809
83	0x3da4e8b1	0.08052195
84	0x3dfda30e	0.12384616
85	0xbe4d2248	-0.20032609
86	0xbde500a6	-0.11181764
87	0xbe26d236	-0.16291127
88	0xbdec43fe	-0.11536406
89	0x3e12f04f	0.14349483
90	0x3d96774e	0.07346974
91	0xbd5ed93f	-0.0544064
92	0x3d1b3c68	0.037899405
93	0x3d62ccfa	0.055371262
94	0x3ddca80d	0.10774241
95	0xbe0f5301	-0.13996507
96	0x3cb1fd7f	0.021727322
97	0xbe58b834	-0.21164018
98	0xbd8d6c58	-0.069054306
99	0xbdde55b5	-0.10856191
100	0x3c9ab106	0.01888324
101	0xbe23c788	-0.15994084
102	0x3c90ea56	0.017689865
103	0x3d3acb21	0.045603875
104	0xbdec4a8a	-0.11537655
105	0x3d71ec3f	0.059063192
106	0x3e28685a	0.16446057
107	0xbc0059ff	-0.007833957
108	0xbdc3933b	-0.09549566
109	0xbe19cd0c	-0.15019625
110	0xbdb0dc53	-0.086357735
111	0xbdf50457	-0.119637184
112	0xbddef020	-0.10885644
113	0xbd822a09	-0.06355674
114	0x3dabe51d	0.08393309
115	0x3d9872f2	0.07443799
116	0x3e14b499	0.14522018
117	0x3e1b75d4	0.15181667
118	0xbd8e4186	-0.06946091
119	0xbdc06f43	-0.093962215
120	0x3c8a50eb	0.016884288
121	0xbdaf3bc8	-0.08556324
122	0x3d3f5e9a	0.04672108
123	0xbd57de06	-0.052701972
124	0xbe11835b	-0.14210264
125	0xbe077cb0	-0.13231158
126	0xbe2d191d	-0.16904111
127	0x3cab4e07	0.02091123
128	0x3e0f7e26	0.14012966
129	0x3e09a34d	0.134412
130	0xbd89eecd	-0.06735001
131	0xbe0d0dd6	-0.13774809
132	0xbdd03e30	-0.10168111
133	0xbe1e35b9	-0.15450181
134	0xbd46359c	-0.04839097
135	0xbe2aeed1	-0.16692664
136	0x3dc9661f	0.09833931
137	0xbe031095	-0.12799294
138	0xbe0347fa	-0.12820426
139	0x3de479b3	0.11156025
140	0xbde5389d	-0.11192439
141	0x3ce2fb71	0.027707787
142	0x3e0bf3c6	0.13667211
143	0x3e15dd25	0.14635141
144	0x3d8372b9	0.06418366
145	0xbd3265cf	-0.043554123
146	0x3d8fcbbd	0.07021282
147	0xbcd97552	-0.0265452
148	0xbd2074cb	-0.039173882
149	0x3c166590	0.009179488
150	0x3c705173	0.0146678565
151	0x3e08780c	0.13327044
152	0x3cb0fdd8	0.021605417
153	0x3dadfed3	0.084958695
154	0x3d03575e	0.03206574
155	0xbc70a606	-0.014688021
156	0x3dc0459c	0.09388277
157	0x3da177c6	0.07884173
158	0xbe236047	-0.15954696
159	0x3d17e1e7	0.03708067
160	0xbd8b03a3	-0.06787803
161	0xbdbbeb57	-0.09175747
162	0x3d6b59c6	0.05745866
163	0x3cb80aad	0.022466028
164	0x3d13967a	0.036032178
165	0xbdae04ca	-0.08497007
166	0x3db15a12	0.08659758
167	0x3e3972d1	0.18110205
168	0x3cb7bbf7	0.022428496
169	0x3da068bb	0.07832476
170	0xbe1ffee6	-0.1562458
171	0x3dfaa9cd	0.12239418
172	0x3d9d9ae4	0.07695559
173	0x3da7935a	0.08182402
174	0x3d88a129	0.06671364
175	0xbd2549a0	-0.040353417
176	0x3bc739d8	0.0060798936
177	0x3e3b35cd	0.18282242
178	0x3df7b44c	0.12094936
179	0xbde0dabb	-0.109792195
180	0x3e1538cb	0.14572446
181	0x3e443aa8	0.19163
182	0x3ccff063	0.02538318
183	0xbdfa1bdd	-0.12212346
184	0x3ce8f495	0.028436938
185	0xbd2ba2c5	-0.041903276
186	0x3e0b85ba	0.13625231
187	0xbe2a9486	-0.1665822
188	0x3cfbd658	0.030741856
189	0xbc414ca0	-0.011798054
190	0x3c5d02a0	0.013489395
191	0x3e2185c3	0.15773682
192	0x3d0b67ce	0.034034543
193	0xbe193d35	-0.14964755
194	0xbe2a940e	-0.16658041
195	0xbdc0f3b0	-0.0942148
196	0xbc1946e2	-0.009355279
197	0x3d338751	0.04383022
198	0xbd7fbebc	-0.062437758
199	0xbdb01164	-0.08597067
200	0x3daa18b1	0.08305491
201	0xbe0d7397	-0.13813625
202	0x3da17948	0.07884461
203	0xbd8131f1	-0.06308354
204	0x3d988631	0.0744747
205	0x3d9ffa48	0.07811409
206	0xbc73497d	-0.014849064
207	0x3dc11932	0.09428634
208	0xbddb3ddf	-0.1070516
209	0x3e070c67	0.13188325
210	0x3dc8bf4d	0.09802113
211	0xbd81304f	-0.06308042
212	0x3dd228ab	0.10261663
213	0xbd29897f	-0.041390892
214	0x3db51652	0.08842148
215	0x3d147165	0.036240954
216	0x3dec58cf	0.115403764
217	0xbe3c5b05	-0.18394096
218	0x3e2663ba	0.1624898
219	0x3d88cc95	0.06679646
220	0x3d42ca53	0.047556233
221	0x3cb4f4ce	0.022089388
222	0x3e05baaf	0.13059495
223	0x3e19436b	0.14967124
224	0xbd21c343	-0.039492857
225	0xbe20551e	-0.1565747
226	0x3df44c83	0.11928656
227	0xbd81e4d1	-0.063424714
228	0xbdb31a6f	-0.08745276
229	0x3d99b882	0.07505895
230	0x3d87c482	0.06629278
231	0x3bc34df1	0.005960219
232	0xbc9e3f88	-0.019317403
233	0xbc0fee62	-0.008784862
234	0x3e3fc03f	0.1872568
235	0x3de9b229	0.114109345
236	0x3d76e451	0.060276333
237	0x3daded86	0.084925696
238	0xbdb96c49	-0.09053857
239	0xbbca7491	-0.0061784466
240	0xbe32fb52	-0.17478684
241	0x3dce5850	0.10075438
242	0xbe3ae48e	-0.18251249
243	0xbe452146	-0.19250974
244	0xbe2d29ac	-0.16910428
245	0x3d647ab7	0.055781092
246	0x3c3a9fe4	0.01139066
247	0xbcaaf423	-0.020868367
248	0xbc89ce8e	-0.016822126
249	0xbd776705	-0.06040098
250	0xbdc44d22	-0.095850244
251	0xbe23beea	-0.15990797
252	0xbd495537	-0.049153533
253	0xbdd892ff	-0.10574912
254	0xbc0acb8a	-0.008471379
255	0x3de0ac34	0.10970345

emb_net.v_lins1.4.bias f4 [32]
0	0xbe2c405d	-0.16821428
1	0x3cc19ddc	0.023634844
2	0xbd3b4dcd	-0.045728493
3	0xbdd0409a	-0.10168572
4	0x3d05c0e5	0.03265466
5	0x3e15fe98	0.14647901
6	0x3e15c44f	0.14625667
7	0x3dce0383	0.100592636
8	0xbe0f1322	-0.13972142
9	0x3dce2587	0.100657515
10	0x3db26871	0.08711327
11	0x3d6c6bfc	0.05772017
12	0xbd33afa0	-0.04386866
13	0xbb9dfcdc	-0.004821403
14	0xbdc4190a	-0.09575088
15	0xbd110bb7	-0.035411563
16	0xbcf168f6	-0.029468995
17	0xbcd21e6e	-0.025649276
18	0xbe337d2a	-0.17528215
19	0x3d7be86f	0.061500963
20	0xbe12d568	-0.1433922
21	0xbe078229	-0.13233246
22	0x3d8f3e07	0.06994253
23	0xbe15c325	-0.14625223
24	0x3e286f55	0.1644872
25	0x3e2d9614	0.16951782
26	0xbd70db1e	-0.058802716
27	0xbce9bf8c	-0.02853372
28	0xbe0a0cac	-0.13481396
29	0x3c13c2e7	0.009018636
30	0x3d07eeb8	0.033186644
31	0xbdcb9cd4	-0.09942022

emb_net.v_lins1.5.weight f4 [32, 32]
0	0x3d4f0b85	0.050548095
1	0x3b86b935	0.004111434
2	0xbd799b1f	-0.06093895
3	0xbd7e44d0	-0.062077343
4	0xbe36ca5c	-0.17850631
5	0xbe0decf5	-0.13859923
6	0xbc34f1ad	-0.011043948
7	0x3e086bea	0.13322416
8	0xbda6608e	-0.08123885
9	0x3dee0908	0.11622816
10	0xbd3e8953	-0.04651768
11	0xbdfbdfa6	-0.12298517
12	0x3b40ab05	0.002939881
13	0x3dc9b911	0.09849752
14	0xbc141533	-0.009038257
15	0x3e14e13c	0.14539045
16	0xbd658cf6	-0.056042634
17	0xbe0ce8a5	-0.13760622
18	0x3e294b09	0.1653253
19	0xbd946565	-0.07245902
20	0x3e0ec9af	0.13944124
21	0x3e0595d2	0.13045433
22	0x3d125d99	0.035733793
23	0xbe0b37e5	-0.13595541
24	0xbe44c91e	-0.19217345
25	0x3d732dd9	0.059369896
26	0x3d067390	0.032825053
27	0x3dd2b887	0.10289102
28	0xbdffa953	-0.12483468
29	0xbc2ec177	-0.010666243
30	0x3e1fc67f	0.15603064
31	0x3d9d2e4b	0.07674845
32	0x3dea48f4	0.11439696
33	0x3e0be314	0.13660842
34	0xbd8b3f97	-0.06799238
35	0xbe056039	-0.13024987
36	0xbddc8e22	-0.10769297
37	0x3d5b9526	0.053609036
38	0xbda73364	-0.08164099
39	0x3cb075e0	0.021540582
40	0xbc290e95	-0.010318418
41	0x3dd8bf3f	0.10583352
42	0x3da7ec15	0.08199326
43	0x3dae683c	0.08515975
44	0x3b988a1c	0.004655136
45	0x3db90e0e	0.09035884
46	0xbd97fef0	-0.07421672
47	0xbd77b35d	-0.06047379
48	0xbcec3854	-0.028835453
49	0xbdd54130	-0.10412824
50	0x3e212614	0.15737182
51	0xbd3f9656	-0.04677423
52	0x3d61dab8	0.055140227
53	0xbbd4f209	-0.0064985794
54	0x3ca56580	0.02019
55	0xbdbd4203	-0.09241106
56	0xbc1b3f01	-0.0094754705
57	0xbe24cd04	-0.16093832
58	0xbd9ff8db	-0.07811137
59	0x3e0287d9	0.12747134
60	0xbe38609c	-0.18005604
61	0xbc34a8dd	-0.011026588
62	0xbbd2097f	-0.0064098234
63	0xbe3985d7	-0.18117462
64	0x3cc38288	0.023865953
65	0x3e01e9a5	0.12686785
66	0x3d82c354	0.06384912
67	0x3ce1ed2c	0.027578913
68	0x3de73ce8	0.11290914
69	0xbc69c437	-0.014267973
70	0x3d421f54	0.047393158
71	0x3ccc2dd7	0.024924202
72	0xbdbcbd1f	-0.092157595
73	0xbd834768	-0.06410104
74	0xbe17ebd8	-0.14836061
75	0x3df0c362	0.11756016
76	0x3da2bbe6	0.07945995
77	0xbd08abca	-0.033366956
78	0xbd678e00	-0.056531906
79	0x3d9a8c0c	0.07546243
80	0xbe1c8a67	-0.15287171
81	0xbca366d8	-0.0199465
82	0x3dc1ef24	0.094694406
83	0x3b15b9e4	0.0022846395
84	0xbc45109d	-0.012027887
85	0x3e0fcc9f	0.140429
86	0x3d95fed2	0.07323994
87	0xbe1dad6a	-0.15398183
88	0x3dccfded	0.1000937
89	0xbe279d72	-0.16368654
90	0x3dcbb428	0.099464715
91	0x3e191a10	0.14951348
92	0xb9003d93	-0.0001222997
93	0xbd3a71b5	-0.045518596
94	0xbd6eb3c8	-0.05827692
95	0xbd7e2d52	-0.06205494
96	0xbd23f1af	-0.04002541
97	0xbdab76a3	-0.083722375
98	0x3e1aa116	0.15100512
99	0xbdff52a9	-0.12466938
100	0x3d887484	0.066628486
101	0xbe1dd984	-0.15415007
102	0x3da23504	0.07920268
103	0x3e14d345	0.14533718
104	0xbd7b0f5f	-0.061293956
105	0xb9815d2f	-0.00024674225
106	0xbc2c3602	-0.010510923
107	0xbe483ad0	-0.19553685
108	0xbe206686	-0.1566411
109	0x3cd0fc8a	0.025511045
110	0x3e25f62f	0.16207193
111	0xbd4dae39	-0.05021498
112	0x3c12b50d	0.008954299
113	0xbe3809ad	-0.17972441
114	0xbe2a52a3	-0.16633086
115	0x3df081dd	0.117435195
116	0x3e262b19	0.16227378
117	0xbdca3483	-0.09873297
118	0xbde4c988	-0.111712515
119	0xbd73a7e3	-0.05948628
120	0x3cdf2ad8	0.02724211
121	0xbe2c9464	-0.16853482
122	0xbe115a2d	-0.14194556
123	0xbdc4e611	-0.09614194
124	0xbdce594b	-0.10075625
125	0xbcc3e6c5	-0.02391375
126	0x3e0608cc	0.13089293
127	0xbbcbe578	-0.006222423
128	0xbdeb08bb	-0.114762746
129	0x3e21b29b	0.15790789
130	0x3dec637e	0.11542414
131	0x3d0990e4	0.033585444
132	0x3d9da9be	0.076983914
133	0x3d69edb0	0.057111442
134	0x3e13617b	0.14392655
135	0xbe3e3830	-0.18576121
136	0xbdde3e23	-0.108516954
137	0xbca8c962	-0.02060384
138	0xbd798c74	-0.060924962
139	0xbe1ddf2a	-0.15417162
140	0xbe350eb1	-0.17681386
141	0xbe1efbba	-0.15525714
142	0xbd1dca21	-0.038522843
143	0x3e1d4c8f	0.15361236
144	0x3da62f93	0.08114543
145	0x3d80f1dc	0.06296131
146	0xbe0684cf	-0.131366
147	0xbd896a90	-0.06709778
148	0x3d51227a	0.05105827
149	0xbe16f3b1	-0.14741398
150	0xbc64020b	-0.013916503
151	0x3d98d9d2	0.07463421
152	0x3e0c1d5c	0.13683075
153	0xbdb787e8	-0.08961469
154	0x3e265aa6	0.16245517
155	0x3cc57663	0.024104303
156	0xbdefd1f8	-0.1170997
157	0x3e2143ec	0.15748566
158	0x3e251a0f	0.16123222
159	0xbe1c3753	-0.1525548
160	0xbe12a9fd	-0.14322658
161	0x3dadc7d1	0.084853776
162	0xbdc68b78	-0.0969457
163	0x3e0f22ef	0.1397817
164	0xbd432578	-0.047643155
165	0xbdb501ec	-0.08838257
166	0xbd5e7a7f	-0.05431604
167	0x3e2f5ad0	0.17124486
168	0xbda20082	-0.07910253
169	0xbd90905f	-0.070587866
170	0x3dea42e9	0.11438543
171	0xbdffdf7a	-0.12493797
172	0xbca02b0a	-0.019551773
173	0xbe092c2c	-0.13395756
174	0xbe1871dc	-0.14887184
175	0xbd5461bb	-0.051851016
176	0x3d12be91	0.03582627
177	0x3df5431b	0.1197569
178	0xbe269ee1	-0.16271545
179	0xbcebc83e	-0.028782006
180	0x3d5e67fe	0.054298393
181	0x3d30396c	0.04302351
182	0x3dca36a8	0.09873706
183	0xbdf627d1	-0.12019313
184	0xbb4f27d9	-0.0031609444
185	0x3d450fa8	0.048110634
186	0xbe1536bb	-0.1457166
187	0x3dcd1751	0.10014213
188	0xbe2b252f	-0.16713403
189	0x3d533f65	0.05157413
190	0x3ca76f72	0.020438883
191	0xbd01ea54	-0.031717613
192	0x3d972701	0.07380486
193	0x3e0d5b15	0.13804276
194	0x3e05d8cf	0.13070987
195	0x3ddeecaf	0.108849876
196	0xbdd80e00	-0.10549545
197	0x3d7c7ea1	0.0616442
198	0x3deb6c7e	0.114953026
199	0x3d263405	0.040576953
200	0x3dd903b9	0.10596413
201	0xbdcc6f46	-0.09982161
202	0x3e102c55	0.14079411
203	0xbb55312e	-0.0032530534
204	0xbe259ccd	-0.16173096
205	0xbd3dec70	-0.046368062
206	0x3e2a8504	0.16652304
207	0xbd7b6ee5	-0.061385054
208	0xbcd0bf77	-0.025481923
209	0xbd72d66d	-0.059286524
210	0xbdd58baf	-0.10427033
211	0x3cfe58be	0.031048175
212	0x3dd810b4	0.10550061
213	0x3cb5ba85	0.022183666
214	0xbc8b7928	-0.017025545
215	0x3cc7efb2	0.024406288
216	0xbe0dd0d7	-0.13849197
217	0xbdc565cc	-0.09638557
218	0x3c1667b8	0.009180002
219	0xbe0f1614	-0.13973266
220	0x3dad726b	0.08469089
221	0x3b884bc3	0.004159422
222	0x3b8a42a1	0.0042193686
223	0xbccc9335	-0.024972538
224	0x3e0707d2	0.13186577
225	0x3e244392	0.16041401
226	0x3dd24502	0.102670684
227	0x3dcac9e1	0.099017866
228	0xbe01b0ee	-0.1266515
229	0x3d6a1166	0.0571455
230	0xbe15aa99	-0.14615859
231	0x3d23e1e9	0.040010367
232	0xbdc78bfb	-0.09743496
233	0xbca0ae79	-0.019614445
234	0x3e0d757b	0.13814346
235	0x3e07a1ef	0.13245367
236	0x3e2a0e79	0.16607083
237	0x3d8a3085	0.067475356
238	0x3c0a9ce0	0.0084602535
239	0x3d00658f	0.031346854
240	0x3e016c6b	0.12639014
241	0x3db6b086	0.08920388
242	0x3d523068	0.051315695
243	0xbd20f50c	-0.039296195
244	0xbddebf82	-0.10876371
245	0xbd45362c	-0.048147365
246	0x3da7a583	0.08185866
247	0xbdbbf014	-0.09176651
248	0x3d0b85b2	0.03406305
249	0x3e0f9ef1	0.14025475
250	0x3e0e6ac9	0.13907923
251	0xbdfbee17	-0.123012714
252	0x3d8f0667	0.06983643
253	0x3e091c1a	0.13389626
254	0xbe0c2fb6	-0.13690075
255	0x3da81ef9	0.082090326

emb_net.v_lins1.5.bias f4 [32]
0	0x3c6e87aa	0.014558712
1	0xbe28a27b	-0.16468231
2	0x3d3984bd	0.045292605
3	0xbd98df8f	-0.074645154
4	0xbd299316	-0.041400038
5	0xbdcb7090	-0.09933579
6	0x3e288912	0.16458538
7	0x3dfbde8a	0.12298305
8	0xbd9c1273	-0.076207064
9	0xbd3e0d18	-0.046399206
10	0x3d5c5da8	0.053800255
11	0x3d845467	0.06461411
12	0xbdb85e7e	-0.09002398
13	0x3d94cc63	0.07265546
14	0x3bff2d04	0.0077873487
15	0x3dcd8248	0.10034615
16	0xbdc49eb7	-0.09600585
17	0xbdeb5e1e	-0.11492561
18	0x3d9df886	0.07713418
19	0xbb889941	-0.00416866
20	0xbd9ef2da	-0.07761164
21	0x3e0d13b1	0.13777043
22	0xbca235e8	-0.019801095
23	0xbdf15c1e	-0.11785148
24	0xbce03282	-0.027367834
25	0xbda883e6	-0.08228283
26	0xbd7573e0	-0.05992496
27	0xbe05897b	-0.13040726
28	0x3e110cf6	0.141651
29	0x3e17b248	0.14814103
30	0xbe14d958	-0.14536035
31	0x3de0847c	0.109627694
