pretrained/pctsp/100/pctsp100_sd0/20.pt (torch, 359348 bytes, 234 tensors)

emb_net.v_lin0.weight f4 [32, 2]
00000000: 8017 1b3b 57b1 c23e ba2c 17bf fffc 06bf
00000010: 8c16 88be 7e36 4c3e a243 d1bc efd2 103f
00000020: 577f 75bd 6b3e 3a3e ec00 63be 70db 1ebe
00000030: 3bc9 29bf 1f72 eebe 2f3b 95be 04d4 8c3c
00000040: 2ac0 8f3e fada de3e 5c8e eebe 7f1b 99be
00000050: 8551 843e 8b23 183f 75d1 16be bfc3 073f
00000060: b365 f4bd 5900 843d 2727 1f3f 69b2 29bf
00000070: ae7c e4be 0a94 37be f51d 92be d924 1b3f
00000080: b046 ecbe a5cc a7be 7b3d fdbe 3606 2dbf
00000090: c9f3 d1be 1121 193f abb2 a23e 3035 b13e
000000a0: bd23 193d a8a9 b4be 5e5e 073e 3e0b 23bf
000000b0: f715 04bf d074 c2be 46ec e73e e639 d73e
000000c0: 9e57 9cbe 9605 f4bc 519f e43e 7716 313f
000000d0: f597 8e3e d5e2 c73d 0324 f53e e29d ccbe
000000e0: 492e 053e bc3e 0dbf 3c99 fcbe 7484 bbbe
000000f0: 48a5 ac3e 093b 973e d4ec d4be 31b3 5b3e
0.002366513 0.38025925 -0.5905262 -0.5272979 -0.26579702 0.19942662 -0.025544945 0.5657186
-0.059935894 0.18187873 -0.2216832 -0.15513396 -0.6632268 -0.46571442 -0.29146716 0.01719094
0.28076297 0.4352644 -0.46592987 -0.2990379 0.25843444 0.59429234 -0.14728339 0.5303306
-0.1193346 0.06445379 0.62169117 -0.6628786 -0.44626373 -0.17927566 -0.2853848 0.606031
-0.4614768 -0.3277332 -0.49460968 -0.675876 -0.41006306 0.5981608 0.31776938 0.3461089
0.0373876 -0.35285687 0.13219592 -0.6368903 -0.51596016 -0.37979746 0.4529745 0.4203636
-0.30535597 -0.02978782 0.446528 0.69174904 0.2785031 0.09760062 0.47879037 -0.39964205
0.13005938 -0.5517385 -0.4933566 -0.3662449 0.3371985 0.29537228 -0.41586936 0.21455075

emb_net.v_lin0.bias f4 [32]
00000000: 9136 c33e e158 c2bd 8714 9d3c 8f7d 2e3e
00000010: 8704 da3e 10fc 313f a9ab 0abf ec1b 82be
00000020: a1f9 903e cf28 113f ea6b 1e3f a97e 1d3f
00000030: 3541 113e ce74 20bf db8f 8d3d f62b e2be
00000040: 41e2 28bf 9f9e 203f 7e3a 083f b862 33bf
00000050: bbea 023e 4963 edbd 9f72 e6bd 6acd a2be
00000060: 6de1 843e aa34 d8be 530d 853e d8ee b83e
00000070: fba1 fe3e f8e8 863e d494 2ebf 9388 e9be
0.38127568 -0.094896086 0.019174827 0.17040084 0.4258158 0.6952524 -0.5416818 -0.25411928
0.28315452 0.56702894 0.61883414 0.61521393 0.14185031 -0.6267823 0.06912204 -0.44174165
-0.65970236 0.62742037 0.5321425 -0.7007251 0.12784855 -0.11591203 -0.11252331 -0.31797343
0.25953236 -0.4222768 0.25986728 0.36119723 0.49732956 0.26349616 -0.68195844 -0.4561201

emb_net.v_lins1.0.weight f4 [32, 32]
00000000: 219e 963d c4a5 193d 84c3 1ebe 7af9 eebd
00000010: 7c16 1a3e 83db ce3d 76cc 96bd 84f8 7abd
00000020: 4a19 22be 987f 77bc 74e4 0dbe 26d2 1bbe
00000030: 5895 dbbc eebb 263d 7c8d adbd 64ef b33d
00000040: 92ef d8bd 3528 263e d35f d53d 53ce 08be
00000050: dc23 ebbc 6505 be3c 5a56 b73c 9a84 6f3d
00000060: c838 553d 9715 be3c ee29 8cbd 1439 cc3d
00000070: bbbd 1dbe bf56 e4bd 9fb0 e9bc 5429 d3bd
00000080: 6280 a2bd 1149 14be 456c 02bd d173 d63c
00000090: e19c e2bd 778f 173a 8a04 e23d 435d 55bc
000000a0: dc95 24bc 4066 06bc 11ba a03c 899f ec3d
000000b0: ea36 333e adf2 c83d 2274 303e 79fc 26bc
000000c0: ad67 2abe fa93 9bbd be3c 003e 7d7c 9cbc
000000d0: 8ee9 adbd b38c 0cbe 1d7f 27be 0fd4 29be
000000e0: 4ecf ebbc 4c75 9f3d c692 aa3d edd8 38be
000000f0: e84a db3d 0727 08be 0fa8 60bd d772 91bd
00000100: 8e7b 5dbd 7b2a cfbc ef28 1dbe d4e9 30be
00000110: d433 1fbd 76c6 8c3c d657 a5bd 1b71 9a3d
00000120: 145c 35be ad7c 913a e52f 0c3e 8e65 b4bd
00000130: 4223 2c3e a76a 553d 796f 18be 9cb4 c73d
00000140: b115 86bc b54e 83bd 3b7a 0e3e 25b7 25be
00000150: 08fc 1b3d 00e7 c3bc f63b 0b3e 1dab fb3c
00000160: ac09 c53d b7f3 2e3d 86b3 6ebd 90e2 40bd
00000170: 7a71 07be e705 dd3d 5072 f83d 781f f83d
00000180: d270 e9bd 376c b83b 0398 ebbd 31d1 b0bd
00000190: a913 bcbd e2cc 8f3d cce2 e7bd bf4b 443b
000001a0: da5f 07bc 16b3 f53d e2f3 17be 7683 e1bd
000001b0: d003 bcbd 79d2 de3d b6a8 70bd e0e3 223e
000001c0: d80f 703d b69d ca3c 6d1e 113c 7383 58bd
000001d0: 1a98 393c 9b1e 52bd f1a3 56ba e9b5 aa3b
000001e0: 0f4f 05be a81f e4bd c011 043e c706 20be
000001f0: 1de3 c2bc c6a6 363e 524b 3c3d 22c1 2a3c
00000200: 03a2 23be ff26 a43d f374 08be c513 68bd
00000210: 7830 87bd d302 08bd f822 dcb9 17d9 0c3e
00000220: ff7b e03c 1fa4 193e 1639 e53d 7d76 f2bd
00000230: c4e3 933d 4abc f7bd 6103 abbd 9116 373d
00000240: 13c5 5b3d 1dcf fe3d 3c53 83bd 2de9 8c3b
00000250: 6b2f c83d b6ff 27be 7b40 f43d 91ef 10be
00000260: cfe2 aabb d8a5 d8bc bf10 b3bd ff0e ef3c
00000270: 0e82 1c3e 11da 76bd 4538 cebd 5807 98bd
00000280: a22b 31be b7b1 a63d 5cda a9bd 21ff ecbd
00000290: 840f ccbd 86cf d33d ad7b c33d 6faa 0c3e
000002a0: 9979 7e3d 7983 6abd 2177 51bd 9661 5e3d
000002b0: 75b1 163e c8fa 393d 539c a7bd 8b30 a6bd
000002c0: 5435 29be 551d 233d 8321 c7bd 8ea0 23be
000002d0: b535 1c3e cb87 efbd cfb4 96bc 9633 463d
000002e0: 829c f43b 43f0 f7bd 584a 14be fffb 0d3e
000002f0: a389 d93c c8cc 173e b52a 7cbd d541 5c3d
00000300: bfb5 e5bc 8bb3 05bd efec c2bd 2025 943d
00000310: 33ee 8e3d d3f6 a03c 3bda 80bd bce3 cfbd
00000320: 9d4d f63d 2351 0cbe 1c19 a03d 4f9c 3bbd
00000330: 41e4 8ebd f51a 343c 9d2f c6bd 6968 553d
00000340: 9ba5 3f3c 0465 18be 75f6 2c3d 8841 6e3d
00000350: 9c04 693d 9236 13bd 5109 2abe 6bb9 42bd
00000360: 2ca4 953d b1c8 93bd ea62 273d 1e3a cb3d
00000370: 475f d9bd 767d 8cbc 792c 513d 2ef8 6f3c
00000380: 664d e83b 1771 db3c 1d4d 0bbe 9ea2 043c
00000390: 7f7b fa3d 5361 283e 6065 db3d eea8 df3c
000003a0: f2e8 9b3d cf15 a6bd f105 1dbe 0f60 1cbe
000003b0: 67ed 373e 7fbb db3d ac3f f1bd ad91 8d3d
000003c0: da90 0c3e 47c5 3a3e ecd5 1f3e 85a3 053e
000003d0: 41f4 14bd 8fde 75bd b235 193e 5a21 be3d
000003e0: 7446 d1bd 71de 1b3e 5d2d a43d f96f bd3d
000003f0: f97b e0bd 4096 633d d5d6 8bbd f46f 0f3e
0.073543794 0.037511602 -0.15504271 -0.11668678 0.1504764 0.10100462 -0.073632166 -0.06127216
-0.1582996 -0.015106104 -0.13856679 -0.15216884 -0.026804611 0.040706567 -0.08474252 0.087858945
-0.105925694 0.16226275 0.10418668 -0.13359956 -0.028703623 0.023195932 0.022380043 0.058476068
0.052056104 0.023203654 -0.06843935 0.09971824 -0.15404408 -0.11149358 -0.028526602 -0.10310617
-0.07934643 -0.14480998 -0.031841535 0.026178272 -0.110650785 0.0005781571 0.11036022 -0.013022724
-0.010045495 -0.008203089 0.019619973 0.115538664 0.17501417 0.09811912 0.17231801 -0.01019203
-0.16641112 -0.07596584 0.12523171 -0.01910233 -0.08491813 -0.13725547 -0.16357084 -0.165848
-0.028785374 0.077860445 0.08328776 -0.180515 0.107076466 -0.13296138 -0.054847773 -0.07101982
-0.05407291 -0.025288811 -0.15347646 -0.17276698 -0.038867787 0.017184477 -0.08073394 0.075411044
-0.17710906 0.0011099778 0.13690145 -0.088084325 0.16810325 0.052103665 -0.14886273 0.097512454
-0.016367765 -0.064114965 0.13913815 -0.16183145 0.038082153 -0.02391386 0.13597092 0.030721242
0.096209854 0.042712893 -0.058276676 -0.047091067 -0.13226882 0.107921414 0.121311784 0.12115377
-0.11398472 0.0056281346 -0.11503603 -0.0863365 -0.091834374 0.070215 -0.11322555 0.0029952375
-0.008262599 0.119970486 -0.14839128 -0.11011402 -0.09180415 0.10879988 -0.058754645 0.1590724
0.05860886 0.024733406 0.008857352 -0.052859735 0.011327768 -0.05129872 -0.00081878813 0.0052096737
-0.1301844 -0.111388505 0.12897396 -0.15627585 -0.023789937 0.17837057 0.04597027 0.010422023
-0.15979771 0.080152504 -0.13325863 -0.05665948 -0.066010416 -0.03320582 -0.00041987724 0.13754688
0.027402876 0.15004013 0.11192529 -0.11839006 0.07221177 -0.1209646 -0.08350254 0.044699255
0.05365474 0.124418475 -0.0641236 0.0043002577 0.09774669 -0.1640614 0.11926361 -0.14153887
-0.005215026 -0.026446268 -0.087434284 0.029181955 0.15283987 -0.060266558 -0.10069326 -0.07423276
-0.17301801 0.08139365 -0.08293602 -0.115720995 -0.09963897 0.10342316 0.09545074 0.1373689
0.062127683 -0.05725429 -0.051139 0.054292284 0.14716132 0.04540518 -0.08184113 -0.081147276
-0.1652425 0.039822895 -0.09723189 -0.15979216 0.15254863 -0.11695822 -0.018396763 0.04838904
0.0074649462 -0.12106373 -0.14481485 0.1386566 0.026554888 0.14824212 -0.061564166 0.05377372
-0.028040765 -0.03264193 -0.09517848 0.072336435 0.06979027 0.019648945 -0.06291624 -0.10150859
0.12026522 -0.13702826 0.07817289 -0.045803364 -0.0697713 0.010992755 -0.0967705 0.052101526
0.011697198 -0.14882284 0.042227227 0.058167964 0.05688916 -0.035940714 -0.16605116 -0.04754011
0.07306704 -0.07216013 0.040865816 0.09923194 -0.10613876 -0.017149668 0.051067803 0.014646573
0.0070893047 0.026787324 -0.13603635 0.008095412 0.12230586 0.16443376 0.10712695 0.027302232
0.0761279 -0.081096284 -0.15334298 -0.15271018 0.17961656 0.107291214 -0.117797226 0.06912551
0.13727131 0.18239318 0.15608948 0.13050659 -0.03636575 -0.0600267 0.1496189 0.09283705
-0.10218516 0.15221573 0.08016465 0.09249873 -0.10961146 0.05556321 -0.06828085 0.1400755

emb_net.v_lins1.0.bias f4 [32]
00000000: a430 01bd 0bdd 2cbe 14b1 ecbd 6f8a 353c
00000010: 2208 26be ff3e a3bc 7309 f0bd 4e97 edbd
00000020: 7c70 ac3d dc80 05be 186a 03be 4d47 d13d
00000030: bd1e 0e3d 4e5e 1d3e 9857 3cbd 587c 9fbd
00000040: ef77 95bc b2c0 ddbb 42d9 013e 0961 3abe
00000050: 878b 64bc 685a 983d 6c97 c8bd e48e b2bd
00000060: 7117 ad3d d24b 32be d817 2f3d e99e 10be
00000070: c837 ab3d 8caf 1abe 1141 ea3d 60dc 31be
-0.031540528 -0.16881196 -0.115572125 0.011080368 -0.1621404 -0.0199275 -0.11720552 -0.11601125
0.08419892 -0.13037437 -0.1283344 0.10218678 0.034697283 0.15368006 -0.045981973 -0.077873886
-0.018245665 -0.006767356 0.12680534 -0.18201078 -0.013949282 0.074391186 -0.097945064 -0.087186605
0.08451737 -0.17411736 0.04274735 -0.1412312 0.08360249 -0.15106028 0.11438192 -0.17369223

emb_net.v_lins1.1.weight f4 [32, 32]
00000000: 0983 14be f5e7 863a 51cd 083e e643 15be
00000010: 0c04 95bd 12db 253e 8bf4 09bd 4df9 a03d
00000020: 13a7 33be 7c0b 61bd 1264 cdbd 858b 173e
00000030: 71c1 8c3d 33be 0fbe cfa6 c33c 5c22 dbbb
00000040: 44d1 95bd f1c3 c1bd 7486 62bd e187 0a3e
00000050: 05f7 0bbe 303f 07be 7ed3 4cbd a9dc 5c3b
00000060: 5031 2b3d ac54 dc3b 28a6 3fbd 05e9 d0bd
00000070: cca3 1cbd 20c0 84bd fad3 143e 1cc5 33be
00000080: 6537 f8bd 2423 10be 8532 26bd b417 073e
00000090: 03ed 173e fa8b 19be e1c1 8fbc a431 c83d
000000a0: 6063 8f3d 2e84 103e dcd0 5abc 0c68 00be
000000b0: f88b df3d 5b9d 6bbd a49d a53d 82c4 58bd
000000c0: 03dd 823d 10a5 1c3e bff7 213e c340 2ebe
000000d0: 0eed 02be 3846 acbd 6838 f5bd 5789 243e
000000e0: fb62 cebc d5f4 00be 60de aebd 67f4 d8bd
000000f0: 8a1b 803d 07f6 20be 335e 31be 6f44 38be
00000100: b0aa 8d3d e695 cf3d ba92 e6bd 8abf 1d3d
00000110: 38bf fe3d 259c 8c3c c1a5 07bd a9b7 763c
00000120: 7aef 8bbc 1b4b b53d a64a e2bd 6c3d b53d
00000130: 3e13 ce3d e3bf bebd 9e08 173e 6898 333e
00000140: 1d65 88bd 50cd 66bd a641 ae3d 43d4 10be
00000150: 4897 9c3d 1f57 3c3d 74d3 d63d 252a 1fbe
00000160: c163 13be b7b3 9c3d a52c 863d 7f88 2ebe
00000170: 79bb bfbd fa39 2bbe 3e8b 05be bd19 b9bd
00000180: a10d 1c3e 6d58 3abd 3287 cf3d 8941 323e
00000190: c8e3 b03d 9cc7 18be 633f a93d 40f5 8a3d
000001a0: 20e4 073e c0d9 2cbe 0efc d13d a34f 193e
000001b0: a59a 24be 583f 783c 7d4a 143e 5606 08be
000001c0: a660 533d c45d aa3d ad58 523d d578 3a3e
000001d0: 403a 113e e643 163e 8ac7 84bc 037a 1d3e
000001e0: bfe8 2bbe 6c7c b7bd 368a 2ebd f0a9 42bd
000001f0: a9f8 213e b9d3 b73d f40a f33d 0cd6 053e
00000200: 530b 17be 9b7b 7fbc 2f5d 033d 3b70 1c3d
00000210: d896 a73d 11b6 98bd ff83 84bd 439e 0e3e
00000220: 5921 68bd 4be0 03be e81f e23d 41d3 f43d
00000230: 51ea 59bd 1e05 05bd 8bc4 10be 2bbe 21be
00000240: da0b 603d 9d38 aabd 6bb3 ff3d 226f 0ebe
00000250: 4c31 0cbd 076b dfbb 8277 9d3d a73f 0d3e
00000260: ec40 e13d edca 903d ca43 babd 25a1 0abe
00000270: 15fc 2bbe f409 9b3b fd92 213e 7940 b5bc
00000280: cd88 72bc a8e1 00be 0241 373d 5e5d d43d
00000290: 2998 39be 3b15 04be f35d f73d 8ff4 143d
000002a0: e351 c6bc cdfc 9c3c c45c 30bd dc1d 09be
000002b0: 7e2c 32be 521b d53d 4bd8 01bd 5ba0 9dbd
000002c0: 88b8 59bd f3f7 cfbd 8309 73bd e510 25be
000002d0: 5cce f53d ee8e 733d ba29 c9bd d053 92bd
000002e0: e89f 8a3d 32da 9cbd 1b2e 0d3d b43c 1c3d
000002f0: 1267 01be c6a7 093d 82f6 3c3a 8732 133e
00000300: e582 2cbd df6a 8bbd 96a2 1a3e 6b25 08be
00000310: 184a d33c 34eb 2c3e 375f c2bd ba4e 113e
00000320: cc1d 133e 2553 2e3e e5e7 fcbc f62b 283e
00000330: 7edd 9abd eb03 83bd 463e 533d 1785 b63c
00000340: e57b a23d 8447 3a3e e40f dbbd f18c c63d
00000350: 1a1d 4a3d b96c a43d a143 d63d ab8c 7ebd
00000360: 13a8 1bbe ef7f 153e bbae ebbd c6fa ea3d
00000370: 6f58 39be e360 5dbc 7ca7 4bba 3dff 603d
00000380: fd1e 063b e0e1 803d 904f 0abd a2be 243d
00000390: 6fa7 2b3e 87ce d5bd a746 b73a 5221 8ebd
000003a0: a8ce 2b3e 6d43 103e 6e2b 593c 2b79 99bd
000003b0: f8f5 fdbd 76d4 f33d e620 d0ba 6971 353e
000003c0: 5eb5 dd3d a8ff 153e 138c 043e 576e 04be
000003d0: f4df 863d 6b2f 7cbd f5c9 9e3d 3b6a f1bc
000003e0: 3d8e e43c 05e4 0abe e049 14be 1ee6 6d3d
000003f0: 2203 643d c97a 623c 7629 dc3d 50d9 b6bd
-0.14503111 0.0010292517 0.13359572 -0.14576682 -0.072761625 0.1619685 -0.03368048 0.0786005
-0.17544203 -0.054942593 -0.100288525 0.14799316 0.068728335 -0.14037399 0.023883251 -0.0066874456
-0.07315305 -0.09461201 -0.055304006 0.13528396 -0.13668449 -0.13207698 -0.050006382 0.003370086
0.041795075 0.006723961 -0.04678932 -0.10200695 -0.038242146 -0.064819574 0.14533988 -0.1755566
-0.12119941 -0.14075905 -0.040575523 0.13192636 0.14836507 -0.14994803 -0.017548503 0.09775093
0.07001376 0.14112923 -0.01335546 -0.1253969 0.10915369 -0.057523113 0.08086708 -0.05292178
0.06389811 0.15297341 0.15817164 -0.17016892 -0.12785742 -0.08411831 -0.11973649 0.16068016
-0.025193682 -0.12593396 -0.085385084 -0.10593491 0.06255253 -0.15718852 -0.1732109 -0.17994855
0.06917322 0.10136013 -0.112584546 0.038512744 0.12438816 0.0171643 -0.03311706 0.015058436
-0.017081965 0.08852216 -0.11049394 0.08849606 0.10062264 -0.09313943 0.14749381 0.17538607
-0.06659911 -0.056348145 0.08508615 -0.14143471 0.07646042 0.045981523 0.1048955 -0.1554342
-0.14393522 0.076514654 0.06551484 -0.17044257 -0.093619294 -0.16721335 -0.13041398 -0.09038112
0.15239574 -0.045494486 0.10133208 0.17407812 0.08637196 -0.14919895 0.08264043 0.06785059
0.13270617 -0.1687994 0.10253154 0.14971785 -0.16074617 0.015151821 0.1448154 -0.13283667
0.051605843 0.083186656 0.0513541 0.18210156 0.14182377 0.14674339 -0.016208429 0.15378575
-0.16788004 -0.089592785 -0.042612277 -0.047525346 0.15817513 0.0897593 0.118673235 0.13069934
-0.14750414 -0.015593435 0.03207129 0.03819297 0.08183068 -0.074566014 -0.06470489 0.1392756
-0.056672428 -0.1287853 0.11041242 0.11954356 -0.053201977 -0.032475583 -0.14137475 -0.157952
0.054698803 -0.083115794 0.12485393 -0.13909581 -0.0342267 -0.0068181786 0.0768881 0.13793813
0.10998711 0.07069955 -0.09094961 -0.13538034 -0.1679538 0.004731411 0.15778728 -0.02212547
-0.014803124 -0.12586081 0.04473973 0.10369371 -0.1812445 -0.12898724 0.12078466 0.03636604
-0.024208969 0.019163514 -0.04305722 -0.13390297 -0.17399785 0.104056016 -0.031700414 -0.07696601
-0.0531545 -0.101547144 -0.059335243 -0.16119726 0.120022506 0.05946248 -0.09822412 -0.07144892
0.06768781 -0.07658805 0.034467798 0.03814383 -0.12636974 0.033607267 0.00072083634 0.14374743
-0.04211702 -0.068074934 0.15101084 -0.13295524 0.025792167 0.16886598 -0.09490817 0.14190188
0.14366835 0.17023905 -0.030872295 0.1642302 -0.075617775 -0.06397232 0.05157306 0.022280259
0.07933787 0.18191344 -0.1069639 0.09694851 0.04934416 0.0802855 0.10462118 -0.06214587
-0.15200834 0.14599584 -0.115079366 0.114736125 -0.18100141 -0.013511869 -0.00077687926 0.054930914
0.0020465248 0.06293082 -0.033767283 0.040220864 0.1676309 -0.104397826 0.0013982848 -0.06939949
0.16778052 0.14088221 0.013254983 -0.07493814 -0.124004304 0.11905758 -0.0015878945 0.17719044
0.10825609 0.14648306 0.12944059 -0.12932716 0.065856844 -0.06156866 0.07753364 -0.0294696
0.027899856 -0.13563545 -0.14481306 0.058080785 0.05566705 0.01382322 0.107500955 -0.08928168

emb_net.v_lins1.1.bias f4 [32]
00000000: fe75 de3d 7655 dbbc 03c4 98bd af7c eabc
00000010: 6ba5 853d 2b24 bdbc 7009 d33d 4112 15be
00000020: 85fc b1bd 1197 0b3e 48e0 bc3c 63f8 103d
00000030: 1f45 6f3d e6c4 25bd 6d7d 90bd c311 4e3d
00000040: 01a9 3ebd bfba 96bd a56d b33c db71 343d
00000050: 8d96 77bc 4fd8 f6bd 0f83 cfbc e3f9 cdbd
00000060: f496 c03d 757c ebbd 4edb 0e3e 241c 8f3d
00000070: 8771 1abe 5889 073e c7e1 32be 7ce9 1bbc
0.10862349 -0.02677415 -0.07459261 -0.028623907 0.065256916 -0.023088535 0.103045344 -0.14557745
-0.086907424 0.13631846 0.023056164 0.03539313 0.05841553 -0.04047098 -0.07055173 0.050309908
-0.046547893 -0.07359838 0.021902869 0.044053894 -0.015111578 -0.12052976 -0.025331048 -0.10057428
0.09403792 -0.11498348 0.13950846 0.06987789 -0.1508237 0.13235986 -0.1746894 -0.009516116

emb_net.v_lins1.2.weight f4 [32, 32]
00000000: 332f e7bd 71c0 20be 5ba6 523c 2081 b8bd
00000010: bd4b 0c3e 94d1 0bbe 4fdb 103e e559 cb3d
00000020: 5256 0b3e a5db 75bd 7282 e3bd c3fc 04be
00000030: fefa 123e 833e d2bd 6232 00bd 97a9 dfbc
00000040: d6ab e83c 696b 13be f2ae 0e3e 872f 0dbe
00000050: 8e73 283e a8b0 a2bd 8d19 a1bd 938a 99bc
00000060: 83ec 4f3d 5dc7 e4bc 859a 36be 1367 f83d
00000070: f2ee 2b3e d166 d93d c5c1 2d3e c53f 353d
00000080: 62c5 a4bc 3491 05be fc76 2ebe 4981 18be
00000090: ceb5 84bd 25ff 9a3d be6e d2bd a47a 09bd
000000a0: 6fb0 91bc fec8 10be 3349 09bd 6116 133e
000000b0: e033 153e 114a 153e d391 f0bc 166d e3bc
000000c0: 429c 923d 1e06 b9bd f52e d7bd d1ce 193e
000000d0: 1af7 83bc b1df e4bd 74ef dd3d 8523 b23b
000000e0: 5fae 8f3d 29ad 20be b18d a93b a9d7 a43d
000000f0: 68d6 4cbd 3dbe 00be 1783 ef3d 042c 8b3d
00000100: 1514 123d 992f 483d 20f0 7f3a a367 c73d
00000110: 6829 2dbd ef9b b6bd 2a01 8f3d 0ca0 443d
00000120: 2fc3 a33d 9589 8ebc e78d 8fbc d1ac afbc
00000130: 0673 ed3c 5384 13be d2b5 2bbe 5a37 963d
00000140: d796 c2bd 90a4 76bc 9f22 403d ccbb 3a3c
00000150: 8979 f13d 0b8b ef3c 439d 543d 85f4 cdbc
00000160: 420a 273d acbb 663d 9c88 f63d 1a10 29be
00000170: effb 9bbd d0a5 21be bd5e 9fbd 91c3 c63d
00000180: f4d1 3cbe 0fb5 26be 4852 cb3d 5d23 f3bd
00000190: d6a5 e53d 42ae 493d 1241 f93c a83f fb3d
000001a0: 930d 18be 030e e23d 5e13 a73d 5b45 00be
000001b0: 9829 ed3c 0f60 6ebd 84ab 81bd b3cc 8bbc
000001c0: 455e c3bd 4378 143e f16b 233e 23a0 13bd
000001d0: abcf 29be 3543 77bc 5319 6eba f22b da3d
000001e0: f005 b73c d9f9 0b3d 066f 233d 292f e2bd
000001f0: 3d2e eebd ba64 31be 0c51 5cbc 994d a33d
00000200: 966b 2ebc 9602 213e ddb5 03bd 89dd ecbd
00000210: d2bd 003d 4ff4 10bd 9c93 babc dca0 323e
00000220: bb22 803c c3be 263e 3e9c a13c b27f 90bd
00000230: 215e dc3d 3c12 ebbd 27a7 6fbb 429f 593d
00000240: 596b 993d 27b5 27be afdd 963c db78 6dbd
00000250: ce04 ec3d 42f1 933d dea9 bb3d 4824 d83d
00000260: e9ad 17bd bcb8 a1bb a60e 103e 197a 12be
00000270: 5c84 fabd a280 bb3c fdd4 aabd c665 683b
00000280: fd60 163e 2bb1 f6bc e290 16be 90b5 b9bd
00000290: 3656 1c3e e175 03bd b54a b7bd a6b9 863d
000002a0: b4d2 403d 96ff 27be aaf7 113e 4703 bf3d
000002b0: 41a2 073e 8fdf 8f3d 2b48 99bd c28c 3cbd
000002c0: 535d 8d3d d9ef 40bd fe45 443d 2b84 43be
000002d0: d586 c5bd 15f1 9b3d 5b47 cbba aa53 c2bd
000002e0: 1ba1 18be cd7e f23d e178 33bd 5919 42be
000002f0: 83f9 253e 019f a13d 133b fbbd c11c 02be
00000300: 1ad8 3e3e e0af 54bc 0e6d c2bd 03a6 ef3d
00000310: 68d0 a9bc e191 243c 5712 9bbd 2a64 05be
00000320: c6cb 08be d36f 08bc 7fc1 0ebe 2415 403e
00000330: 5ead 8f3a 933b 93bd 0cb6 813d c93c 22be
00000340: 1d41 8fbd d935 b13d 03a6 0bbe 4c68 b73d
00000350: 8148 023d 5dd3 11be d91d 2cbe 03b7 943d
00000360: 68b9 963d 8b7e b4bc a70c 0dbe 35d0 aebd
00000370: d726 033d 8732 ad3c 6414 723d e012 823d
00000380: bafb f8bb 8852 6d3d 162c 283e e4df f93d
00000390: e464 123e 1bb8 8ebd f3f0 a8bd a66d 35bd
000003a0: a1fd 353d 8fde 4a3d 31a9 03bd 9aaa 08be
000003b0: 0459 2ebe 96d5 223e c263 9bbd b1f7 edbc
000003c0: cdb5 03be d05a d4bd d8e2 913d de4f f13c
000003d0: fbbd babd 09c0 37bd 9800 073e e77f 99bd
000003e0: 18ca 14be 72a8 9cbc 4807 1c3e 5da4 933c
000003f0: 3003 ab3c 97e6 f8bc 036d a53d 9be5 8abd
-0.112882994 -0.1569841 0.012857045 -0.09009004 0.13700767 -0.13654166 0.1414616 0.099292554
0.13607147 -0.060023922 -0.11108865 -0.12987046 0.14353558 -0.102658294 -0.03129805 -0.027302546
0.02840225 -0.14396442 0.13933924 -0.13787661 0.1645033 -0.07943851 -0.078662015 -0.018742835
0.050762665 -0.027927095 -0.17832382 0.12129035 0.16790369 0.10615314 0.16968448 0.04425027
-0.02011365 -0.13043672 -0.17037576 -0.14893068 -0.06479989 0.07568196 -0.10275029 -0.033564225
-0.017784325 -0.14139172 -0.033517074 0.14364006 0.1457057 0.14579035 -0.02936641 -0.027761977
0.0715871 -0.0903437 -0.10507003 0.150203 -0.016109038 -0.11175478 0.10836688 0.005436363
0.070156805 -0.15691055 0.0051743616 0.080489464 -0.05000916 -0.1257257 0.11694925 0.06795505
0.035663683 0.048873518 0.00097632594 0.09736564 -0.042275816 -0.08916461 0.06982644 0.048004195
0.07996213 -0.017399589 -0.017523719 -0.02144471 0.028985512 -0.14405946 -0.16768578 0.07334776
-0.09501427 -0.015053883 0.046908017 0.011397313 0.11790759 0.029241106 0.05190779 -0.02514101
0.040781267 0.05633132 0.12037775 -0.16510049 -0.07616412 -0.15785909 -0.07781742 0.0970527
-0.18439466 -0.16280006 0.09927803 -0.118719794 0.11213271 0.04923845 0.030426536 0.12268001
-0.14848928 0.11037829 0.08157991 -0.12526457 0.028950498 -0.058197077 -0.06331542 -0.017065382
-0.09539465 0.14499001 0.15959145 -0.03604139 -0.16583125 -0.015091707 -0.0009082753 0.10652913
0.022341698 0.03417382 0.039900802 -0.11044151 -0.11629913 -0.1732358 -0.013447057 0.07973785
-0.010645768 0.15723643 -0.03215586 -0.11565692 0.031431027 -0.03538924 -0.022775464 0.17444175
0.01564156 0.16283707 0.019727822 -0.07055606 0.10760141 -0.11478087 -0.0036568136 0.053130396
0.07491178 -0.16377698 0.018416254 -0.057976585 0.11524354 0.07223751 0.09163259 0.10553795
-0.037031088 -0.004935352 0.14068088 -0.14304389 -0.12232277 0.022888485 -0.083414055 0.0035461052
0.14685436 -0.030113777 -0.14703706 -0.090678334 0.15267262 -0.03209484 -0.08949796 0.065783784
0.047075942 -0.16406092 0.14254633 0.09326797 0.13245489 0.07025062 -0.07484468 -0.046032675
0.06902566 -0.047103737 0.047918312 -0.19093387 -0.09644858 0.07614342 -0.0015508936 -0.09488614
-0.14905207 0.118405916 -0.04381645 -0.18954982 0.16208462 0.07891656 -0.12267127 -0.12706281
0.18637124 -0.012981385 -0.09493457 0.11701586 -0.020729259 0.010044546 -0.075718574 -0.13026491
-0.13358983 -0.008327442 -0.13941 0.18758065 0.0010961702 -0.07189097 0.06333551 -0.158435
-0.06994841 0.08652849 -0.13637547 0.0895544 0.031807426 -0.14240785 -0.16808261 0.07261469
0.07359582 -0.022032997 -0.13774358 -0.08535806 0.032019462 0.021142257 0.059101477 0.06351256
-0.0075983675 0.057940036 0.16423067 0.12200907 0.14296299 -0.06968709 -0.082490824 -0.044294022
0.044431332 0.049528655 -0.032143775 -0.1334633 -0.17026144 0.15901789 -0.07587387 -0.029048773
-0.1286232 -0.103688836 0.07123345 0.029457029 -0.09118267 -0.044860873 0.1318382 -0.074950986
-0.14530218 -0.01912329 0.15237153 0.01802271 0.020875543 -0.030383391 0.08077433 -0.06782075

emb_net.v_lins1.2.bias f4 [32]
00000000: b6a7 f53d 9820 84bd 2de8 943d 37be aebd
00000010: 25b0 26bb 8d64 d43d 884f a63d bc55 22bd
00000020: a6bf 3abb c550 c4bd 6352 a63d a7f6 f53d
00000030: 7fa9 693d 3daf 2ebe b0f7 01be ad63 f53d
00000040: 8811 cfbc c63f df3d 9143 053e 90e4 56bd
00000050: 3934 d5bd e8d7 29be 6ab9 8a3d 8e80 ba3d
00000060: 0fbc fdbc c293 2fbe 6493 eabd 854c 27bc
00000070: 80ef a73d b8c1 74bd a462 e9bd 889e febd
0.11994879 -0.06451529 0.072708465 -0.08532374 -0.002543458 0.10370741 0.08120638 -0.039632544
-0.002849558 -0.09585718 0.08121183 0.12009936 0.05704641 -0.17059036 -0.12692142 0.11981902
-0.025276914 0.10900836 0.13014056 -0.052464068 -0.10410351 -0.16586268 0.06773646 0.09106551
-0.030973462 -0.17146209 -0.11453894 -0.010211115 0.08199978 -0.059755057 -0.11395767 -0.12432581

emb_net.v_lins1.3.weight f4 [32, 32]
00000000: 4f96 193e ce4d 663d 8957 11be 83ab f3bd
00000010: 6298 20be 643f fb3c 5ed6 a0bd 033b 31bc
00000020: 2e50 bdbc 3821 26be 1ac7 25be 2724 15be
00000030: af1f acbd 37c8 8b3c 4d83 c9bd 7a67 41bc
00000040: abcc f4bc 911b 213e 2877 bfbd 91c1 243e
00000050: c397 10be db84 1abe a5b0 453d 7991 d9bd
00000060: 30a2 a23d 1023 c6bd f6c9 093e 1927 1a3e
00000070: 6935 f43a 619d 063d dde1 233e 2df8 d03d
00000080: 5fd7 26be dcc1 2bbd 04f0 45be ab74 e03d
00000090: 43c9 65bd b2ac 27ba bb7a e1bd 3f83 f2bd
000000a0: 5e65 e23b 9275 e03d 54a9 f2bd 382b 6dbc
000000b0: 6098 473e a6eb 243e d98f 7bbd 4946 143e
000000c0: f8b1 4e3d bb1d 0d3e b477 46bc a082 21be
000000d0: 741d 92bd bc3c fa3c deab 6e3d 875d 4abe
000000e0: 992b f93d 0783 37be 45d6 9a3d 286f 1e3e
000000f0: 6fc3 8d3c 1d8f 3cbd 838a 873d 9fc3 afbd
00000100: 096d 07be 9973 08be 3eb3 933d 0340 073e
00000110: c04a 82bb 1573 33be d47f 32be 27ae 28bd
00000120: b4a4 d53d 2a99 00be 2965 653d d3aa c3bd
00000130: 42fc 073e c164 57bd f72e 40bd 7bce 22be
00000140: 69d0 21be 789e 843c 08a1 c63c e192 b93d
00000150: 56b9 1ebe c3ec cb3c 4891 f1bc fe9a d83d
00000160: 647e a3bd 9f26 4f3d dae5 8d3d 294f 803d
00000170: ea78 45bd a1ed 703d d9fa bdbc 4680 3a3d
00000180: 6fef 01be 1749 febd f086 04be 10a0 e8bd
00000190: 8563 aabd 16bb 4a3c b2b0 5dbd 2adf d1bd
000001a0: 6a23 cb3b abc6 2ebd 1907 013e 481b fabd
000001b0: 094c 9bbd 863d e4bd 7679 ec3c cf30 ee3c
000001c0: 562b 83bc 9a55 353e 3153 8cbd c915 c9bc
000001d0: 466b 283d b3fe 1e3e c9e4 143e 546e 9e3c
000001e0: 056e 76bd 585e 5f3d bfe5 fc3d 4aef 6d3b
000001f0: a44e cc3d 4f9b 073e 3d18 98bd 5472 cbbb
00000200: eb66 2bbe 2fc7 1b3d 7804 003e d156 12bd
00000210: 508f a03c 2a8d 813d 7faa 7dbc a71d 063e
00000220: 0103 133d c4cd 3bbe c408 0abe a451 21be
00000230: 182b 89bc 03b5 b43d 7ae0 12bd a26b 213e
00000240: 9f0c 2fbd 2d04 ff3c 081a 263e 488c d73d
00000250: d605 043c d587 373e aa50 d1bd c6a7 823d
00000260: 5121 db3d f03c d3bd bbd3 34be a1c2 0b3d
00000270: 97e4 83bd e9dd b8bd 1806 c93c f933 cdbd
00000280: 5ae5 183e a2e8 ebbc 49a5 2abd f4ea 0b3e
00000290: 4147 513d f39b 603d 3c0d bbbd 5553 1e3e
000002a0: fdf4 2ebd fb93 063e 97b3 a8bc eb87 b53d
000002b0: 7b78 dd3d b137 13be 9b00 04be 8be8 28be
000002c0: c7bd d43d 5a38 173e 6e6e 5bbd 52fc 8ebd
000002d0: 391a 553d 09a0 d43d 6522 5e3d 07b2 1bbd
000002e0: 681c f3bd 0861 2c3e b8fd f9bd cbd9 44be
000002f0: 3be2 b8bd c742 373d 250c 293d 124e a03d
00000300: fad9 95bd bc22 b4bd 6311 99bd d2d1 4cbd
00000310: 5f72 f7bd 1607 f73c 2050 c0bc 14c5 0ebe
00000320: 2914 01be c344 d4bd 07d2 c6bd ddf4 febd
00000330: 4228 25bd 5a32 843d 8da3 1dbe c9d3 6ebd
00000340: 4b30 0bbd 4df1 d0bd 3791 a0bc aacb c1bd
00000350: 53f7 8a3c 4fa4 14be 90b1 943c a312 333e
00000360: 805d f33d 4594 bcbd 0cea 3f3d 1783 3abe
00000370: 8fa9 0a3e 3606 21be 930e 2cbe f5fb 25be
00000380: fa13 01be c958 39bc 1bc5 e7bc e2d2 b83d
00000390: 0f84 da3c 0189 d63c 3c64 56bd e977 96bd
000003a0: 01c7 12be 3734 c23d bed4 c8bd 227e 1fbc
000003b0: 0432 343d fcea 94bd 4786 6ebd b295 09be
000003c0: 6bec 07be 5ce2 c73d de8b 363c 5c01 043e
000003d0: 4ebe 6f3d 6cc4 10bc 4136 f7bd 4dca 453d
000003e0: d85f 8bbd 2459 b2bd 1256 09bd fe76 c2bc
000003f0: 6f89 10be b40a 943d 7b80 d53d f283 a93d
0.14998744 0.056226544 -0.14193548 -0.11897948 -0.1568313 0.030669875 -0.07853387 -0.010817292
-0.023109522 -0.1622361 -0.16189232 -0.14564572 -0.08404481 0.017063243 -0.09839497 -0.011804456
-0.02988275 0.15733172 -0.09348899 0.16089465 -0.14120393 -0.15089743 0.048264164 -0.1062345
0.07941091 -0.096746564 0.13455948 0.15053977 0.001863164 0.032864932 0.16004129 0.10203586
-0.16293095 -0.041932926 -0.1932984 0.10959753 -0.05610014 -0.0006396278 -0.11009737 -0.118414395
0.0069090566 0.10959925 -0.11848703 -0.014475636 0.1949172 0.16105518 -0.06141648 0.14479937
0.050462693 0.13780873 -0.0121135 -0.15772486 -0.07134524 0.030546539 0.058269374 -0.1976224
0.12166519 -0.17921077 0.075604 0.1547209 0.017305104 -0.04603492 0.06618216 -0.08582234
-0.13225187 -0.13325347 0.07211922 0.13208012 -0.003976196 -0.17524369 -0.17431575 -0.04118171
0.10431805 -0.12558427 0.056004677 -0.095540665 0.13279822 -0.05258632 -0.04691979 -0.15899079
-0.15802158 0.016188845 0.024246708 0.09061218 -0.15500388 0.02489317 -0.02948822 0.105764374
-0.079830915 0.05057394 0.06928606 0.062650986 -0.048211016 0.05882037 -0.023190903 0.045532487
-0.12688993 -0.124162845 -0.129421 -0.113586545 -0.08319763 0.012373706 -0.054123588 -0.10247643
0.00619929 -0.042669933 0.12600364 -0.12212235 -0.07582862 -0.11144547 0.02886651 0.029076008
-0.016011875 0.17708436 -0.06851805 -0.02454652 0.04111793 0.15526848 0.145404 0.019339718
-0.060163517 0.054533333 0.12348508 0.0036305957 0.09975937 0.1324284 -0.07426498 -0.0062086973
-0.16738479 0.038031753 0.12501705 -0.035727326 0.019599587 0.06325753 -0.015482544 0.13097249
0.035891537 -0.18340212 -0.13479906 -0.157538 -0.016744182 0.08823588 -0.03585861 0.15763715
-0.042736646 0.03112992 0.16220868 0.105248034 0.008058032 0.1792291 -0.102204636 0.063796565
0.10699714 -0.10314357 -0.17658894 0.03412116 -0.064400844 -0.09026701 0.024539039 -0.100196786
0.1493124 -0.028797451 -0.041661534 0.13663846 0.051093344 0.054836225 -0.09133384 0.15461476
-0.042714108 0.13142388 -0.020593448 0.08863815 0.108139955 -0.14376713 -0.12890856 -0.16494958
0.1038776 0.1476759 -0.05357211 -0.0698172 0.05202696 0.10382087 0.05423202 -0.038011577
-0.118706524 0.1683389 -0.12206596 -0.19223706 -0.09027525 0.04474142 0.041271348 0.07827391
-0.07316966 -0.087956876 -0.074740194 -0.050004788 -0.120823614 0.030154746 -0.023475707 -0.13942367
-0.12605347 -0.10364678 -0.09708028 -0.12449048 -0.040321596 0.06454916 -0.15394421 -0.058307443
-0.033981603 -0.102022745 -0.019600494 -0.09462674 0.016963637 -0.14515804 0.018151075 0.17487578
0.11883068 -0.09207968 0.046854064 -0.1821407 0.13541244 -0.15725026 -0.16802435 -0.16209395
-0.12605277 -0.011312672 -0.02829223 0.09024598 0.026674299 0.026188375 -0.052341685 -0.0734709
-0.14333726 0.094826154 -0.09806202 -0.009734662 0.04399301 -0.07271382 -0.058233526 -0.1343601
-0.1327378 0.097599715 0.011141745 0.12891144 0.058531098 -0.008835893 -0.12070895 0.048288632
-0.0680539 -0.087084085 -0.03352935 -0.02373838 -0.14114927 0.07228604 0.10424896 0.0827712

emb_net.v_lins1.3.bias f4 [32]
00000000: 03a4 11be d34c 113d b146 ea3d 7707 28bd
00000010: f0ab 873c f46b b83c 5c8d 7b3c b8cb 3b3d
00000020: e8fe 2dbe 4d46 093e 5197 9e3d 69f1 b13c
00000030: 2703 043d 82e1 11be 642a 4ebd e4b7 17bc
00000040: 7c60 2b3d 19d1 c6bd 15a1 973c f4f3 60bd
00000050: 656a 033e 2ac8 1abe 206e 973c 081b f63d
00000060: e703 0dbe ac29 afbb 96b2 a63d dcec 913d
00000070: 654a a93c 25fa 923d 3430 fbbd 5d85 163e
-0.14222722 0.035473656 0.114392646 -0.041022744 0.016561478 0.022512414 0.015353527 0.04584858
-0.1699177 0.13405724 0.07743705 0.021721559 0.03222957 -0.1424618 -0.050333396 -0.009260152
0.04184006 -0.09707851 0.018509427 -0.05492015 0.12833555 -0.15115419 0.018485129 0.120168746
-0.1377102 -0.005345544 0.08139531 0.071252555 0.020665357 0.071766175 -0.122650534 0.14699312

emb_net.v_lins1.4.weight f4 [32, 32]
00000000: f21f c7ba f5f4 d23d 5cdf 473d ca47 abbc
00000010: c72a 903d 4a5a 2c3e 3dc4 1f3e 72c9 1fbe
00000020: 8239 643b 1a02 12be 8cdd b93d 43fb e73d
00000030: a518 0fbe b4c8 f1bc 5998 df3d 441b c63d
00000040: 2b9b 09be 5156 cd3d 5264 07bd 5ba8 29be
00000050: 0553 2c3d b155 883d 1484 bf3d 50ea 04be
00000060: 86d2 0dbe 0e21 f9bd 1de7 c43d 522e 30be
00000070: 1946 80bc 3e39 36bd 99bb 9f3d 1b75 253d
00000080: 7453 cfbd d1f1 5b3c 251f 233e 6e0b b93c
00000090: 5a5e c7bd ac3e 74b9 0749 1fbe 6510 01be
000000a0: 40ca 16bd 4478 04be 646d 0a3e 5630 cb3c
000000b0: 92e6 003e 1354 2abd 6a3a 1fbd 5a14 383d
000000c0: eb95 4ebd 21fb 76bd dc31 3bbe 7edb fb3d
000000d0: 57bf 243e 76ba 36be 6962 94bd f8a6 0fbe
000000e0: 3691 90bd 9fc8 013e 34fa a43d e822 f3bc
000000f0: cd54 793d ca68 553d f9c7 a83d 06a4 1cbe
00000100: 309f 8d3d cbdc 37be 6ec5 ebbd c5d5 48bd
00000110: fc21 89bc c798 1abe c80a 39bc 883d c83c
00000120: 3d46 8bbd 4368 ac3c aa2b 173e b6d4 1ebd
00000130: def2 b1bd c1a5 3abe d118 e0bd f1bb d3bd
00000140: 02c9 14be 179d 88bd eabc e23d e6ef 8c3d
00000150: 15e6 253e 1bf9 233e 904e 51bd 0c21 84bd
00000160: f09b 1a3c 8c4f 07be 1c6b d43d c43e 69bd
00000170: 6679 1ebe 2748 ddbd 36dc f2bd 87cb ac3d
00000180: 4fbf e93d c5e3 203e 035f 13bd 963d d9bd
00000190: db5c d4bd 5d81 01be 7fa0 9bbd e710 35be
000001a0: e84b eb3d 6bf8 36be eb9a afbd 7844 0b3e
000001b0: 3d18 edbd 7d1d 623c bf62 003e 456e 243e
000001c0: 0383 853d 77de 40bd bdc0 ac3d d3ef bdbb
000001d0: b87a 4abd 3846 b43b ad07 5b3d f281 de3d
000001e0: e976 9e3d 4c72 c23d 3a39 133d 1efa a83a
000001f0: affb ba3d 1bf6 f03c 615b 16be caff 343d
00000200: ada6 ccbd bc7e c7bd 8741 ad3d e1a5 353c
00000210: dd00 c43c 43a6 cebd 9f05 ac3d 8523 1c3e
00000220: 0db0 b13c 59ed 5d3d b88a 17be 0775 e63d
00000230: 5e18 703d 6bad 883d 6826 3f3d b4c2 3ebd
00000240: a371 853b 816b 213e 9251 e43d bae8 1abe
00000250: d040 133e 6c63 473e 6045 253c f165 0dbe
00000260: 5021 673d df2a 2ebd 59fe ec3d d626 3fbe
00000270: 91f8 363d 689a 6cbc 60d0 f43b 630c e23d
00000280: 97e5 29bc 00ad 0ebe 4226 bdbd da1e bfbd
00000290: faa0 a03c fccf 7b3d 5521 24bd ab60 a6bd
000002a0: 297b af3d 83c4 32be 9a17 063e baa9 d2bc
000002b0: 5f4a 013e 85c8 073e 1ef2 d23b 2c8d af3d
000002c0: cb5a d2bd 1b38 fe3d 4259 bd3d 8c97 10bd
000002d0: c634 a13d 54a9 793b 5005 113e 2e60 863d
000002e0: 58c4 153e 7613 1dbe 8653 2e3e 6c44 6a3d
000002f0: cecf a83d e6d6 163d 542a 053e 3b5e 0d3e
00000300: 1fba 58bc 9b8e 13be 344b 1f3e 62de 21bd
00000310: 29bf b3bd 27fb cd3d c7e2 e73d 8df6 213d
00000320: e6d3 ebbc a62a c7bc 6ba0 1d3e 3efe c53d
00000330: 8a61 b93d a4a8 fa3d 73ec c9bd c96f f83c
00000340: 4ce4 14be 5241 b83d fa5e 3bbe 8e1d 49be
00000350: 56a3 3cbe 93ee b43d 0992 1f3b d224 8fbc
00000360: 7c2f 7b3c 45b1 b0bd 905c 88bd 9b73 e1bd
00000370: c911 28bd 9679 e2bd 7bc5 7cbb fb3e 033e
00000380: 9102 19be e76f 973d 03d2 ebbd b3d2 98bd
00000390: e9a2 f23c 0274 ed3c da39 053e 6cd0 90bb
000003a0: 482c a2bd b9a7 afbd 69b0 f63b 097f 00be
000003b0: 5657 21be 2007 c2bd 2322 efbb 36e9 00be
000003c0: 8317 ecbd 94ac e93d 705b 2b3e 9218 88bd
000003d0: 8c1c 05be f1e4 81bd 2011 873d deb4 483d
000003e0: 53ce 85bd 5013 1ebe d07a 68bd 24e6 6dbd
000003f0: 3854 b53d d2ee a0bd 4fb2 c83d 6302 dd3c
-0.0015192016 0.10300628 0.048796996 -0.020908255 0.07039409 0.16831318 0.15602203 -0.15604189
0.0034824316 -0.14258614 0.0907546 0.11327221 -0.13974245 -0.029514648 0.1091773 0.09673169
-0.13438098 0.10026229 -0.033054657 -0.16568129 0.04207136 0.06656969 0.09351364 -0.12980008
-0.1384984 -0.12164508 0.09614394 -0.1720517 -0.015658425 -0.044488184 0.07799453 0.040394884
-0.10123339 0.013424353 0.1592985 0.022588458 -0.09734793 -0.00023293 -0.15555201 -0.1260391
-0.036813974 -0.12936503 0.13518292 0.024803322 0.12587956 -0.041584086 -0.038874067 0.044941284
-0.05043594 -0.06029809 -0.18280739 0.12297724 0.16088615 -0.17844567 -0.07245333 -0.14028537
-0.07058947 0.12674187 0.08055535 -0.02967973 0.060871888 0.052101888 0.08241267 -0.15296945
0.06915128 -0.1795532 -0.11512266 -0.04903199 -0.016739838 -0.15097342 -0.011294074 0.024443403
-0.06800506 0.02104581 0.1476275 -0.038777076 -0.08688901 -0.18227293 -0.10942233 -0.10338581
-0.14529803 -0.066705875 0.11071189 0.068816945 0.1620105 0.16012995 -0.051100314 -0.06451616
0.009436592 -0.13213938 0.10371992 -0.056944624 -0.15475997 -0.108047776 -0.11858408 0.08437257
0.11413442 0.15711887 -0.035979282 -0.1060745 -0.10369273 -0.12647004 -0.075989716 -0.17682229
0.11489087 -0.17868201 -0.0857447 0.13600338 -0.11576889 0.013800976 0.12537669 0.1605769
0.06519129 -0.04708716 0.084351994 -0.0057964115 -0.04943344 0.005501535 0.053474117 0.10864629
0.07737524 0.09494457 0.035943247 0.0012891924 0.09130036 0.029414227 -0.14683296 0.044189252
-0.099927284 -0.097409695 0.08459764 0.011086912 0.023926193 -0.10090306 0.0839951 0.15247925
0.021690393 0.05418143 -0.14799011 0.1125279 0.05861699 0.06673702 0.046667486 -0.046572402
0.0040723844 0.15763666 0.11148371 -0.1512784 0.14380193 0.1947152 0.010087341 -0.13808419
0.056428254 -0.042521354 0.115719505 -0.18667158 0.044670645 -0.01444111 0.0074711293 0.11037519
-0.01036968 -0.13933182 -0.09235813 -0.09332056 0.01960801 0.061477646 -0.04007085 -0.08123907
0.08568413 -0.17457776 0.13094941 -0.025715698 0.12626027 0.13260086 0.006437554 0.08571848
-0.10271224 0.12413045 0.0924554 -0.035300776 0.07871394 0.0038095312 0.14162183 0.065613136
0.1462568 -0.15339455 0.17024049 0.05719416 0.082427606 0.036826037 0.13004428 0.13805477
-0.0132279685 -0.14409868 0.15556031 -0.03951872 -0.08776695 0.10057669 0.11322551 0.03954177
-0.028787564 -0.024312329 0.15393226 0.096676335 0.09051807 0.12239197 -0.09859552 0.03032674
-0.14540213 0.08996834 -0.1829795 -0.1964018 -0.18421683 0.08834567 0.0024348518 -0.017473612
0.015331145 -0.086275615 -0.0665828 -0.11008378 -0.041032586 -0.11058347 -0.0038569856 0.12816994
-0.14942385 0.073943906 -0.11514666 -0.07462063 0.029618697 0.02898598 0.1301035 -0.004419377
-0.07918602 -0.085769124 0.007528354 -0.1254846 -0.15755972 -0.09474015 -0.0072977706 -0.12588963
-0.11527922 0.1140987 0.167341 -0.066453114 -0.12999171 -0.06342495 0.06595063 0.049000613
-0.06533494 -0.15437055 -0.056757748 -0.058080807 0.08853954 -0.07858051 0.09799635 0.026978677

emb_net.v_lins1.4.bias f4 [32]
00000000: 2bfc 643d 2058 e2bb 3cec 55bd 9ce5 0cba
00000010: e2ab 2fbe 1b19 ffbd 26d1 bf3c 8eca 2e3e
00000020: ace9 d6bd b79e e73d 3b5c 7d3c 58bd 9bbd
00000030: d526 4939 9269 ad3d 6153 ab3c 5475 203e
00000040: 85f7 08bd 826b f1bd 5b82 233e bda7 4ebd
00000050: c883 e53d 8161 ee3d b0d1 fe3c 011e 14be
00000060: f8be 31be d829 ab3d 10ac 303d 2b32 d23d
00000070: ca78 1fbe 5613 c7bc 3b10 1c3e 3e16 be3d
0.05590455 -0.006907478 -0.052227244 -0.00053747906 -0.17155412 -0.1245596 0.02341516 0.17069456
-0.10493788 0.11309569 0.015463884 -0.07604474 0.0001918332 0.084674016 0.020913782 0.15669757
-0.033439178 -0.117880836 0.15967695 -0.050452936 0.11206776 0.11639691 0.031105846 -0.1446457
-0.17358005 0.083575904 0.04313284 0.10263475 -0.15573421 -0.024301212 0.15240566 0.09281586

emb_net.v_lins1.5.weight f4 [32, 32]
00000000: 1b28 1d3e 302b e23d dd9b 15bc 88d9 c9bd
00000010: c18d b9bd a59f 9d3d d1d1 adbd f3df 803c
00000020: 3394 0e3d b696 983d f2c6 b03d 7ed1 033e
00000030: fe74 04bd 30a7 9b3d 31a5 c1bd f349 e3bd
00000040: 9dec 073b b41e b2bd d6d0 403e 1524 13bd
00000050: d46b 473d 3d44 e9bc d998 803a 6b57 d1bd
00000060: c8c5 f5bc 0a0f 1fbe 0336 bebd 92a3 d73d
00000070: e590 47be 83a3 2e3d 208b 753b 2b68 0dbe
00000080: 42a1 883c b63d 943d 2b63 eb3d 1b13 5f3c
00000090: fe11 163e d405 75ba f4a9 b43d c888 6e3d
000000a0: f836 23be 119c 9cbc d0be 0fbe c297 e63d
000000b0: 196d b43d 6bee 3cbd 513c 28bd a07f 6f3d
000000c0: 065e 1cbe 73ca 9fbc 6ea6 a83d aa70 1f3c
000000d0: 8bc2 2fbd d829 e93d d3d4 6f3d 7ffd 10be
000000e0: 8bc5 d23d 7e6a 15be a849 973d 830e 153e
000000f0: 2d3e 8c3c 38ea a2bd 31eb cabd 0794 d7bd
00000100: 83d4 91bc 73fc a2bd 4d1c 503e e7ec 83bd
00000110: 7d09 aa3d 3cd1 17be 5b9a ba3d 1cd9 233e
00000120: 1823 e4bd f587 33bd e6f4 273d 3e84 31be
00000130: c6a8 f2bd 9c55 233d 3b03 323e 9291 58bd
00000140: f5f9 b93a 4f71 17be 3e37 1dbe 4d8c 2a3e
00000150: 130d 243e 7719 50bd 4f51 73bd 0477 e5bb
00000160: 1bcf b33d 5352 22be 7299 bfbd b491 6bbd
00000170: cb2c cebd 8459 a13c efaf 093e f23d 313d
00000180: a4c1 1dbe 3ad8 193e 38c3 343e 7f34 913d
00000190: 5647 ae3d 4e58 a13d f504 003e ca19 28be
000001a0: 99d9 c0bd 5382 39bd 590b 0dbd de47 b9bd
000001b0: d891 4dbe 1e54 1dbe b54b dfbc 3203 da3d
000001c0: 6440 053e d02c 3a3d fac4 babd d4d6 9ebd
000001d0: 9ed8 013d 3ed7 35be 4035 7b3c b0f5 053d
000001e0: c6f9 1e3e d5e8 5dbd 7e2e 423e 665a 923b
000001f0: 8b49 07be 91de 283e ebfd 163e 2f14 ccbd
00000200: 4e22 8dbd 0bd8 573d 0ad1 a9bd 75b6 0c3e
00000210: 5b29 67bd 5f0a 01bd a189 6ebd 74c5 423e
00000220: 7eb0 2ebd fab1 82bd fb8e b43d bae6 d0bd
00000230: 948b 0abd 2356 26be 30ea 2bbe 8d36 8ebd
00000240: d52c 073d 4583 253e 3a1b 02be 1d5a 7dbd
00000250: deb2 423d 5cf6 2e3d 050d cb3d a3ce 1dbe
00000260: ebef 7abd cb5f 2d3d 12d6 0ebe f25e 8f3d
00000270: 945d 49be d491 0a3e 306e 193d 7446 33bd
00000280: 003f 513d beec 1d3e 59a8 003e dd7f c33d
00000290: 57c2 e1bd fdc4 313d 4b2f 093e 1d81 d93c
000002a0: 00a7 f33d a478 dfbd 3c0d f33d a055 b5bc
000002b0: 088d 1ebe c206 23bd ab24 1b3e 0a5c 69bd
000002c0: 3911 0dbd 128b 81bd 7f3c e0bd 158b 093d
000002d0: 25c7 e13d a8aa a93c 38c0 85bc fbd2 fe3b
000002e0: fad3 06be 5339 c5bd a42e dd3b 3f9d 14be
000002f0: bc35 b13d 587d c83c b833 373c 2d96 52bc
00000300: 30b8 0d3e ad26 253e 4e24 da3d cb37 ae3d
00000310: ded4 cbbd 4a75 673d 4d9c 1dbe fe79 853d
00000320: 6e61 e9bd e903 afbc f8bb 073e f480 0a3e
00000330: e108 103e f4cc 153d 3fb9 5a3d cc35 143d
00000340: 91c6 f23d 0381 a03d b2d1 2c3d bbb3 b2bd
00000350: d9a9 97bd 3b85 5bbd 1d2a 9c3d 7a6b e8bd
00000360: 18f6 143d 9e90 073e 6cb8 203e 4756 0bbe
00000370: 0a40 2e3d 1049 e73d 4ece 20be fd84 e13d
00000380: bca8 e7bd 161c 25be 5c54 93bd 69b3 5ebd
00000390: fc70 85bd a556 5f3d 6085 9a3d 74ef a43d
000003a0: 7070 f33d 9e93 fabd 7ac6 33be 0bd9 08be
000003b0: e447 febd 41fb a3bd 9355 9b3d 7e77 19be
000003c0: f2be dabd ce21 a43d ac8a adbd d177 b63c
000003d0: 9736 11be 0c34 463d 866f db3d 42f4 1bbe
000003e0: f99f 673d 5b14 bdbd 3318 d13d 8165 183e
000003f0: 55d8 23be 57c8 733d 389e b83d b3c9 353e
0.1534733 0.110433936 -0.009131399 -0.09855944 -0.090602405 0.076964654 -0.08487285 0.015731787
0.034809303 0.07450621 0.08631696 0.12872884 -0.032338135 0.07600248 -0.09455336 -0.11098089
0.0020740398 -0.086972624 0.18829665 -0.035923082 0.048686817 -0.028474921 0.0009811177 -0.10221752
-0.030001536 -0.1553308 -0.09287646 0.105292454 -0.19488867 0.042636406 0.0037466958 -0.13809268
0.016678456 0.07238333 0.11493524 0.013615395 0.14655301 -0.0009346877 0.088214785 0.058235914
-0.15938938 -0.019117387 -0.14037633 0.11259414 0.08809871 -0.04612581 -0.041073147 0.058471322
-0.15270242 -0.019505715 0.08234869 0.009731451 -0.04291014 0.11384934 0.058552574 -0.14159201
0.102915846 -0.14591405 0.07387096 0.14556317 0.017119491 -0.0795483 -0.099081405 -0.10526281
-0.017801529 -0.07958307 0.20323296 -0.0644167 0.08302591 -0.1482591 0.09111472 0.1600079
-0.11139506 -0.04383083 0.041005038 -0.17335603 -0.11848597 0.039876565 0.17384045 -0.0528732
0.0014188873 -0.14789318 -0.15353104 0.16655083 0.16020612 -0.050805535 -0.059403714 -0.007002713
0.087797366 -0.15851717 -0.09355439 -0.057512 -0.10067137 0.019696005 0.1344602 0.043271966
-0.154059 0.1502389 0.17652595 0.07090091 0.085097 0.07878171 0.12501891 -0.16416088
-0.094165035 -0.045290302 -0.03443465 -0.09046911 -0.20075166 -0.1536412 -0.02725778 0.10645141
0.13012844 0.045452893 -0.091196015 -0.07755819 0.031700723 -0.1775789 0.01533252 0.03270501
0.15524969 -0.054177124 0.18963048 0.0044663427 -0.13211648 0.16491152 0.147453 -0.09964787
-0.06891309 0.05269627 -0.08291824 0.13741477 -0.056435924 -0.03150403 -0.058236722 0.19020635
-0.042648785 -0.063816026 0.08816334 -0.102002576 -0.03382452 -0.16243796 -0.16788554 -0.069439985
0.03300174 0.16163357 -0.12705699 -0.061853517 0.047533862 0.042715415 0.09914593 -0.15410857
-0.06126396 0.042327683 -0.13948849 0.07000531 -0.19664603 0.13532192 0.0374586 -0.04376836
0.051085472 0.15422341 0.1256422 0.09545872 -0.110233955 0.043400753 0.13396947 0.026550824
0.11897087 -0.10911682 0.11867759 -0.022135556 -0.15483487 -0.039801367 0.15150706 -0.05697254
-0.034440253 -0.06325354 -0.10949039 0.033579905 0.11024312 0.020711258 -0.016327009 0.0077766157
-0.131668 -0.09630074 0.0067499448 -0.1451311 0.08652827 0.024473831 0.011181764 -0.0128531875
0.13839793 0.16128035 0.10651456 0.085067354 -0.099527106 0.05650834 -0.15391655 0.06517409
-0.11395536 -0.02136417 0.13255298 0.13525754 0.14065887 0.03657241 0.05339932 0.036184117
0.1185428 0.07837107 0.04219217 -0.08725687 -0.07405443 -0.053593855 0.0762522 -0.113486245
0.036367506 0.13238761 0.15695351 -0.13607131 0.04254154 0.112932324 -0.15703699 0.110116936
-0.113114804 -0.16123995 -0.07193825 -0.054370318 -0.06515691 0.05452599 0.075449705 0.080534846
0.1188668 -0.12235187 -0.17556182 -0.13364045 -0.12416056 -0.08006907 0.07584681 -0.14986989
-0.10680951 0.0801426 -0.08473715 0.02227393 -0.1418098 0.04838948 0.10714631 -0.15229896
0.056549046 -0.09232398 0.10209694 0.1488247 -0.16000493 0.05951723 0.09014553 0.17752723

emb_net.v_lins1.5.bias f4 [32]
00000000: 7855 543d face 92bd 4243 54bd 0147 f73c
00000010: 07b3 193d 3ebf 193e 9393 2c3e e230 293c
00000020: 85a3 2a3e ddca d5bd 573f c03a 0867 15be
00000030: fe53 ad3d bb34 103d 532a dbbd 1ddd 0abe
00000040: 50b9 0fbd 7639 89bd 5d71 93bd 60ac 1dbe
00000050: 8356 e6bd 3c27 163e 8dc3 b1bd d632 933d
00000060: 8e03 443c 092b c4bc 335f 6c3d 9315 083e
00000070: 686f 603d 6b3b 9c3c ec35 133e 8616 6f3c
0.05183932 -0.07168384 -0.051821955 0.030185224 0.03752425 0.1501436 0.1685317 0.010326596
0.1666394 -0.10439084 0.0014667314 -0.14590085 0.08463286 0.035206538 -0.10701432 -0.1356091
-0.035088837 -0.06700413 -0.07199357 -0.15397787 -0.112469696 0.14663404 -0.086798765 0.071874306
0.011963738 -0.023946302 0.057707977 0.1328948 0.054793745 0.019071301 0.14376038 0.014592772
