pretrained/sop/100/sop100_sd0/20.pt (torch, 359220 bytes, 234 tensors)

emb_net.v_lin0.weight f4 [32, 1]
00000000: 066f 21bc de81 0a3f 12c9 4fbf 2211 40bf
00000010: e92e c6be c917 8d3e 9df0 cebc f12a 483f
00000020: 119b bcbd 4646 8c3e 7cb1 93be 725c 51be
00000030: d0d3 75bf 3682 26bf bb2c d1be f10d 693d
00000040: 7f5a cb3e 0f83 193f 8b3f 2cbf 2684 d9be
00000050: c86e bc3e d7e4 573f f13a 58be acd0 3f3f
00000060: 3846 1dbe 0872 c33d c89a 643f 9461 6abf
00000070: 5d63 23bf 9ee4 78be 3ba4 c3be f302 5d3f
-0.00985313 0.5410441 -0.81166184 -0.7502614 -0.38707665 0.2755721 -0.025261218 0.78190523
-0.09209264 0.27397364 -0.28846347 -0.20445421 -0.96026325 -0.65042436 -0.4085444 0.05689806
0.3971748 0.59965605 -0.6728446 -0.42483634 0.3680327 0.84333557 -0.21116234 0.74927783
-0.15358818 0.09543234 0.8929868 -0.9155514 -0.6382349 -0.2430596 -0.38211235 0.86332625

emb_net.v_lin0.bias f4 [32]
00000000: e7f0 25bf 2020 eabe 4c3a 32bf 1b18 70bf
00000010: 3603 14bf cccb 5e3f afbe ea3e 8c90 f23e
00000020: ebfd 833d 8290 00bf fd6a 1f3e 2dd6 6cbf
00000030: 38c3 3bbf bcf5 00bf 9493 203f 71d4 183f
00000040: 1cd1 e0be 3e55 0bbd e5a3 223f 5432 7b3f
00000050: 347a cb3e ec45 153e e729 2d3f 3a21 17bf
00000060: c065 383e a7c0 48bf 41ef 33bf 3b8a 03bf
00000070: 7580 eb3e 5508 c83e 8e57 19bf e583 9d3e
-0.6482071 -0.45727634 -0.69620204 -0.9378678 -0.578174 0.8702972 0.45848605 0.47375906
0.064449154 -0.502205 0.15568157 -0.92514306 -0.73344755 -0.5037496 0.62725186 0.5969916
-0.43909538 -0.03401684 0.63531333 0.9812367 0.3974167 0.14577454 0.6764206 -0.59035075
0.18007565 -0.78418964 -0.7028695 -0.513828 0.45996442 0.39068857 -0.5989922 0.3076469

emb_net.v_lins1.0.weight f4 [32, 32]
00000000: 04d7 cf3d 220b 04bd 642b 713a ee25 0b3d
00000010: b48e dc3d 0ea1 273e 5b5f 06be bf9d 99bd
00000020: f534 963d 3868 0b3e 9aa1 1f3e c8e4 1d3e
00000030: ef97 e93c 9153 21be 6f87 993c 9177 edbd
00000040: b104 33be 5417 163e fe78 0a3e 0439 31be
00000050: 9b7f d13c 5548 25bd 3bbd cfbc 8873 b8bd
00000060: f628 923d c489 e6bd 7fee 653d 5ceb ab3d
00000070: bbff 013e 1b76 8d3d f011 35be 123d 00be
00000080: fd6c 973d e871 463d f49a 05be 1f54 bdbd
00000090: b9a8 203e 2e33 073e 9c22 bbbd a921 03bd
000000a0: c676 3abe f7ea 123c 58c8 16be 8899 15be
000000b0: 8473 82ba cdd4 e13c 8176 b1bd eff8 f33d
000000c0: 3e20 c4bd b463 303e 572f da3d 4ddf 26be
000000d0: f33a 00bd fcd9 a43c a7f5 443c 2f2e 583d
000000e0: de17 643d b3bc b73c f70f 9bbd 0d00 b83d
000000f0: fcfe 3bbe b4ac f2bd cf54 59bd bdfb 96bd
00000100: 1ae4 97bd 299e 1dbe 61fb 63bd 91fd 9d3c
00000110: 32c2 06be dab6 1f39 637e ea3d 41a6 87bc
00000120: 1f36 01bc f3d5 83bc 9e30 af3c f851 c43d
00000130: e061 183e 0061 c23d 0741 1d3e 7efd abba
00000140: 58a0 27be 3049 b3bd 186e d73d 0939 70bc
00000150: fa50 a7bd 2a76 0fbe 039e 36be d247 26be
00000160: 8311 49bd 3e51 d13d b4a8 a53d 80d8 40be
00000170: 3538 c23d 7281 1bbe 8e78 5cbd 9509 97bd
00000180: 84e8 32bd 9da0 16bd 1429 2abe d920 23be
00000190: 3cb8 1cbd d89c f33b a405 b7bd 2099 8a3d
000001a0: a63d 2fbe 0256 49bc e5c2 0e3e f4af a9bd
000001b0: 2ed5 1b3e 89db 613d ffb8 33be 9596 f43d
000001c0: 5354 b1bc 9973 a3bd c5ed 023e eeee 21be
000001d0: f97a b13c 72bf 1bbd 0f6e e73d 7d3c 3d3d
000001e0: c82f 913d 469c 823d fcd5 3cbd cf1b 39bd
000001f0: ad5c 22be 9588 a43d 6ef3 043e 52b1 f63d
00000200: cfa6 06be 7368 973b 9e99 13be cc7f e9bd
00000210: 622c f8bd f501 863d 6ca3 e4bd 5aee ceba
00000220: ba13 f6b9 7e3c e93d 93a0 13be 20e5 0ebe
00000230: b674 f6bd f593 d23d 0167 97bd aed2 1e3e
00000240: 0987 7f3d 94d5 b33c 5526 7dbc ecbc 34bd
00000250: c361 d03c d063 25bd 0366 1ebc c890 863c
00000260: 9fd4 15be f102 b8bd fddf 093e e56a 27be
00000270: ed8d e0bc 55bd 293e ce3c 3a3d ede2 c73b
00000280: a1c4 16be 20a1 a23d f8ca febd 5781 4ebd
00000290: 5f20 64bd c66d 02bd bb44 e83b dd9c 0e3e
000002a0: 1d86 de3c 420d 1b3e e8de e63d d84c ddbd
000002b0: 83b4 a33d b433 fabd 7da0 8fbd 543a 3e3d
000002c0: caf5 503d 1772 003e c965 57bd 27ff a93b
000002d0: a2e9 ad3d 5e44 36be 4100 083e aec9 1fbe
000002e0: e0a5 f33b ccd3 13bd 2ed1 d6bd 0f5c ce3c
000002f0: f3dd 193e cd5f 3fbd f085 cfbd 84c8 93bd
00000300: 3f9a 3dbe 3054 b93d 1243 a1bd 2ca2 e4bd
00000310: beea c1bd d94b e73d 2e20 aa3d abd7 143e
00000320: 3c97 6e3d e690 43bd 848e 40bd fb20 743d
00000330: 3a36 1a3e 8dac 603d d383 a6bd eb8e 91bd
00000340: d3df 1fbe 4ae4 463d 4552 bcbd 2b18 21be
00000350: 36fd 293e ff13 d7bd 59cf c6bc bd45 7a3d
00000360: 0b5c 113b 0840 ddbd 0d86 07be 9d4a 163e
00000370: bdf5 123d 768f 143e 4ae0 55bd a033 7c3d
00000380: d648 6cbd 85f8 81bc 6b3b 04be 60dd 193d
00000390: 2083 113d 61c1 403c b46b 68bd b9f0 d1bd
000003a0: 005b d63d 37ce 03be 7332 5d3d 157b a3bd
000003b0: ce68 dbbd e7e0 313c f65f e1bd 33a1 6b3d
000003c0: 63d9 023d 198d 07be 19c5 223c 7cc9 6a3d
000003d0: 1475 a83d 44f1 c8bc 9756 26be 4623 2fbd
000003e0: 6acd 323d 4c33 5bbd 7b4c 413d 2527 c53d
000003f0: 0f24 e5bd 21d2 84bc 9319 583d 993b 743c
0.10148433 -0.03223718 0.0009199886 0.03397172 0.10769406 0.16370031 -0.13122313 -0.07500791
0.073343195 0.13613975 0.1558899 0.15419304 0.02851483 -0.15754534 0.018741338 -0.11595071
-0.17482258 0.14657336 0.13522717 -0.17306906 0.025573542 -0.040352184 -0.025358787 -0.09006411
0.07136719 -0.112567455 0.05613565 0.083945006 0.1269521 0.069072925 -0.17682624 -0.12523296
0.07393835 0.048448473 -0.13047391 -0.092445605 0.15689363 0.13203117 -0.091374606 -0.032014523
-0.18209371 0.008967153 -0.14724863 -0.14609349 -0.0009952639 0.027567292 -0.08665181 0.11912715
-0.09576462 0.17225534 0.106535606 -0.1629612 -0.03130622 0.020123474 0.012021459 0.05277842
0.055686824 0.022428846 -0.075714044 0.08984385 -0.18358988 -0.11849347 -0.053059395 -0.07372234
-0.07416554 -0.15392365 -0.055659655 0.019285949 -0.13160017 0.00015231539 0.114498876 -0.016558768
-0.007886439 -0.01609323 0.021385487 0.09585947 0.14881086 0.094911575 0.15356837 -0.0013121811
-0.1636976 -0.08754194 0.105190456 -0.014662036 -0.08169742 -0.1400992 -0.17833714 -0.16238335
-0.049088966 0.10220574 0.08088818 -0.18832588 0.09483377 -0.15186098 -0.053825907 -0.073748745
-0.043678775 -0.036774267 -0.16617233 -0.15930499 -0.038261637 0.0074344687 -0.08936623 0.067674875
-0.17113361 -0.012288572 0.13941534 -0.082855135 0.1521804 0.055141006 -0.17551039 0.11942784
-0.021646654 -0.07981033 0.12786014 -0.158138 0.021665083 -0.038024373 0.11300289 0.046200264
0.07089192 0.06377463 -0.04610251 -0.045192536 -0.15855666 0.080338635 0.12983486 0.1204554
-0.1314957 0.0046206056 -0.14414069 -0.114013284 -0.1211784 0.06543342 -0.11163983 -0.0015787587
-0.00046935474 0.11388491 -0.14416723 -0.13954592 -0.120339796 0.10282127 -0.07392693 0.15510055
0.06238464 0.021952428 -0.015451034 -0.044125482 0.025437241 -0.04037839 -0.009667876 0.016426459
-0.1463189 -0.08984936 0.13464351 -0.16349371 -0.027411425 0.1657613 0.045468144 0.0061000497
-0.14723445 0.079408884 -0.12441057 -0.050416317 -0.055694934 -0.03184297 0.0070882714 0.13927026
0.02716356 0.15141776 0.11272985 -0.108056724 0.07993414 -0.12216893 -0.070130326 0.046442345
0.051015653 0.12543522 -0.052587304 0.005187887 0.084918275 -0.17799518 0.13281347 -0.15604278
0.0074355453 -0.036090657 -0.104891166 0.025190381 0.15026073 -0.046722222 -0.101329684 -0.0721598
-0.18515871 0.090492606 -0.07874121 -0.11163744 -0.09468602 0.11293764 0.08306919 0.14535396
0.058249697 -0.047745608 -0.047010913 0.059601765 0.15059748 0.054852057 -0.08130612 -0.071073376
-0.15612726 0.048557557 -0.09195379 -0.15731876 0.16600499 -0.10501861 -0.024268793 0.061101664
0.0022180106 -0.108032286 -0.1323473 0.146769 0.035878886 0.14507851 -0.05221585 0.06157267
-0.05768665 -0.015865574 -0.12913291 0.037564635 0.03552544 0.011764855 -0.05674334 -0.10250992
0.104665756 -0.12871633 0.05400319 -0.079824604 -0.10713349 0.010856844 -0.11004631 0.05752678
0.031945597 -0.13237418 0.009934687 0.057321057 0.08225456 -0.024529107 -0.16243969 -0.04275825
0.04365293 -0.053515717 0.047192078 0.09626607 -0.11188518 -0.016213479 0.052758764 0.014906787

emb_net.v_lins1.0.bias f4 [32]
00000000: bcc4 f7bb 5e70 ddbd c098 83bd 51e1 f13d
00000010: 2496 8ebd 1c76 e23d c513 9cbd 9863 14bd
00000020: aab7 843b 9b57 24be 71df 1abc 8a59 b6bb
00000030: f6a3 b2bc d693 07bd 6229 103e 1312 043e
00000040: 8919 fbbd 0481 b93d 34f4 10be d05b 19be
00000050: 2e86 5c3d 2a55 a33a d8ca 90bd 3434 2cbe
00000060: b2e4 84bd 6622 753d 7ce5 28be 6030 32be
00000070: 6142 963c 7521 09be ab8b 26be 78c7 9abd
-0.0075612944 -0.10812448 -0.06425619 0.11810554 -0.06962231 0.11057684 -0.07620958 -0.036227793
0.004050215 -0.16049044 -0.009452687 -0.005564873 -0.021806698 -0.03309997 0.14078286 0.1289752
-0.1226073 0.09057811 -0.14155656 -0.1497643 0.0538389 0.0012461294 -0.070699394 -0.16816789
-0.06488933 0.059847258 -0.16493791 -0.17401266 0.018342199 -0.13391669 -0.16264217 -0.07557577

emb_net.v_lins1.1.weight f4 [32, 32]
00000000: 10c7 94bc 01af 2ebe f971 ccbd e8ac 6d3b
00000010: 2f81 34be 87b9 33bc 112e fbbd d3df d9bd
00000020: 6cda 7e3d f3e7 0cbe 2a6b 04be d8ad b93d
00000030: 90cf c93c 27b2 1e3e aa20 f5bc cf53 bfbd
00000040: af48 85bc 2389 63bb 9938 013e 2125 3cbe
00000050: 6435 ee3b ce26 8f3d 8ab2 a4bd e96d 88bd
00000060: 003f d03d 9cc4 1bbe edbd 703d 06be 14be
00000070: c149 d33d b5ae 10be fc5f cb3d d02c 38be
00000080: 71d2 2abe 9eb1 b33c 08df fa3d 9638 05be
00000090: c9b1 7abd 6ed6 083e 4e95 1dbc fc87 5d3d
000000a0: 3996 1abe e4c1 8bbd fd17 e0bd 7f3c 2f3e
000000b0: c8fc bd3d fb45 e4bd 866b 3b3c 4f9c 963c
000000c0: 0d30 b3bd 3c07 dabd efdd 23bd d51a 203e
000000d0: f7b7 0ebe 4cf9 d7bd 614f 9abd ffea 4dbc
000000e0: a332 f93c 299a 31bc db90 71bd 7bb1 b1bd
000000f0: 16b4 5dbd 63c7 babd 1729 263e 8e9e 2dbe
00000100: 9909 f3bd bec9 13be 083f 26bd 52f5 0a3e
00000110: 00d2 1d3e d8e1 1fbe 6851 14bc 6834 c63d
00000120: 98a1 9b3d fa2f 0a3e 7b11 14bc d045 f6bd
00000130: 8908 ec3d c4c5 84bd 10c1 aa3d acc9 36bd
00000140: bce8 883d 108e 1d3e ba78 253e 8600 27be
00000150: 3029 05be c186 97bd 3520 e1bd c586 223e
00000160: 70e7 babc 9d5a 01be c44e b1bd 41dd cbbd
00000170: ff51 8e3d a107 22be aaf3 29be dedf 3fbe
00000180: 0f88 a63d cc21 ba3d 610a e4bd 4d89 383d
00000190: 0d18 083e 05b0 403c d8e5 12bd e6d4 483b
000001a0: c577 a5bc 8a7f ca3d 5b64 debd d46e c03d
000001b0: fddc cd3d b33b e6bd 5060 103e fba7 303e
000001c0: 2d52 7abd d34c 22bd 572f b93d 5a11 0ebe
000001d0: deba 8d3d 6f9c 2a3d ab08 be3d 3e8d 23be
000001e0: 3b15 17be 8e64 a43d fc9b 843d f4f4 26be
000001f0: 8d8c f2bd decc 1ebe e925 fcbd 5ec3 90bd
00000200: feb1 143e 7ec1 06bd c12d ce3d cb23 2e3e
00000210: 8309 a73d ed0a 23be 6d54 ba3d 1285 893d
00000220: d893 0e3e 0c8f 32be e553 db3d ca03 163e
00000230: 601d 26be e8ac 833c 01a0 193e 7837 02be
00000240: 61fb 6a3d 36e1 9e3d 5cc0 433d f52f 363e
00000250: 8c50 143e 4ed0 1d3e 40c1 b3bc 087a 173e
00000260: 5a61 29be ab63 c4bd 9910 1dbd c385 4dbd
00000270: cbec 223e 42c0 a73d d507 ec3d 297d f63d
00000280: 9aaa 12be 73b3 87bc 62f2 783c 9402 483d
00000290: f528 bd3d 6a4d a7bd 640c 4ebd 5762 0a3e
000002a0: e350 39bd dfda 07be b264 e03d e734 fb3d
000002b0: 29bd 57bd 5087 2bbd cd6a 0fbe ccad 15be
000002c0: 74a4 633d 8be6 b0bd 59db 103e f8ed 0ebe
000002d0: 8146 16bd 588a f63b 2ef4 a73d e8f7 053e
000002e0: 2c65 df3d a528 883d 303e c0bd 9f24 fdbd
000002f0: e5e8 25be 4e5c 36bb c359 313e 92f0 36bd
00000300: a899 82bb b75b 11be d359 5e3d 9462 cc3d
00000310: 0b24 3fbe 7bb9 ebbd 72ff f13d f366 293d
00000320: 3161 bebc 1362 f03c 360f acbc d04d 0bbe
00000330: c995 35be 60f1 dc3d 04fb 9fbc afee 9fbd
00000340: 6060 3cbd 1c03 bdbd cdaf 82bd de4b 27be
00000350: 1272 013e 4e2b 713d 12b3 aebd 8f4c 79bd
00000360: a76c a63d 532b 86bd 8329 3d3d c543 153d
00000370: 3f0d d1bd f30c 4f3d 09ae ceba 1dd4 183e
00000380: a6a8 50bd 7ab2 69bd a7bd 293e 54c4 1dbe
00000390: d3cc 843b f114 3f3e 99c0 b5bd 4c8f 453e
000003a0: 4201 193e c5f3 243e 1a1f 0fbc c3a1 173e
000003b0: 15f4 b0bd 8c6f 83bd ead1 a43d 201b f43c
000003c0: 3994 ca3d d670 2a3e 4bb9 f2bd 6632 b23d
000003d0: 07f2 8b3d 4c31 ab3d 6329 cf3d 8530 49bd
000003e0: be1d 00be 1342 1c3e c214 afbd 4196 d33d
000003f0: 6efa 1abe 4284 90bc 58c0 01bc 2b7d b93c
-0.018161327 -0.17058946 -0.09982676 0.003626639 -0.17627405 -0.010969526 -0.12264646 -0.10638394
0.062220022 -0.13760357 -0.12931505 0.09066361 0.024635106 0.15497647 -0.029922802 -0.09342157
-0.01627001 -0.003471919 0.12619247 -0.18373539 0.0072695483 0.06989823 -0.08041866 -0.06661589
0.10168266 -0.1521172 0.058774877 -0.14525613 0.10316802 -0.14129145 0.09930417 -0.17985845
-0.1668184 0.02193528 0.12249571 -0.13009867 -0.061204705 0.13363048 -0.009618117 0.054084763
-0.15096368 -0.06824091 -0.109420754 0.17112921 0.0927673 -0.1114616 0.01143921 0.01838508
-0.08749399 -0.10645911 -0.040006574 0.15635236 -0.13937365 -0.105455965 -0.075346716 -0.0125682345
0.030419653 -0.010839977 -0.058976036 -0.0867643 -0.05412682 -0.09120061 0.16226612 -0.16955015
-0.11867065 -0.14432427 -0.040587455 0.13570145 0.1541214 -0.15613496 -0.009052612 0.096779644
0.07599181 0.13494864 -0.009037371 -0.120250344 0.115250655 -0.06483033 0.08337605 -0.044625923
0.066850156 0.15386224 0.16159335 -0.16308793 -0.13003993 -0.07398749 -0.10992471 0.15871723
-0.022815436 -0.12632222 -0.086576015 -0.0995431 0.06949233 -0.15823223 -0.16596857 -0.18737742
0.0813142 0.090884775 -0.11134792 0.045052815 0.13290425 0.011760716 -0.035863727 0.0030644475
-0.020198712 0.098876074 -0.10858985 0.09396139 0.10051916 -0.112418555 0.1409924 0.1725158
-0.061113525 -0.039624047 0.090422325 -0.13873807 0.06920408 0.041653093 0.09278997 -0.15971848
-0.14754193 0.08026992 0.06475064 -0.1630438 -0.11843214 -0.15507838 -0.12311918 -0.07068513
0.14521024 -0.032899372 0.100673206 0.17005841 0.08156111 -0.15922137 0.09098134 0.06714834
0.13923585 -0.1743738 0.10709361 0.14649883 -0.16222143 0.016073659 0.15002443 -0.12716472
0.05736864 0.07757799 0.04779087 0.17791732 0.14483851 0.15411493 -0.021942735 0.14792645
-0.16541043 -0.09589323 -0.038345907 -0.050176393 0.15910642 0.08190967 0.11524931 0.12035591
-0.14322892 -0.01656506 0.015194507 0.048830584 0.092363276 -0.081690624 -0.050304785 0.13514076
-0.045243155 -0.13267086 0.10956706 0.1226595 -0.05267063 -0.04187709 -0.14005585 -0.1461708
0.055576757 -0.086377226 0.14146174 -0.13957965 -0.03668833 0.007523816 0.082008705 0.1308285
0.10907969 0.06648377 -0.09386861 -0.123605005 -0.16202123 -0.0027826014 0.17319398 -0.04466302
-0.0039856024 -0.14195143 0.05428488 0.0997974 -0.18666093 -0.11509987 0.118163005 0.041357946
-0.023239704 0.02934364 -0.021003347 -0.13603902 -0.1773292 0.10788226 -0.019528873 -0.07809197
-0.045990348 -0.09229109 -0.063811876 -0.16337535 0.1264117 0.05887919 -0.08530249 -0.060864028
0.081261925 -0.06551232 0.046182167 0.036441583 -0.102076046 0.05054946 -0.0015768419 0.14924665
-0.050942086 -0.057054974 0.16576253 -0.15406924 0.0040527373 0.18660332 -0.08874626 0.19292945
0.14941886 0.16108616 -0.0087354425 0.14807801 -0.08640305 -0.0641776 0.080478504 0.02979809
0.098915525 0.16644606 -0.11851748 0.08701019 0.068332724 0.08359012 0.10115316 -0.049118537
-0.12511346 0.1525958 -0.08548881 0.10331393 -0.15134594 -0.01764119 -0.0079193935 0.022642693

emb_net.v_lins1.1.bias f4 [32]
00000000: 1b3d b6bd 5d67 24bc 5543 023d 976b 4fbd
00000010: 4eeb 29be e3fe c2bc f97c 0a3e a862 0e3e
00000020: 3716 b53d 102e d33c fb26 333d efba 0cbe
00000030: 9776 963d 1f1f 39be ec40 96bd 9d92 3ebd
00000040: ce06 043e 2ccd a6bb 137f a5bd d369 283d
00000050: 7a54 15be 9324 41bd ce6a 413d 02ff d0bb
00000060: ec9d 87bc b53c dc3d 4cac 0cbe 5f84 babd
00000070: 79e1 263e 001e 223d ddfd eebc 19d6 ba3d
-0.08898374 -0.010034409 0.031802494 -0.050639715 -0.16593668 -0.02380318 0.13524236 0.13904822
0.08842128 0.0257788 0.043738347 -0.13743185 0.07346838 -0.18078278 -0.073366016 -0.04652654
0.12893221 -0.0050903764 -0.08080878 0.041116547 -0.14583007 -0.04715402 0.047220998 -0.0063780556
-0.016554795 0.107537664 -0.13737601 -0.09107279 0.16296948 0.03957939 -0.029173786 0.09122867

emb_net.v_lins1.2.weight f4 [32, 32]
00000000: bc91 cd3d c302 1bbd 01c8 8ebd 6e23 0cbd
00000010: 358d 313d 6ba0 76bc f02a c23d 9b98 16be
00000020: 08d8 cbbd 5a20 013e bd30 cd3c 8986 993c
00000030: 61a8 3e3d 7a15 6fbd a347 9abd 0626 243d
00000040: 2816 7abd f796 a4bd 1621 3a3c cf4e eb3c
00000050: dec7 bbbc 572e 04be 2708 90bc 4b78 d2bd
00000060: 6361 a33d 6c93 e9bd 9d7f 173e 8beb 523d
00000070: 96a1 34be fcac f93d 4ffe 40be 006f d3bc
00000080: 874a ecbd 4e73 04be a895 313c 0e35 70bd
00000090: d9e9 0b3e 7df4 13be 4a8b 1a3e 6a38 ba3d
000000a0: 0232 383e ece1 3cbd a0ab fcbd 780b e3bd
000000b0: 3acb 003e e2ea c4bd 09ef fdbc bc19 93bc
000000c0: ac08 953c db83 ffbd bcbf 293e 9d36 0dbe
000000d0: 7d3f 333e 6ade 44bd 5c04 d5bd e96b 2cbd
000000e0: 1786 453d d8b6 58bd 95fe 50be 3589 093e
000000f0: 5e16 183e 6440 a63d 9dd2 223e 8345 343d
00000100: c076 f9bc 6ddf 03be 8691 3cbe 66f1 d7bd
00000110: 4ed8 0abd a263 bf3d 0677 96bd 438a a7bc
00000120: 72f7 633c caaa 00be 57a6 60bc dcba 2a3e
00000130: 4065 133e a1ac 033e 1b84 79bc 5ab8 243b
00000140: 91c9 c83d 2103 66bd 9a0d 5bbd 3db1 153e
00000150: b2bd b73c fcbe e9bd 8409 0b3e 9f77 943a
00000160: 06ca d73d 7b31 31be 8a34 8a3b 24d8 fb3d
00000170: 0b8e 1abd e8c7 d0bd d281 223e bd3c ac3d
00000180: 7f64 803d 8852 c63c d6b8 273a 754a ac3d
00000190: 2975 57bd 85c5 b8bd 19cc 903d 38bb 783d
000001a0: 6320 513d a227 1dbc 6a37 f3bb e833 87bc
000001b0: db13 2a3d 9621 febd 5f77 1fbe 760d 933d
000001c0: 40be b5bd 4112 83bc d8b7 023d 78ad e63c
000001d0: 32c3 e53d 1022 9c3c 32a2 7a3d 0757 03bb
000001e0: acbe 013d 6dd4 a43d cbad 003e b125 35be
000001f0: 2224 7bbd e111 1abe 357c 9fbd b9da ee3d
00000200: 0908 35be c3d7 2bbe f5c6 ba3d b097 e8bd
00000210: a38e f83d 9ac4 323d a480 363d bd4e 0d3e
00000220: 66c8 29be b3cf f13d 6fa8 483d dd03 ffbd
00000230: 71bd 493d 190f 44bd 5e0a 93bd 724b b6bc
00000240: 2edd b0bd b40d 153e df10 173e bba9 bdbc
00000250: 6d4c 20be d1f6 90bc 34d8 063d 3555 053e
00000260: 6b28 a03b 68e8 703d 7943 833d 649d d1bd
00000270: 9639 c2bd de6a 26be 69d3 533b cc39 603d
00000280: e121 71bc d795 263e e91e 1cbd 817f ffbd
00000290: 99ca 973c 7bf9 6bbd 9b7f eebc 6ff1 2c3e
000002a0: 8cd5 9bbc 647a 1a3e 3f2d 933c 6f76 96bd
000002b0: cd6d fd3d e64a d9bd fda2 213a fb10 0c3d
000002c0: 6fc3 963d d6da 2dbe ca76 a6bb 4472 5bbd
000002d0: 8aa3 dc3d 5ba5 563d 3b8d 9d3d a3d2 cb3d
000002e0: e46c 34bd c901 22bc 3389 113e 8e97 1cbe
000002f0: 1709 02be 8a59 0b3c ad1e 90bd 2b4a b83b
00000300: 9086 1e3e 8377 e0bc e8bb 16be 0ac6 c5bd
00000310: 9b83 1c3e 0aa4 e8bc 8825 abbd 88ad 9f3d
00000320: 7680 263c 9e06 23be 1798 143e 399c be3d
00000330: 9e9e 1a3e 72f3 913d 0d71 82bd f339 84bd
00000340: fe5c a23d df7e 33bd 467e ab3c 94cf 33be
00000350: 2a79 c1bd 4fde 6c3d e3ea 833b f73c 94bd
00000360: 4928 24be fb0a e43d e26c cbbc 2e3d 3bbe
00000370: 43ed 2f3e 33d3 a53d 7e73 d2bd a22d 0abe
00000380: 034e 513e 547e d0bc e305 82bd a835 8f3d
00000390: e42e 70bd 9a63 b03c 8df9 c9bd 30f9 eebd
000003a0: b585 19be 1592 7cbb 5635 eabd 2e8d 233e
000003b0: a385 6dbc cf7b a5bd 0f3d 673d f9c9 34be
000003c0: 02c5 d6bd 2732 1b3d bea7 3bbe 1dfd 893d
000003d0: aa2a 69bc 967f 34be 1efa 18be 3e32 813d
000003e0: fa0e 583d 69b3 b4bb 05a2 eebd c7f0 07be
000003f0: 91c0 ec3c 6987 6dbc 5b29 ba3c 1711 2a3c
0.10037562 -0.03784443 -0.069717415 -0.034213476 0.043347556 -0.015052895 0.09480846 -0.14706652
-0.09953314 0.12609997 0.025047654 0.01874091 0.046547297 -0.05837009 -0.07533195 0.040075324
-0.061056286 -0.08036607 0.011360427 0.028724102 -0.022922453 -0.12908302 -0.017582012 -0.1027685
0.079775594 -0.114050716 0.14794774 0.051494163 -0.17639765 0.12191197 -0.18847011 -0.025809765
-0.115376525 -0.1293461 0.0108389035 -0.058644347 0.13663425 -0.14448734 0.15092197 0.090927914
0.17987826 -0.046113893 -0.12337422 -0.11086172 0.12577525 -0.09615113 -0.03099777 -0.017956607
0.018192612 -0.12476321 0.16577047 -0.13790365 0.17504688 -0.048063673 -0.10401222 -0.0420951
0.04822358 -0.05290875 -0.20409615 0.13431247 0.14852282 0.0811775 0.15900655 0.044011604
-0.030452132 -0.12878199 -0.18414888 -0.1054409 -0.03389769 0.09345175 -0.07346921 -0.02045167
0.013913976 -0.12565151 -0.0137115335 0.16672844 0.14394093 0.12858821 -0.01522925 0.0025134296
0.09804071 -0.056155328 -0.05347977 0.14618392 0.022429321 -0.114133805 0.13577849 0.0011327154
0.1053658 -0.17304032 0.004217689 0.12297085 -0.03773312 -0.10194379 0.15869835 0.084100224
0.06269168 0.024209276 0.0006398087 0.08412639 -0.052601967 -0.09022049 0.070701785 0.06072542
0.051056277 -0.009591969 -0.0074223774 -0.016504243 0.041522842 -0.1240875 -0.1557288 0.07180302
-0.08874178 -0.015999915 0.03191361 0.028158888 0.11218871 0.019059211 0.061189838 -0.0020040886
0.03167598 0.080483295 0.12566297 -0.1769016 -0.061313756 -0.15045883 -0.077873625 0.11662812
-0.17678846 -0.16781525 0.09119979 -0.11357057 0.12136581 0.043644525 0.044556275 0.13799568
-0.16580352 0.118071936 0.048988756 -0.12451909 0.04925293 -0.04786596 -0.07179712 -0.022252772
-0.08635937 0.14556009 0.1475253 -0.023152223 -0.15654154 -0.017695816 0.03292103 0.13020785
0.0048876307 0.05881539 0.06409354 -0.10235098 -0.0948364 -0.16251704 0.0032322055 0.05474262
-0.01471755 0.16268097 -0.038115416 -0.12475491 0.018529223 -0.05761097 -0.029113581 0.16888975
-0.019022726 0.15085751 0.017965911 -0.07346808 0.123744585 -0.10609989 0.000616595 0.03419588
0.07361495 -0.1697801 -0.0050800787 -0.05357577 0.1077338 0.05240379 0.07692953 0.09952285
-0.04404916 -0.009888121 0.14212494 -0.15292189 -0.1269878 0.0085052345 -0.07037101 0.005624076
0.15481019 -0.027400738 -0.14720118 -0.096569136 0.15284579 -0.028398532 -0.08356768 0.0779677
0.010162463 -0.15920493 0.14511143 0.09307141 0.1509957 0.07126512 -0.06369219 -0.064563654
0.07927893 -0.043822166 0.020934235 -0.17559654 -0.09446938 0.057829197 0.0040258034 -0.072381906
-0.16030993 0.11134907 -0.024832193 -0.18285057 0.17180352 0.08096924 -0.10275935 -0.1349397
0.20439915 -0.025450863 -0.06348779 0.06992656 -0.05863847 0.021531869 -0.09862051 -0.116686225
-0.14992411 -0.003853922 -0.11435954 0.15971825 -0.0144971935 -0.08080255 0.056454714 -0.17655171
-0.10486795 0.037889626 -0.18325707 0.06737731 -0.014231363 -0.17626795 -0.14939162 0.06308411
0.052748658 -0.0055145514 -0.116519965 -0.13275443 0.028900417 -0.014497616 0.022724798 0.010380051

emb_net.v_lins1.2.bias f4 [32]
00000000: 2b94 8dbd 53a0 80bd 77fa 2ebd ca16 20be
00000010: 686c ffbd a266 8cbc f658 dabc a43a 22be
00000020: 96fb 173d b9d9 c53d 9409 1a3e ab69 183e
00000030: 5935 f4bd fd0a 66bd 8bbe abbd a221 0e3d
00000040: 649a 413d 3fdf 203d 8cbc d03d 3694 c03d
00000050: 2c47 c2bd a5f4 f63d c4f3 f43d f4a2 c03c
00000060: 163e 20be 36a4 dfbd be38 433d c5dc 793d
00000070: 6f1d 293e 2ea1 ba3d 73fb 823d e285 bbbb
-0.069130264 -0.062805794 -0.04271933 -0.15633693 -0.12471849 -0.017138783 -0.026653748 -0.15842682
0.037105165 0.09660668 0.15042716 0.14884059 -0.11924238 -0.056162823 -0.083859526 0.034700043
0.04726638 0.039275404 0.101922125 0.09403269 -0.09486231 0.12058381 0.11960557 0.023515202
-0.15648684 -0.109199926 0.047661535 0.061001558 0.16515134 0.09112774 0.063956164 -0.005722747

emb_net.v_lins1.3.weight f4 [32, 32]
00000000: adb6 f73d 24ae 87bd b645 683d fb70 a3bd
00000010: 80b1 acbc a6a2 e03d 70ec 913d 9787 58bd
00000020: a3bd 53bb f720 debd d3e9 933d 8fab dc3d
00000030: 3a50 473d 5e78 38be c4b8 09be 3eb6 ea3d
00000040: b855 16bd c258 d63d 9a2e f63d e12c 7dbd
00000050: f9a4 e4bd 8d5b 2bbe cedc 7c3d 7b6d a63d
00000060: 26b4 f2bc 07fd 3dbe 999f e7bd a7c0 ebbc
00000070: 93bc 843d 5741 86bd 8f6a cdbd 18b2 0ebe
00000080: 73d9 233e 2fd1 7f3d 8cb6 1abe 973f c0bd
00000090: da38 18be 66da 9f3c 514f a5bd a4e7 e73a
000000a0: 862a e1bc 9e0f 2abe 7a74 27be 4c71 0fbe
000000b0: f692 9abd a92e fb3c dd91 9cbd 0aee b43c
000000c0: 92fc 31bc cdf6 333e 53f0 95bd 5047 2c3e
000000d0: 627a 00be 1222 0dbe 81a2 433d 9560 bebd
000000e0: 7f42 b93d 3730 d1bd 0c29 053e 789b 313e
000000f0: c7ab ea3b 1064 0d3d cb85 403e 5aa8 d83d
00000100: d908 2bbe 92d2 2cbc e8c3 39be 8449 0d3e
00000110: 2788 48bd 3567 5ebc f74d f6bd c0dd e2bd
00000120: 20fd 893c b7ad 0a3e 6a57 cdbd f6db ddbb
00000130: 21bd 113e 6950 163e ac29 4cbd 0d0a 1a3e
00000140: 7df4 323d 4e2e 203e a8b6 7e3b 70a3 28be
00000150: 5737 33bd 43d6 083d 4da9 9d3d c476 44be
00000160: d5d0 fa3d b265 33be 9b57 b53d 8da0 233e
00000170: fdba e63c 3fd5 c7bc a5ee e43d 6d17 5ebd
00000180: 9d90 0fbe 65a2 fabd 0ff2 783d 6e98 0b3e
00000190: 49b4 9539 d24f 38be 60bd 37be a548 7dbd
000001a0: 7d87 c83d 46ce 06be e057 053d 731b ecbd
000001b0: 48f4 073e d9ad 3abd b625 56bd 0b40 21be
000001c0: ac84 35be ad28 aa3c cff9 0f3d 32be a83d
000001d0: ebbc 12be 69de e13c 465c 2cbd d60d ac3d
000001e0: f58e c1bd 7e85 203d c305 813d c6fc ad3d
000001f0: 31a3 85bd 812a 833d 66dc 93bc bd37 533d
00000200: 4923 e9bd 2f33 0fbe 336a 1dbe 72f8 debd
00000210: 7e5b a6bd da1f a53c 1fd2 19bd 8ff5 debd
00000220: 16ad 403b d5bd 83bd 01ed d43d b79b 20be
00000230: 0052 89bd 1e76 e9bd e14a 8a3c 909b c53a
00000240: ed62 9abc 200d 303e 5ae0 8bbd b524 d9bc
00000250: 623c 3e3d de7d 0c3e 742b 053e 4654 373c
00000260: 6d02 8fbd 3c0b 643d bbf8 e73d 2094 19bc
00000270: 11bd b83d d3ac 0c3e b8a9 b7bd 4cda 2ebd
00000280: f9e0 15be b05b 2b3d 540f 003e 6eab 00bd
00000290: 707e a83c f7da 393d bc2d 8ebc f0b5 073e
000002a0: 2939 e53c b143 36be 0e9a 1abe 9002 37be
000002b0: 3f81 85bb 1847 ab3d 42b0 02bd 4f37 233e
000002c0: 7ce7 97bc a43b 263d 6c29 193e 12e2 a23d
000002d0: 4872 4dbc 9edd 2e3e f2f7 ebbd 60f3 743d
000002e0: d5cd cc3d c9fb efbd 4fb3 32be 02c7 363d
000002f0: 8c9e 9dbd 94e6 d5bd b24b 343d 29da 0bbe
00000300: a166 1b3e 4ef5 fdbc a758 33bd 77b3 063e
00000310: db99 1a3d 43e5 213d 4106 b0bd 492f 323e
00000320: e212 8abd 2b12 1d3e 1b11 e5bb f891 9c3d
00000330: 44dc ff3d 84e4 13be c72e dbbd bcd3 37be
00000340: 2c2e 003e f59d 0f3e 1ecb a2bd c0b9 aabd
00000350: 56d4 8b3c 2590 b03d 25a2 553d 52f6 c2bc
00000360: a790 dfbd 73c3 243e 84bc f0bd d1df 35be
00000370: 17e0 aabd e14b 003d 01bb 4d3d 8bf3 663d
00000380: 87d9 d5bd b7e8 9fbd f9b0 72bd 7b44 aabd
00000390: 6169 14be ec65 453d d85f 45bd 75d4 1bbe
000003a0: 2f4a e9bd fd0a cbbd c622 95bd c4a7 c1bd
000003b0: d144 09bd fbdb 443d 2132 07be d30f a9bc
000003c0: 52e4 19bd 44cd d7bd 5c4d 83bd e831 84bd
000003d0: f210 6abb b5a6 0bbe 037a 373d a045 313e
000003e0: 50aa 213e 2c46 84bd 9e89 823d bd31 22be
000003f0: fb80 1b3e 1149 33be b70c 3abe 03d0 20be
0.120953895 -0.066250116 0.056707107 -0.07980534 -0.021080732 0.10968523 0.07125175 -0.052863684
-0.0032309077 -0.10846131 0.07222333 0.1077491 0.048660494 -0.18014666 -0.13449389 0.11460541
-0.03670284 0.10466148 0.12020607 -0.061810378 -0.111642785 -0.16734143 0.061734013 0.081263505
-0.029626917 -0.18553554 -0.11309738 -0.028778387 0.0648128 -0.06555431 -0.1003009 -0.13935125
0.16000919 0.062455352 -0.15108699 -0.09387129 -0.14865437 0.01951332 -0.08071769 0.0017692936
-0.027486097 -0.1660752 -0.16353026 -0.14008063 -0.07547562 0.030661898 -0.07645009 0.022086162
-0.01086344 0.17574616 -0.07321229 0.16824079 -0.12546685 -0.13782528 0.047762398 -0.09295765
0.09045886 -0.102142744 0.1300394 0.17344463 0.0071615907 0.034519255 0.18801038 0.105789855
-0.16702594 -0.010548251 -0.18141139 0.13797575 -0.04895797 -0.013574411 -0.12026589 -0.11077452
0.016844332 0.1354283 -0.100264385 -0.006770606 0.14232303 0.14679112 -0.04984443 0.15042897
0.043690193 0.15642664 0.0038866196 -0.16468596 -0.043753948 0.03340746 0.07698307 -0.1918593
0.12246863 -0.17519262 0.088546 0.15979214 0.028165335 -0.024393676 0.1117833 -0.05422156
-0.1402001 -0.122380055 0.06077772 0.13632366 0.00028553818 -0.17999199 -0.17943335 -0.061836857
0.09791467 -0.13164625 0.032554507 -0.11528673 0.1327678 -0.04557595 -0.052282058 -0.15747087
-0.17726392 0.020771349 0.035150345 0.08239402 -0.14329879 0.027571874 -0.042080186 0.084010765
-0.09451095 0.039189808 0.06299927 0.08495478 -0.06525267 0.06404591 -0.01804943 0.051566828
-0.11383683 -0.13984369 -0.15372543 -0.10887231 -0.081229195 0.02015679 -0.037553903 -0.1088668
0.0029400042 -0.06432692 0.103967674 -0.156844 -0.067050934 -0.11399482 0.016881408 0.0015076268
-0.018846 0.17192507 -0.06829901 -0.026506761 0.046444304 0.1371989 0.13004857 0.011189526
-0.069828846 0.055674776 0.113267384 -0.009373695 0.090204366 0.13737802 -0.08967918 -0.042688653
-0.14636602 0.041835487 0.12505847 -0.031413488 0.020568103 0.045374837 -0.017355792 0.13252997
0.027981358 -0.1779926 -0.1509783 -0.17872071 -0.004074245 0.083631694 -0.031906374 0.15939067
-0.018542998 0.04058422 0.14957207 0.07953276 -0.012539454 0.17076728 -0.11521901 0.059802413
0.10000197 -0.11717946 -0.17451213 0.044623382 -0.07696256 -0.1044437 0.0440175 -0.1365744
0.15175869 -0.03100076 -0.043785717 0.13154398 0.037744384 0.03952528 -0.08594943 0.1740085
-0.06741883 0.15338962 -0.0069905645 0.07645029 0.12493184 -0.1444264 -0.107022814 -0.17951864
0.12517613 0.140251 -0.07948898 -0.0833621 0.017069023 0.086212434 0.052156586 -0.023799095
-0.10916262 0.16090183 -0.117547065 -0.1776116 -0.08343523 0.031322364 0.05022717 0.056384604
-0.10441881 -0.07808059 -0.059250806 -0.08313843 -0.14493324 0.048192903 -0.048187107 -0.15217765
-0.113911025 -0.09914205 -0.07282023 -0.09455827 -0.033512894 0.048061352 -0.13202716 -0.020637428
-0.03757126 -0.10537198 -0.064112395 -0.06454831 -0.0035715667 -0.13637812 0.044794094 0.17311716
0.15787625 -0.06458697 0.06373905 -0.15839286 0.15185921 -0.17508341 -0.18168913 -0.1570435

emb_net.v_lins1.3.bias f4 [32]
00000000: 2857 2a3e abae 8dbc 721a 8d3d 53b5 b73d
00000010: b1a9 0abe b28a 15be af42 893d ece5 a83d
00000020: 6565 a9bd b803 df3c 1059 31be 3bac 163b
00000030: 27c3 313d 84a2 0b3b 70c3 e8bc 8d1e 993d
00000040: 9135 48bd 8175 063e 4c96 1cbe 4785 cebd
00000050: abf2 16be bedd 23be 58c9 053e 8ee1 32bd
00000060: 96c1 0dbe 6ef0 133d 8beb 08be f591 123c
00000070: 61a5 ab3d 8e81 19bd 6ee2 b83d fa0b 133d
0.1663481 -0.017295202 0.0688981 0.08970132 -0.13541295 -0.1460369 0.06702172 0.08246979
-0.082712926 0.027223453 -0.17319131 0.002299084 0.043399002 0.0021306584 -0.028413504 0.0747653
-0.04887921 0.13130762 -0.15291709 -0.100840144 -0.14741008 -0.16002557 0.13065088 -0.043672137
-0.13843378 0.036117963 -0.13371103 0.008945932 0.08381153 -0.03747707 0.09027563 0.035900094

emb_net.v_lins1.4.weight f4 [32, 32]
00000000: a27c 2dbe c537 1f3d 524b f23d bda8 c9bc
00000010: 9a28 c33c f079 6d3c 8ee2 c639 b953 073d
00000020: b3f0 26be b31a ec3d 219f 703d 3f0b 243c
00000030: c90d 1b3d cf4e 0fbe 0956 6ebd ff75 7ebc
00000040: 78e3 163d 978d e1bd 5fd1 ec3c 9064 5bbd
00000050: 9558 0b3e c873 1ebe 036d 103d 74b7 fa3d
00000060: 01c1 05be b521 bbba 9855 af3d d7c5 8b3d
00000070: f861 ef3c ca0c a33d 106f f5bd b6d6 123e
00000080: e2e7 8c3a c534 e73d 712e 123d 5892 77bc
00000090: d67e 8d3d dccd 353e a248 263e 8af9 20be
000000a0: 3f35 523c d834 09be c616 bc3d 4cf6 e53d
000000b0: df51 fdbd 7ab4 57bc 4332 f33d 5489 023e
000000c0: 858c fabd 371a 043e f6cd 07bd cde6 1bbe
000000d0: 6b8a 113d d2af a23d 7ca3 d03d c79f ffbd
000000e0: 2852 01be 1d53 fcbd 8f87 c43d 499f 1ebe
000000f0: 1056 9ebb 1f41 66bd bc98 a33d af61 0f3d
00000100: 78fc c4bd cd63 2e3d 37ed 183e a756 063d
00000110: 33f6 c8bd e9a5 0bbc 612f 36be 60bb 05be
00000120: 2e5f eabc 562f f2bd c9d8 103e e685 5a3c
00000130: 7c5c 073e ed2d 31bd e7c7 2abd 67e9 0b3d
00000140: c99d 84bd ae4e 78bd b486 2bbe f59e f53d
00000150: e810 293e c966 3abe cc36 89bd 9e6a 10be
00000160: 1ebb b3bd f314 f23d a5f5 b73d 58d9 6fbc
00000170: 504b 843d 041f 7e3d a954 ec3d 3599 12be
00000180: c936 2e3d 1885 21be 104c 01be c7ed 8abd
00000190: e7e7 8cbc 6244 13be b4e1 12bc 7a98 8e3c
000001a0: e30d 85bd 93e2 563d 419f 323e dfdf 38bd
000001b0: 56bc d9bd 273b 21be 89bd 09be 4e1b b5bd
000001c0: d311 0fbe a6ea 88bd c30f d53d 78c0 5a3d
000001d0: 21ce 2b3e 2319 3c3e 7ced 4abd 36c1 abbd
000001e0: 7284 923c 5e26 13be 2356 ee3d 4e21 0abd
000001f0: a21c 23be fce5 dfbd 3a85 ccbd 1db7 543d
00000200: 7d46 ee3d 2333 123e b04d 5dbd 95e3 c8bd
00000210: 315e b1bd 93cb e4bd fb21 5dbd 7de8 24be
00000220: ff9a bc3d 18ed 34be 8f83 b9bd 0c92 cc3d
00000230: 799b 05be 48ef 343d ee49 093e 9779 3c3e
00000240: 01fb 993d d179 1abd 85fb e23d 01fe d43b
00000250: c1f4 35bd 8045 80b8 1d1e 433d 88a3 e43d
00000260: 8a65 923d 5b1b bc3d 7235 f13c cee5 b33b
00000270: 4cc5 993d 61eb 7e3d f111 23be 285d 393d
00000280: 9725 adbd 3066 95bd 5d8a 803d 360f 1c3d
00000290: 489d b33c e44e d2bd 480f 863d 9b9b 173e
000002a0: 3cfb 163d 8290 7e3d c6aa 12be 294f b73d
000002b0: b39c 753d 237f b43d 357f 793d 994b 20bd
000002c0: 1908 9ebc fb1c 2f3e 76f4 0f3e e7b7 09be
000002d0: c5b3 1e3e 76d1 3c3e 7bea ee3c e029 0ebe
000002e0: d47d ed3c 6751 2cbd 847f 0a3e 832e 22be
000002f0: cda5 293d dd64 113c d238 023d 424d 0f3e
00000300: 9b1c be3c b467 1cbe 9198 e2bd 2d33 b5bd
00000310: dfcc 7f3b 9e54 c63d e9c6 2bbd f421 83bd
00000320: 064a 883d fcdb 25be d0d5 0a3e 4c7f f6bc
00000330: 8795 fe3d 4710 eb3d ced6 a83c 5dfd 983d
00000340: dd41 d7bd 23b6 0d3e e39b c23d 0de5 f9bc
00000350: d3aa 503d 1621 06bc dd1d 003e 4001 903d
00000360: e8e4 083e 3ec0 23be e7d8 2f3e 2d1b 653d
00000370: c2f1 a93d f4a3 073d 93d4 e23d 275e 113e
00000380: 2479 a1bc d53f 18be 7a54 1c3e ec3c 15bd
00000390: 1453 afbd b95f bb3d 15c8 cd3d 898c 8f3c
000003a0: 29ce 70bc 83af 06bd 3fa3 1b3e 4078 d53d
000003b0: c181 c23d d024 cc3d 8787 c6bd 5b0e a03c
000003c0: b78d 1bbe 793e c03d b356 3fbe 685c 3dbe
000003d0: 3402 3abe ccd9 c23d 53f0 223c 6e5d 47bb
000003e0: 22b4 823c 92a3 88bd a5fe 92bd 1c5f 04be
000003f0: ca2b 3fbd 7b9d 02be bf87 0dbb a1c9 053e
-0.16942075 0.038871545 0.118307725 -0.024616593 0.023823071 0.014494404 0.000379343 0.03303883
-0.16302757 0.1152853 0.058745507 0.010012447 0.037854943 -0.13994907 -0.05818752 -0.015531062
0.036838025 -0.11013334 0.02890843 -0.0535627 0.1360801 -0.15473855 0.03526021 0.12242022
-0.13061906 -0.0014277013 0.085612476 0.06824844 0.02922152 0.07961424 -0.11984074 0.14339718
0.0010750259 0.11289362 0.03568882 -0.015110575 0.06908958 0.1775431 0.16238645 -0.15720192
0.012830078 -0.13399065 0.09184031 0.11228618 -0.12369131 -0.013165588 0.11874821 0.12747699
-0.12233833 0.12900625 -0.033155404 -0.15224762 0.035532396 0.07943691 0.10187432 -0.12481647
-0.12628996 -0.1232054 0.09596168 -0.1549045 -0.004832037 -0.056214448 0.07988116 0.035005268
-0.09618467 0.042575646 0.1493424 0.032797482 -0.09812584 -0.008523443 -0.17791511 -0.13059759
-0.028609838 -0.11825435 0.14145197 0.013337588 0.13218874 -0.04325669 -0.041694548 0.034158137
-0.06475408 -0.06062191 -0.16750604 0.11993209 0.16510355 -0.18203272 -0.06699905 -0.14103171
-0.08775924 0.11820402 0.089824 -0.014639221 0.06459677 0.062041298 0.11539585 -0.14316256
0.042532716 -0.15773427 -0.12626672 -0.06783634 -0.017200423 -0.14381555 -0.008964945 0.01740669
-0.06496789 0.05246217 0.17443563 -0.045135375 -0.10631625 -0.15745221 -0.13451208 -0.088430986
-0.13971643 -0.06685381 0.10403397 0.05340621 0.1677785 0.18368964 -0.04954289 -0.083864614
0.01788542 -0.14370105 0.11637523 -0.033723168 -0.15928891 -0.10932538 -0.099863485 0.051932443
0.11634538 0.1427732 -0.054029167 -0.09809033 -0.08660544 -0.11171641 -0.053987484 -0.16104312
0.09209251 -0.17668569 -0.09058296 0.09988794 -0.1304759 0.04417351 0.13407108 0.18405758
0.07518578 -0.03771383 0.1108313 0.006500006 -0.04442287 -6.116461e-05 0.04763614 0.111640036
0.07148273 0.09184905 0.02944443 0.0054900413 0.075083345 0.062236194 -0.15924813 0.045254856
-0.08454435 -0.07294881 0.06276391 0.038100444 0.021925583 -0.102689534 0.065458834 0.14805453
0.03686069 0.062149532 -0.14322957 0.089506455 0.059963893 0.08813312 0.06091233 -0.039134596
-0.01929097 0.17100899 0.14058098 -0.1344906 0.15498264 0.18439278 0.029164543 -0.13883162
0.028990664 -0.04206982 0.13525206 -0.15838055 0.041417886 0.008874145 0.03179247 0.13994315
0.023207 -0.15273935 -0.11064256 -0.08847652 0.0039032025 0.09684108 -0.041937742 -0.064029604
0.06654744 -0.16197199 0.13558125 -0.030089997 0.12430864 0.11477714 0.02061024 0.074702
-0.10510609 0.13839011 0.09502389 -0.030504728 0.05094416 -0.008186599 0.12511392 0.070314884
0.13368571 -0.15991303 0.17172585 0.05593412 0.08298065 0.033115342 0.110757016 0.14196073
-0.019711085 -0.148681 0.152666 -0.036435053 -0.08560768 0.09149117 0.10047928 0.017523067
-0.01469759 -0.032882225 0.15198992 0.104233265 0.09497405 0.09967959 -0.096938185 0.019538095
-0.15190779 0.09386916 -0.18685417 -0.18492281 -0.18164903 0.09514198 0.009944993 -0.0030420679
0.015955035 -0.066718236 -0.07177476 -0.12926906 -0.04667262 -0.12755387 -0.0021595804 0.13065197

emb_net.v_lins1.4.bias f4 [32]
00000000: cd12 2fbe ba50 cf3c 0c45 52bd 19a7 d3bd
00000010: ed49 073d 5352 303e 3b43 163e 57ef cd3d
00000020: f0a7 08be f90b cf3d 7923 bb3d 8f0e 713d
00000030: 9a05 34bd d0f6 4fbb fcf6 c3bd db7f 25bd
00000040: 6817 f2bc adc0 cdbc 8131 34be bd14 7f3d
00000050: 38d9 13be 1353 07be d0ea 913d 13a7 14be
00000060: 9baa 2d3e fa3d 2d3e 78ea 65bd 6e21 fabc
00000070: d134 0abe d57b 283c d962 023d 7082 c6bd
-0.17097016 0.025307048 -0.05133538 -0.10334606 0.033029485 0.17218904 0.14674084 0.10055416
-0.13345313 0.101097055 0.09137625 0.058851775 -0.043950655 -0.0031732805 -0.09568593 -0.040405136
-0.029552177 -0.025116289 -0.17597009 0.062275637 -0.14438331 -0.13215284 0.07124865 -0.14516859
0.16959612 0.16918173 -0.05613181 -0.030533519 -0.1349671 0.01028343 0.03183255 -0.09692848

emb_net.v_lins1.5.weight f4 [32, 32]
00000000: 0fc3 dc3c a34b 293c 0d6a 4cbd 69e8 8d3c
00000010: 1a8f 31be b7ef 01be eb5a 7d3c b7f9 163e
00000020: 92bf b2bd 2f89 cd3d b36f 513c 1766 b5bd
00000030: a982 713b 9a14 b43d 8c2d cd3b a7d0 193e
00000040: 94f8 50bd 7ffe 02be 910c 2d3e f2f7 61bd
00000050: 083d e83d afc6 f63d 84ff 403d 1e5a 18be
00000060: 48a7 37be f8d9 963d 6ea7 423d 242b cd3d
00000070: 6f61 20be 7cd9 92bc cf25 293e 6570 ba3d
00000080: 393b 0c3e 4713 113e 7d77 39bd 1fe1 f5bd
00000090: 0813 e5bd d7ec 803d d536 afbd 1d4b 2dbc
000000a0: 6a7b 013d 26bc d13d 33ec a73d 54f9 b23d
000000b0: f007 073c 3f75 db3d f5d8 a2bd d5cf 80bd
000000c0: 0971 28bc 6537 c2bd ad35 193e 9352 0fbd
000000d0: e0e9 663d d44d 9b3b a4a0 f1bb 43ff c2bd
000000e0: 927d 14bc 32ed 31be 8275 b3bd 71b9 123e
000000f0: 7a7b 2ebe 4823 a73c 0c23 063d af84 28be
00000100: 6caa 6a3c b1e4 d73d bddc 0c3e 37e4 2c3d
00000110: 6212 033e dcb0 62bc ac3c 4c3d 437f d13c
00000120: 1768 f7bd bf7a 75bd 3ed7 0abe 5458 e03d
00000130: b9e0 943d d022 78bd c468 5dbd ff9e 703d
00000140: 5402 28be 4b48 27bb 9814 bd3d fbbc 273c
00000150: 2bfa 013b 964e f83d e810 c93d 8c90 1cbe
00000160: 8c07 a83d 3c0a 23be 001b cf3d afe3 2d3e
00000170: 3b16 683c cfea 21bd d6c9 85bd 7aca 72bd
00000180: 7c5a f4bc 203b 9fbd 3b78 393e 0461 bfbd
00000190: d188 af3d 05f3 1cbe e1ca cb3d cd33 1c3e
000001a0: 7941 0bbe fde1 14bd 6ef2 543d dfea 32be
000001b0: 4b49 d4bd 56b5 853d fd83 2e3e 6394 27bd
000001c0: badc 55bc acf3 1ebe 5634 24be 82c8 2a3e
000001d0: df4c 183e 5ecc 5abd 91c3 7dbd f1da 223b
000001e0: f0de aa3d 112f 21be a91d b9bd 1b06 66bd
000001f0: 16c1 80bd 124c acb9 17b8 fa3d 29ac 2b3d
00000200: 95c5 29be 9083 223e e285 0b3e 0439 5e3d
00000210: bea9 8d3d 9156 5d3d 6e22 0b3e 8bd7 2ebe
00000220: b60a efbd 83cc 0fbd ca4a 3abd 040b 0cbe
00000230: f478 36be cea1 14be b395 0abd 5965 043e
00000240: 8ced d83d ffce 353d 868f e5bd 4a4b a2bd
00000250: 7ffe d43b a593 37be deeb 0dbb b882 813c
00000260: 606b 123e 8e33 3dbd 468d 273e 18d3 6f3a
00000270: 5626 08be 5a5d 2c3e e18e 1d3e 2eff 1bbe
00000280: 9444 e9bd 5da3 cc3d 7435 bbbd 69eb fa3d
00000290: 3269 96bd e8b5 45bd 0a7b 68bd f8ec 153e
000002a0: 41b5 60bd 719b 2cbd b0ab 023e a607 0cbe
000002b0: 6445 9fba 37b7 f5bd 3a34 27be 7eaf 3abc
000002c0: f0ae ab3c fada 223e 3eb3 22be e7e8 2bbd
000002d0: d964 823d 3d8c 9d3d 7a8e fa3d 78d9 ffbd
000002e0: 1749 16bd 31ee 133d c457 03be ae06 e43d
000002f0: b3a0 1abe fd48 043e 7987 a83d 686a cdbc
00000300: 757a 453d 2ed6 143e 7f40 033e 7a61 e03d
00000310: e43e dabd d845 7e3d 32db fb3d ef0c 043d
00000320: fa8f ea3d cba2 e4bd 737e f53d 0d69 0dbb
00000330: 4d51 28be b03c 4abd 4914 233e 1545 84bd
00000340: f4fa 0fbd 06b1 9ebd 4373 c9bd 4c40 d73c
00000350: d8bc cf3d 8663 153d 2cee 21bc ca35 50ba
00000360: 11f5 f7bd 3218 b2bd 3361 2e3c ec7d 16be
00000370: ea6d b03d 7d27 003d e040 85bb ac5d 89bc
00000380: 0cc2 0a3e 10ab 333e 1a10 d83d 24a1 c53d
00000390: 328c a4bd c403 953d 0b6a eabd 2e21 693d
000003a0: e086 f1bd 8b37 7fbc f4f1 033e 315c c23d
000003b0: 1ef9 223e 732c 953d 8bda 6d3d 710c 4f3d
000003c0: ed7f f93d 4d5b b73d 0816 8a3d 5e45 73bd
000003d0: f290 8bbd 3564 17bd 1ff1 d73d c266 a7bd
000003e0: e397 3a3d 9535 153e 2e18 243e 0641 e5bd
000003f0: 0a37 7f3d 7f4a 0a3e 6739 0cbe f15b 073e
0.02694848 0.010332975 -0.049905825 0.017322736 -0.17339745 -0.126891 0.015463571 0.14743696
-0.087279454 0.10035931 0.012782979 -0.08857363 0.003685156 0.08792992 0.006261533 0.15021001
-0.051018313 -0.12792395 0.16899325 -0.0551681 0.11339766 0.12049615 0.04711868 -0.14878127
-0.17934906 0.07365793 0.047522955 0.10017994 -0.15662168 -0.01792597 0.16518329 0.09103469
0.13694467 0.1416751 -0.04527997 -0.12005829 -0.111852705 0.062951736 -0.0855538 -0.01057699
0.031611837 0.102409646 0.08199348 0.08738962 0.008241639 0.10715722 -0.079515375 -0.06289641
-0.010280856 -0.09483222 0.14961882 -0.03499086 0.056375384 0.0047395024 -0.007373886 -0.095213436
-0.009063141 -0.17375639 -0.08762647 0.14328553 -0.1703929 0.020402566 0.032748267 -0.16456865
0.014322858 0.10541666 0.1375608 0.04220983 0.12799981 -0.013836112 0.04986255 0.025573378
-0.120804004 -0.059931513 -0.13558671 0.10954347 0.07269425 -0.060580075 -0.05405499 0.05874538
-0.16407138 -0.0025525268 0.092324436 0.010237928 0.001983295 0.12124364 0.09817678 -0.15289515
0.082045645 -0.15921873 0.10112572 0.16981386 0.014165456 -0.03953057 -0.06532638 -0.059275128
-0.029828303 -0.07774949 0.1811227 -0.09344676 0.085710175 -0.1532708 0.099508055 0.15254135
-0.13599195 -0.03634833 0.05198901 -0.17472409 -0.10365542 0.06528728 0.17042537 -0.040912997
-0.013053114 -0.15522641 -0.1603559 0.1667805 0.14873074 -0.053417556 -0.061954085 0.0024849738
0.08343303 -0.1574061 -0.0903886 -0.056158166 -0.06286828 -0.00032863073 0.122421436 0.04191223
-0.16579278 0.158705 0.13625291 0.054253593 0.069171414 0.054037634 0.13587353 -0.1707441
-0.11671965 -0.035107147 -0.04548148 -0.13676077 -0.17819577 -0.14514849 -0.03383417 0.12929286
0.105921835 0.04438686 -0.112090155 -0.079245165 0.006500065 -0.17927416 -0.002165548 0.015809402
0.14298773 -0.046191745 0.16362485 0.0009148582 -0.13295874 0.16832486 0.15386535 -0.15234062
-0.11390033 0.099920966 -0.09141055 0.12251932 -0.07344283 -0.048269182 -0.056757964 0.14641178
-0.054860357 -0.042140428 0.12760806 -0.13674793 -0.0012151417 -0.11997836 -0.16328517 -0.01139438
0.02095744 0.15903845 -0.15888688 -0.04197016 0.063668914 0.07692764 0.122342065 -0.12492651
-0.036690798 0.03611583 -0.12826449 0.111340865 -0.15100364 0.12918468 0.08228964 -0.025075153
0.048212487 0.14534828 0.12817572 0.10956092 -0.10656527 0.062078327 0.122976676 0.032238897
0.114532426 -0.11163863 0.11987009 -0.0021577508 -0.16437264 -0.049374282 0.15925707 -0.06458489
-0.035151437 -0.07748608 -0.098364376 0.026275776 0.10143441 0.036471866 -0.009883445 -0.00079425855
-0.121072896 -0.08696021 0.010643291 -0.14696473 0.086147144 0.03128766 -0.0040665716 -0.016768299
0.13550586 0.17545724 0.10549946 0.09649876 -0.08034553 0.07276109 -0.11446007 0.05691641
-0.117933035 -0.015577207 0.12885267 0.0949024 0.15915343 0.07283869 0.058069747 0.050548974
0.12182603 0.08952961 0.067424834 -0.059392326 -0.068147555 -0.0369608 0.10544037 -0.08173896
0.045555007 0.14571221 0.16024849 -0.11194043 0.06230835 0.1350498 -0.13693772 0.13218667

emb_net.v_lins1.5.bias f4 [32]
00000000: e910 843c 875f 2cbe 657c 383d 0e1a 9bbd
00000010: 029e 2bbd db99 bfbd 13b0 273e cefe f63d
00000020: 2025 9cbd 0507 32bd cd51 5d3d fd48 883d
00000030: db70 aabd 744d 933d 74a0 e73c eb9f cf3d
00000040: 8a5e c3bd 94f2 e8bd 1d58 a83d 094f e4bb
00000050: 9ad4 9dbd ae30 0e3e cc12 a1bc 2657 f1bd
00000060: ab60 d0bc c899 a7bd 112c 7abd 2e04 15be
00000070: 98f0 0f3e 288e 203e 9d67 19be c2c4 e13d
0.016121345 -0.16833316 0.045040507 -0.07573329 -0.041898735 -0.093555175 0.1637576 0.12060319
-0.076242685 -0.043463726 0.05403309 0.066545464 -0.08322307 0.071925074 0.028274752 0.10137924
-0.09539516 -0.11374393 0.08219931 -0.0069674295 -0.07706566 0.13885757 -0.019662283 -0.117842
-0.02543672 -0.08183628 -0.06107718 -0.14552376 0.14056623 0.15679228 -0.14980932 0.11023857

emb_net.v_lins1.6.weight f4 [32, 32]
00000000: 00ef e43c 3d7a 9abd e3e8 25bd 4528 2f3d
00000010: 8c00 523d b058 253e 1f0e 373e 0cc4 143c
00000020: 509e 303e 7129 c7bd 8cda 873c b349 2abe
00000030: 6fa7 be3d 9540 3f3d 983a c6bd 25a0 f9bd
00000040: ddc3 59bd 38b3 8bbd dfbc 6ebd cea4 0ebe
00000050: 21f0 d1bd 799f 1e3e a75e 95bd 857c 993d
00000060: 4244 7c3c 88a5 9cbc 0740 8a3d a32e 0d3e
00000070: 7076 853d 258c df3c 5d73 163e ea6a d93c
00000080: 1e79 573d f6c9 363e 3038 15be ba9c ef3d
00000090: 16d8 dabd 32f0 bcbc 105b ffbd 91f2 c13d
000000a0: 53d9 0ebe 4a7f c1bd b4da 783b 1894 62bd
000000b0: 9e71 f2ba 4841 1b3e 4e38 39be e135 09be
000000c0: 5631 ecbd fe3e 233e effc ac3c 468d 17be
000000d0: 670b 1dbe 867a f43d bbeb 103e a587 f8bd
000000e0: f2f1 1e3d 8afc 6fbd 05a7 b13d c0e6 cdbd
000000f0: 4aa3 d13d 1b42 213e 5755 cc3d 4990 37bd
00000100: 9b31 a33c ecd9 943d 1991 f2bd d0af b6bd
00000110: f78f 39be 8d07 e03d 8e0b b8bd 1133 103e
00000120: 625c 26bd e5dd 96bd f5d5 9d3d 08b3 09bd
00000130: 1893 f1bd 66a9 3d3c d09d a1bd b609 0abe
00000140: 823f e4bd ad8f 9b3d bd08 103b acba 8fbd
00000150: 7327 873d 7519 89bd 59c1 0fbe af9b 883d
00000160: b2c5 9bbd 7abf 4dbd 4b13 e23d 6c11 063e
00000170: ca94 38be acf3 0c3e 033c 2c3e c9ef 04be
00000180: 3397 2dbe 532f 01be 841d 1dbd 7732 61bc
00000190: f6d6 6b3d bcab 423d 3de4 193d 0a0c 15be
000001a0: 64db 313e bab1 233e 2df9 bd3d 30a3 0a3d
000001b0: 5193 debd 4dbe 943c e6ea fdbd 51ef 373e
000001c0: ed67 2abe 0643 093e 0cad 313e d4c7 9fbd
000001d0: 10c2 16be f8fb 8e3d 4fd1 e2bd 934d 1abe
000001e0: d4bb d2bd 5551 f03d d8c2 e0bd 3c80 81bd
000001f0: 8d9e 8bbd 992c 053e 7121 9b3d a419 ea3d
00000200: 9f57 febc c4c1 e3bd b732 413d 1eb4 6f3d
00000210: 7e2d 033e beb0 3cbe aee9 10be 5d5c e43d
00000220: 57d2 1f3d 3359 c93d 78a3 83bd 504f 343e
00000230: 8c86 8f3d 7961 a9bd c482 c2bd 6514 cc3c
00000240: e9cb 72ba 558e aebd 3ce0 ddbd 50e2 3b3d
00000250: 0990 8e3d fc38 1a3e 1a6f c1bd 7c93 f0bd
00000260: cb40 fdbd 8d55 e8bd 8c50 253e 6e63 d0bd
00000270: ccb5 c3bd dd9f dc3d 1e15 0b3e 6b1e 3abe
00000280: b76a c2bb e785 883d 452d eb3b 2f01 c8bd
00000290: d26c 23be a72a 01be d12c 3b3d fb56 c7bd
000002a0: 9711 23be 42b2 223e 9f61 853d 98b8 48bd
000002b0: 3d22 e13c fb38 8bbd ea25 00be dcdc 26be
000002c0: 3ed0 fc3d b490 25be 9a4d 19be 0029 0d3e
000002d0: 37a5 c8bd 34af 50bd 5486 af3a e7ad 2ebe
000002e0: 2de1 1cbe 60fa 19be 325f 22bd 5d4f 4fbd
000002f0: 2300 ed3d 3894 d33d 7f7e 3f3e bea5 24be
00000300: e21b cebd 93d2 ec3d ae8c 873d 722f f5bd
00000310: b4df 063e 608c 96bd 77fa 233e e60e 15be
00000320: 54b4 c93d fb39 d2bb 16cc 1cbe 43c3 d03d
00000330: 0876 98bd c10a 273b ba4a 43bd c797 28bd
00000340: f5be 59bd fed4 733d 8ad5 01bc 5974 f03d
00000350: 72c3 8e3d cfee 473c 4ad3 863d 24bc 86bd
00000360: 07fb fdbd 3df3 e6bd 6e92 eebd 9468 17be
00000370: 8409 fc3c 9a7e c6bb 4a6b 2abe a12e bb3d
00000380: 4642 d53d e1f9 253e f146 1d3c 1262 29bc
00000390: 580c d33d 0631 29be 13ea bd3b 87ae ca3d
000003a0: 2d5c 013e 76a6 3f3c f4e5 d9bc 29c8 2f3d
000003b0: ee64 f03c 6b7f 96bb ae88 013e 059c 103e
000003c0: 6b18 e1bd 3f5c 1e3e 923b 40bd 543a b13c
000003d0: f379 293e 5ef2 adbd 0fec a13d 6611 11bc
000003e0: 4497 e5bd 4f16 b1bc 86ae 183e 7b89 d33d
000003f0: ebaa cbbd b155 183e 551e 5a3d 6de8 163e
0.027945995 -0.07542846 -0.0405053 0.042763013 0.051270053 0.16147113 0.1787648 0.009079944
0.17247891 -0.09724701 0.016583703 -0.16629677 0.09309279 0.04669245 -0.096791446 -0.12188748
-0.053165305 -0.06821293 -0.05828559 -0.13930055 -0.10250879 0.15490521 -0.07293444 0.07494453
0.015397133 -0.0191219 0.067504935 0.13787322 0.06516731 0.027288506 0.14692445 0.026540238
0.05260574 0.1785048 -0.14572215 0.11699815 -0.10685746 -0.023063753 -0.12468541 0.09470094
-0.1395009 -0.094481066 0.0037972154 -0.055317014 -0.0018496995 0.15161622 -0.18087885 -0.1339946
-0.115328476 0.15941998 0.021116702 -0.14799985 -0.15336381 0.11937432 0.14152424 -0.12135247
0.038804956 -0.05859045 0.086744346 -0.10053778 0.10236223 0.15747873 0.09977215 -0.044815335
0.019921115 0.07268128 -0.118440814 -0.08920252 -0.18121324 0.1093894 -0.08986579 0.1408198
-0.040615447 -0.07366542 0.07706825 -0.033618003 -0.11795634 0.011576032 -0.078914285 -0.13480267
-0.11144926 0.07595763 0.0021977865 -0.07018027 0.06599321 -0.06694309 -0.140386 0.06670319
-0.07606067 -0.050231434 0.11038836 0.13092583 -0.18025509 0.13764828 0.16819768 -0.12982096
-0.16952209 -0.12615709 -0.038358226 -0.013744942 0.05757805 0.04752706 0.03757118 -0.14555374
0.17368847 0.15985766 0.09276042 0.033847034 -0.10867942 0.018157149 -0.12398319 0.17962386
-0.16641207 0.13404474 0.17351168 -0.07801786 -0.14722466 0.06981653 -0.11075079 -0.15068655
-0.102897316 0.11734263 -0.109746635 -0.06323287 -0.068173505 0.13005294 0.07574738 0.11430672
-0.03104764 -0.11120942 0.047167506 0.058521383 0.12810323 -0.18426797 -0.14151642 0.111504294
0.039018955 0.098314665 -0.064276636 0.1760838 0.07008085 -0.082705446 -0.09497598 0.024912069
-0.00092619524 -0.085232414 -0.10833785 0.045870125 0.06961066 0.150608 -0.09445019 -0.117468804
-0.12365874 -0.113444425 0.16144007 -0.10175215 -0.095561594 0.10772679 0.13582274 -0.18175666
-0.0059331316 0.06666165 0.0071770274 -0.09765851 -0.1595948 -0.12613927 0.045697037 -0.09733387
-0.15924679 0.15888312 0.0651276 -0.049004167 0.027482146 -0.067979775 -0.12514463 -0.16295189
0.123444065 -0.16168481 -0.14971009 0.13785172 -0.09797137 -0.050948337 0.0013391473 -0.17058526
-0.15320273 -0.15036917 -0.039641567 -0.050612796 0.11572292 0.10331005 0.18700598 -0.1607885
-0.10063912 0.11563601 0.066186294 -0.1197194 0.13171273 -0.07350993 0.16013514 -0.14556465
0.09848848 -0.006415603 -0.15312228 0.10193493 -0.07444388 0.0025488588 -0.047678687 -0.04116037
-0.053160626 0.059529297 -0.007924447 0.117409416 0.06970872 0.0122029325 0.06583269 -0.06578854
-0.12401395 -0.11276863 -0.11649023 -0.14785987 0.030766256 -0.0060575726 -0.1664249 0.09139753
0.10413031 0.16208602 0.009599433 -0.010338323 0.10305089 -0.16522607 0.005795726 0.0989657
0.12632819 0.011697402 -0.026598908 0.042915497 0.029345002 -0.004592826 0.12649795 0.14122017
-0.109909855 0.15464877 -0.04693181 0.021634258 0.16550426 -0.084934935 0.07906353 -0.008854246
-0.11210492 -0.021617083 0.14910325 0.10328957 -0.099447094 0.14876439 0.053251583 0.14737101
