pretrained/cvrp_nls/200/cvrp200_sd0/50.pt (torch, 348709 bytes, 229 tensors)

emb_net.v_lin0.weight f4 [32, 1]
000000 d5 df 03 bc eb 31 0c 3f bd ff 53 bf 81 b6 3a bf
       -0.008048971 0.5476367 -0.828121 -0.7293473
000010 c5 be c6 be bc 5f 82 3e 2e cb a3 bc 1d 74 4d 3f
       -0.3881742 0.25463665 -0.019994345 0.802553
000020 31 30 c5 bd 4c 1a 8e 3e 1e ac 96 be 29 a6 4b be
       -0.096283324 0.27754438 -0.2942819 -0.19887604
000030 24 c4 70 bf c6 4c 2a bf 27 7b cf be 6d d9 19 3d
       -0.94049287 -0.66523397 -0.40523645 0.03756087
000040 51 e4 c4 3e 3e cc 18 3f f2 f8 2a bf 74 a7 de be
       0.38455442 0.5968665 -0.6678611 -0.43487132
000050 16 da b7 3e 03 b1 51 3f 4c 38 46 be b3 ed 3d 3f
       0.35908574 0.81910723 -0.19357413 0.74190825
000060 f8 99 1a be 84 76 ef 3d b0 36 65 3f 4a bb 69 bf
       -0.15097797 0.11692527 0.8953657 -0.91301405
000070 a4 27 20 bf ec a6 82 be 03 29 cd be 25 e8 5c 3f
       -0.62560487 -0.25517976 -0.40070352 0.86291724

emb_net.v_lin0.bias f4 [32]
000000 2b 74 2f bf 4d e2 e2 be 7e 08 31 bf 8c 42 70 bf
       -0.68536633 -0.4431328 -0.69153583 -0.9385154
000010 80 64 12 bf c7 38 65 3f c1 8b f5 3e 60 b3 01 3f
       -0.571846 0.8953976 0.47958186 0.5066433
000020 0e c9 3c 3d 47 d0 fb be 40 20 1e 3e 51 86 6f bf
       0.04609018 -0.4918234 0.1544199 -0.93564326
000030 4e 93 38 bf d3 3f ff be 95 e3 21 3f a7 e0 1a 3f
       -0.7209977 -0.49853382 0.6323789 0.6049904
000040 6c 23 eb be 03 5a f4 bc f0 94 21 3f cd fa 7c 3f
       -0.45925462 -0.029828077 0.63117886 0.9882019
000050 47 e8 d0 3e 15 c0 00 3e 4a 46 38 3f f9 17 16 bf
       0.40802214 0.12573273 0.7198225 -0.5863033
000060 a6 5e 43 3e ab 07 47 bf 80 5b 32 bf 91 f5 05 bf
       0.19079074 -0.77746075 -0.6967087 -0.5232783
000070 3e b6 e9 3e 67 aa d0 3e e4 3c 14 bf e9 cd 9a 3e
       0.45646852 0.40755007 -0.5790541 0.30235222

emb_net.v_lins1.0.weight f4 [32, 32]
000000 27 49 da 3d db 2a 16 bd 6e 12 1b 3c e5 de 25 3d
       0.10658484 -0.036661964 0.009464843 0.040495772
000010 2b d6 ee 3d 3e 64 22 3e ec 86 00 be cd c3 9d bd
       0.11661943 0.15858552 -0.12551469 -0.07703362
000020 b8 fc a2 3d c0 a2 08 3e f5 74 26 3e 38 e8 26 3e
       0.079583585 0.13343334 0.16255553 0.16299522
000030 f9 ce 14 3d c2 51 17 be 65 65 d1 3c 65 8c f7 bd
       0.036330197 -0.14777282 0.025561044 -0.12087325
000040 3c 84 35 be 1e fa 12 3e 74 23 12 3e ac 26 2a be
       -0.17726225 0.14353225 0.14271337 -0.16616315
000050 90 8f b1 3c 01 76 30 bd 33 c7 9d bc 40 49 c7 bd
       0.021674901 -0.043081287 -0.019260025 -0.09730768
000060 18 69 9e 3d 93 cc ed bd 07 02 3b 3d 87 ba bd 3d
       0.07734889 -0.11611285 0.04565623 0.09264093
000070 08 ed 09 3e 39 78 9a 3d cd 56 2b be 6a 7b 02 be
       0.13469326 0.07542462 -0.1673233 -0.12742391
000080 eb 89 b7 3d 79 00 09 3d 34 1f 0d be 08 65 d4 bd
       0.08961853 0.033447716 -0.13781434 -0.10370833
000090 ad 6e 2b 3e ce b3 ed 3d 3e e2 9a bd 81 f8 41 bd
       0.16741438 0.11606561 -0.075626835 -0.047356132
0000a0 e0 6d 29 be 17 71 ca bb f8 96 05 be ae 61 09 be
       -0.1654582 -0.006178032 -0.13045871 -0.13416168
0000b0 6c ca 30 bc b9 51 e0 3c 86 53 8f bd 74 7d cf 3d
       -0.010790449 0.027382718 -0.06998353 0.1013135
0000c0 ac 32 e2 bd fa 7f 20 3e a7 8d fb 3d bd db 15 be
       -0.11044821 0.15673819 0.122828774 -0.14634605
0000d0 5e 19 3f bd d1 e3 99 3b fd 89 e6 3c ef 3b 1b 3d
       -0.04665505 0.0046963473 0.02814197 0.037898954
0000e0 9f 5b 92 3d f3 23 ff 3b 31 1a b9 bd 6e f5 aa 3d
       0.071463816 0.007786268 -0.09038199 0.08347593
0000f0 65 29 2b be 47 7e d1 bd af 83 2e bd da 4c b6 bd
       -0.1671501 -0.102291636 -0.042606052 -0.08901377
000100 15 80 6e bd ff f4 1d be 44 66 3e bd c9 68 d5 3c
       -0.058227617 -0.1542549 -0.046484247 0.026050942
000110 a1 8c f2 bd 95 68 37 bc 2c 1b 02 3e 07 48 c1 bc
       -0.11843229 -0.011194368 0.12705678 -0.023593916
000120 f5 83 c1 3b e7 07 ab bc 37 89 0f 3d 94 86 de 3d
       0.005905623 -0.020877792 0.035042968 0.108655125
000130 bc 77 20 3e d3 18 d9 3d 31 00 2b 3e c0 13 6c bc
       0.15670675 0.10600438 0.16699292 -0.014409006
000140 9e 74 29 be 07 9b b9 bd a2 f6 f2 3d 5b 2c 82 ba
       -0.16548392 -0.09062772 0.11863448 -0.0009931432
000150 57 2b ba bd cd 6a 12 be 79 63 28 be dd 81 28 be
       -0.09090298 -0.14298554 -0.16444196 -0.16455789
000160 02 d0 11 bd 91 68 be 3d 0b 1e 96 3d 89 75 36 be
       -0.035598762 0.09297288 0.07329949 -0.17818274
000170 2e 9b dd 3d 05 52 0d be c2 7c 28 bd 43 cc a0 bd
       0.10820614 -0.13800819 -0.041134603 -0.0785146
000180 1b 28 d6 bc 03 b6 28 bd 25 f9 1e be a6 a5 1a be
       -0.02614217 -0.041189205 -0.15524729 -0.15102252
000190 8f 54 bb bc 23 5e 61 bb 5b 9a 98 bd c7 7c 76 3d
       -0.02286747 -0.0034388385 -0.07451316 0.06017759
0001a0 df c1 1c be 0b d1 94 bc df 21 24 3e 91 91 89 bd
       -0.15308331 -0.018166086 0.16028546 -0.06717218
0001b0 3a 10 25 3e a2 12 8b 3d 46 56 1d be 01 bb d9 3d
       0.16119471 0.06790663 -0.15364942 0.10631371
0001c0 31 8f da bc cf 12 ae bd c3 ab 15 3e 69 3a 0c be
       -0.026679607 -0.08499681 0.14616303 -0.13694157
0001d0 af 83 55 3c 07 55 31 bd a7 75 06 3e 4f bf 2c 3d
       0.013031884 -0.04329398 0.13130818 0.042174634
0001e0 78 75 b8 3d f4 05 66 3d 23 ee 4b bd fb 25 0a bd
       0.090067804 0.05615802 -0.04978765 -0.033727627
0001f0 2a 6d 0f be a6 f4 ce 3d ca 17 14 3e 33 f5 e9 3d
       -0.14006487 0.10105257 0.144622 0.11423721
000200 9f d8 d8 bd 47 98 55 bc 9c 5b f1 bd 69 43 ca bd
       -0.10588192 -0.013036794 -0.11785051 -0.09876139
000210 ab 58 b5 bd 3d e7 2c 3d f8 1f b4 bd dd a8 be bc
       -0.08854803 0.042212714 -0.0879516 -0.02327388
000220 d5 de ca 3c d9 aa c0 3d 21 1c ef bd 9e 82 da bd
       0.024764458 0.094075866 -0.11675287 -0.106694445
000230 27 84 cb bd 94 31 0a 3e b1 56 3f bd ae 28 06 3e
       -0.099373154 0.13495475 -0.046713535 0.13101456
000240 1f a4 33 3d e7 42 1b 3b 3a 6d 70 3c 68 8e 92 bc
       0.04385769 0.0023691 0.014674479 -0.01789017
000250 43 de 66 3b 97 ae 77 bd 59 02 83 3c 49 70 3f 38
       0.0035227693 -0.060469236 0.01599233 4.5642522e-05
000260 de 46 f7 bd 27 d2 e3 bd 24 cb f4 3d 15 24 0a be
       -0.12074064 -0.11124068 0.119528085 -0.13490327
000270 dd 3e 4b 3b e8 dc 43 3e d1 29 9f 3d 15 26 75 bc
       0.0031012811 0.19127238 0.07771648 -0.014962693
000280 72 66 25 be 3f 5d c2 3d 09 95 0a be 74 fd 78 bd
       -0.16152361 0.094904415 -0.13533415 -0.060788587
000290 01 3d 8b bd eb 32 94 bc 73 9e bc bb 58 e5 1c 3e
       -0.06798745 -0.018090686 -0.0057561933 0.15321863
0002a0 dc 51 5e 3c a9 cd 29 3e c8 e1 cb 3d f8 62 f6 bd
       0.0135693215 0.1658236 0.09955174 -0.120305955
0002b0 3f 27 8d 3d 67 f1 08 be 04 fd a9 bd 19 26 75 3d
       0.06892251 -0.13373338 -0.08300212 0.059850786
0002c0 ec d1 86 3d cb 5d 0f 3e a2 6e 85 bd e8 5c 02 bc
       0.06583008 0.14000623 -0.06515242 -0.007956721
0002d0 dc 20 ca 3d f6 b9 26 be ef 41 f4 3d 8d c2 0d be
       0.09869549 -0.16281876 0.11926638 -0.13843746
0002e0 8b 6f ba bb 83 25 b3 bc 8f fb af bd c2 af 61 3c
       -0.0056895665 -0.021868473 -0.08592903 0.013774814
0002f0 f2 9a 0c 3e 74 90 74 bd 53 5b e8 bd 50 52 6b bd
       0.13730982 -0.059708074 -0.11345544 -0.057451546
000300 61 3c 42 be ef 70 be 3d 5d 83 cd bd 72 51 fc bd
       -0.18968345 0.09298884 -0.10034821 -0.12320222
000310 a6 a0 f4 bd 29 d9 ec 3d 3b 69 9f 3d 72 4a 19 3e
       -0.11944704 0.115648575 0.07783743 0.14969805
000320 50 0f 47 3d 27 6b 35 bd 7d de 84 bd dd 8c 0c 3d
       0.048598588 -0.04429164 -0.06487749 0.034314025
000330 41 e0 0a 3e f5 6c eb 3c 5c e4 ca bd 47 a8 8c bd
       0.13562109 0.028738478 -0.09906837 -0.06868034
000340 74 67 1c be 71 92 55 3d 3b b5 eb bd e6 ab 30 be
       -0.15273839 0.05214161 -0.11509176 -0.17253074
000350 95 b4 2d 3e a8 34 ce bd ba 90 0f bd 36 1b 81 3d
       0.16963418 -0.10068637 -0.03505013 0.06304018
000360 c3 bb 1b bc e4 ab d3 bd 7c f1 05 be 06 b8 fa 3d
       -0.009505215 -0.1033552 -0.130804 0.12242131
000370 ee 19 4a 3c 67 02 06 3e 87 b5 9d bd 3c 1b 87 3d
       0.012335284 0.13086854 -0.07700639 0.065969914
000380 09 e9 12 bd ca d8 2f bc d9 59 d5 bd b8 e1 81 3d
       -0.03586677 -0.010732839 -0.10417528 0.063418806
000390 03 f8 6f 3d 2e 05 cf bb 0e c0 16 bd e0 3b e4 bd
       0.05858613 -0.006317756 -0.03680425 -0.11144233
0003a0 84 87 ff 3d f4 54 09 be bd 52 99 3d e0 e0 66 bd
       0.124770194 -0.13411313 0.07486484 -0.0563668
0003b0 74 54 a7 bd 61 68 0d 3d 37 df b5 bd fb 38 1c 3d
       -0.08170405 0.03452337 -0.088804655 0.03814028
0003c0 22 5c 02 3d 0e ee 08 be 87 53 03 3d 75 66 9f 3d
       0.031826146 -0.1337206 0.03206208 0.07783214
0003d0 79 4b 89 3d a2 f7 cc bc 3e 3f 11 be 6c a4 f7 bc
       0.067038484 -0.025020424 -0.14184281 -0.03022977
0003e0 e5 f5 82 3d 1c 42 89 bd 4a c4 82 3d 86 b6 f6 3d
       0.06394557 -0.067020625 0.063850954 0.12046532
0003f0 5d dd b6 bd fb bc 8f 3b 86 f3 9a 3d f8 19 34 3c
       -0.089289404 0.004386542 0.0756598 0.01099252

emb_net.v_lins1.0.bias f4 [32]
000000 35 be ab bc d7 92 f3 bd 9a 49 65 bd b0 71 f4 3d
       -0.020964721 -0.11893242 -0.055978395 0.11935747
000010 7f 94 e3 bd ce 85 0d 3e ac 6b af bd 06 32 44 bd
       -0.11112308 0.13820574 -0.08565459 -0.04789927
000020 03 b6 93 3c a6 32 2c be f4 83 e1 bc 60 6e e3 bc
       0.018031126 -0.16816196 -0.02752874 -0.027762592
000030 91 d2 09 bc 55 d4 97 bc 8a 16 10 3e f1 a6 ef 3d
       -0.008412019 -0.018533865 0.14071098 0.117017634
000040 39 87 0d be e7 93 ee 3d 10 13 0d be e7 b5 0c be
       -0.13821115 0.11649304 -0.13776803 -0.13741265
000050 f9 69 6b 3d 13 c1 0c 3c 8a 72 a2 bd 82 3b 29 be
       0.05747411 0.008590954 -0.07932003 -0.16526607
000060 30 13 a8 bd 97 b6 84 3d 7f a7 2c be 15 06 35 be
       -0.08206785 0.06480139 -0.1686077 -0.17678101
000070 da d9 23 3d bc 10 fd bd 79 cf 1f be 9a a7 39 bd
       0.04000268 -0.123567075 -0.15606488 -0.045325853

emb_net.v_lins1.1.weight f4 [32, 32]
000000 b2 65 5c bc 7b 03 31 be 35 0a c8 bd df a1 1b 3c
       -0.01345198 -0.17286484 -0.09767572 0.009499042
000010 8e 74 36 be 38 a7 3c bd 5e ba 01 be e2 90 c3 bd
       -0.178179 -0.04605791 -0.1266875 -0.095491186
000020 a7 f9 52 3d 64 39 f6 bd e9 7d 14 be 8e 2d b9 3d
       0.05150762 -0.12022665 -0.14501156 0.09041892
000030 2e f1 a5 3c 46 4c 34 3e 82 3d e4 bc 07 a1 c6 bd
       0.020256605 0.17607221 -0.02786136 -0.09698682
000040 24 92 ee bb 61 66 0e bc 35 50 f4 3d 91 d9 49 be
       -0.007280605 -0.008691401 0.11929361 -0.19711901
000050 d1 88 27 3c 38 27 85 3d c4 ba ab bd 2b 2f 8d bd
       0.010225491 0.06501621 -0.08385232 -0.06893762
000060 55 1e d1 3d 26 e8 21 be 90 40 7b 3d 35 2e 18 be
       0.102108635 -0.15811214 0.06134087 -0.14861377
000070 d0 d1 d6 3d fe ae 0d be bf f4 c5 3d 9a a2 36 be
       0.10489237 -0.13836285 0.09665822 -0.17835465
000080 1f b6 1f be f7 dd a4 bb 83 8b 07 3e e6 2f 27 be
       -0.15596817 -0.005031343 0.13236813 -0.16326866
000090 f2 ec a7 bd 90 b2 1b 3e e6 3f 18 bd 30 f6 7f 3d
       -0.081994906 0.15204835 -0.037170313 0.062490642
0000a0 5e 66 34 be 50 89 74 bd 0e 96 b6 bd 80 5b 10 3e
       -0.17617175 -0.059701264 -0.089153394 0.14097404
0000b0 97 57 84 3d a1 77 0c be 0e ba ba 3c b2 3b 3a bc
       0.06462019 -0.1371751 0.022793796 -0.0113667715
0000c0 9a 28 99 bd 87 6f ad bd 2c 15 85 bd 07 66 09 3e
       -0.07478447 -0.08468538 -0.06498179 0.13417827
0000d0 40 00 04 be 30 c5 08 be 4e 69 83 bd e8 8b 8e bb
       -0.1289072 -0.13356471 -0.0641657 -0.004350174
0000e0 1c b1 28 3d e8 57 83 3b f5 03 51 bd 5b b6 eb bd
       0.04118453 0.004008282 -0.051029164 -0.11509391
0000f0 6c 4c 05 bd 10 98 9d bd 83 0f 09 3e 94 1d 11 be
       -0.032543585 -0.07695019 0.13384824 -0.1417144
000100 54 0c e9 bd aa 2a 16 be aa 33 1d bd b9 d9 13 3e
       -0.113793045 -0.14664713 -0.03837935 0.14438523
000110 ea 56 15 3e 5c c4 17 be 1c b3 43 bb fe ad d3 3d
       0.14583936 -0.14820999 -0.0029861396 0.10335921
000120 cf 2e 99 3d a8 84 12 3e 60 ea f5 bc 35 ec e2 bd
       0.07479631 0.14308417 -0.030018985 -0.11080209
000130 56 7d f3 3d 3c cb 4f bd ce 73 ae 3d 7f 3b 14 bd
       0.1188914 -0.05073093 0.08518182 -0.036189552
000140 a4 e6 97 3d 41 23 1b 3e b6 26 2c 3e e0 b2 23 be
       0.07417038 0.15150167 0.16811642 -0.15986204
000150 f7 96 f6 bd a5 ba 8c bd eb a7 a4 bd 4f 76 2b 3e
       -0.12040513 -0.06871537 -0.0803984 0.1674435
000160 b3 3a 92 bc 50 1e f6 bd 66 b1 a5 bd 24 b3 c1 bd
       -0.017850256 -0.120175004 -0.08090477 -0.094579965
000170 60 71 91 3d bb b9 1f be c6 35 22 be 0e 5d 65 be
       0.07101703 -0.15598194 -0.15840825 -0.22398779
000180 12 9c 3b 3d 9a 99 d6 3d d8 7a 15 be 1f b8 b1 3c
       0.045803137 0.10478516 -0.14597642 0.021694241
000190 67 54 1d 3e 8e 30 e6 3c d7 c0 25 bd eb 79 69 bc
       0.15364228 0.028099325 -0.04046711 -0.014250259
0001a0 cd 3d 14 bc 5d 39 6a 3d d2 29 0d be ea f5 9b 3d
       -0.009047938 0.057183612 -0.13785484 0.07615264
0001b0 60 80 c5 3d b1 2c fb bd 0c 32 db 3d 7e 7e 24 3e
       0.09643626 -0.122643836 0.10702905 0.16063878
0001c0 2b b7 c8 bd 71 59 27 bd f5 c2 b9 3d 58 9e f7 bd
       -0.098005615 -0.040856782 0.09070388 -0.120907485
0001d0 53 a5 17 3d 8e d6 1b 3d 7e bc aa 3d eb 04 3d be
       0.0370229 0.038046412 0.08336733 -0.18458907
0001e0 79 ff 3b be ad 6b 26 3d d1 33 01 3d 12 ad 2b be
       -0.18359174 0.04063003 0.031543557 -0.1676524
0001f0 3c 60 10 be 15 e0 47 be 11 3a 04 be 4c 9e ba bd
       -0.1409921 -0.19519074 -0.12912776 -0.09112224
000200 c3 1c 18 3e c0 8b 4c bd 1d 91 e0 3d 72 59 19 3e
       0.14854722 -0.049937963 0.10965178 0.14975527
000210 00 b4 8e 3d e0 dd 38 be e3 8b 88 3d 0c f1 97 3d
       0.06967926 -0.18053389 0.06667306 0.07419023
000220 ca c2 f9 3d 74 82 2a be 0e 05 f8 3d 58 d2 f8 3d
       0.12195356 -0.16651326 0.12110339 0.12149495
000230 01 4d 3d be 78 ea e9 3c be 1d 22 3e a4 77 1b be
       -0.18486406 0.028554186 0.15831658 -0.15182358
000240 73 82 60 3d 4a e2 ad 3d a4 29 cd 3c 40 c7 20 3e
       0.054811906 0.08490427 0.02504427 0.15701008
000250 88 88 1c 3e 95 ce 05 3e 93 f0 98 bc aa 67 20 3e
       0.15286458 0.13067086 -0.018669402 0.15664545
000260 83 ef 21 be c4 d9 b6 bd 06 16 ff bc ae 67 93 bd
       -0.15814023 -0.08928254 -0.031138431 -0.0719751
000270 63 f9 32 3e b3 3a ae 3d ea 57 bd 3d ce 39 18 3e
       0.17477946 0.0850729 0.09245284 0.148658
000280 05 cb ff bd fa 3e 16 bd 7f a6 04 3d a3 81 c5 3c
       -0.12489895 -0.036681153 0.032385346 0.024109667
000290 86 0a a4 3d 79 4c c2 bd a5 cb 97 bd 1c d6 20 3e
       0.0800982 -0.09487242 -0.07411889 0.15706676
0002a0 67 29 76 bd 5f 71 ec bd 7c c0 de 3d 09 0a cd 3d
       -0.060098078 -0.11545061 0.10876557 0.1001168
0002b0 2a 83 9d bd d3 cf c9 bc f7 fe fa bd 05 2a 2f be
       -0.07691033 -0.024635231 -0.12255662 -0.17105873
0002c0 e6 6c 8c 3d 6e e0 98 bd 71 41 fa 3d 25 4d 1d be
       0.06856708 -0.074646816 0.12219513 -0.1536146
0002d0 67 fb 8a bc e5 d2 8c bc 7c 5e ad 3d c8 1b 1b 3e
       -0.016965581 -0.017190406 0.08465287 0.15147316
0002e0 65 b2 00 3e 09 60 a9 3d 37 9e 96 bd 2e 23 15 be
       0.12568052 0.082702704 -0.07354396 -0.14564201
0002f0 75 14 16 be 07 9e 65 3c 1c 8c 19 3e f6 81 32 bd
       -0.14656241 0.014014727 0.14994854 -0.04358097
000300 c7 6f db 3b 99 82 da bd ac 59 25 3d cc 22 05 3e
       0.0066966745 -0.10669441 0.04036872 0.13001555
000310 cd f4 1a be b2 9d dd bd 79 89 14 3e 26 a8 89 3d
       -0.15132447 -0.108210936 0.14505567 0.06721525
000320 58 87 00 3c 01 21 44 3d 3d ad 30 bd 8b da dd bd
       0.007844768 0.047883037 -0.043133963 -0.108326994
000330 05 47 17 be 45 7d 10 3e cd 4a d2 bc f9 9a 4f bd
       -0.14773186 0.14110287 -0.025670433 -0.050684903
000340 a1 6b 01 bd d7 71 a4 bd 3b f7 1b bd c6 17 08 be
       -0.031596784 -0.08029526 -0.038077574 -0.13290319
000350 eb 14 e2 3d fd 84 b4 3d d8 87 87 bd a5 9e 29 bd
       0.11039146 0.08814428 -0.06617707 -0.04141106
000360 50 2c be 3d 40 42 a5 bd e1 35 84 3d 2d cc 81 3d
       0.09285796 -0.08069277 0.06455589 0.063377716
000370 01 49 cd bd 35 ef 0a 3d 7c 39 c4 3c b8 d7 14 3e
       -0.1002369 0.03391953 0.023953192 0.14535415
000380 3a 34 65 bd 5f 59 98 bd e8 7f 1f 3e fc 51 30 be
       -0.05595801 -0.07438921 0.15576136 -0.17218775
000390 5b 03 50 bc d4 6b 13 3e 79 af da bd b3 5f 1d 3e
       -0.0126961125 0.14396602 -0.10678 0.15368538
0003a0 df 78 06 3e 38 5b 2a 3e 36 c0 8b bc 53 d4 06 3e
       0.13132046 0.1663636 -0.017059427 0.13166933
0003b0 bc 95 da bd 93 e6 8a bd bc f8 93 3d 4e d3 0e 3c
       -0.10673091 -0.0678226 0.07225177 0.008717371
0003c0 38 b4 c1 3d 03 5e 32 3e 90 2a 0c be ef 10 8c 3d
       0.09458202 0.17418675 -0.13688111 0.06839167
0003d0 e1 b7 81 3d 2b 33 82 3d fd cf b3 3d 30 69 87 bd
       0.063339 0.06357416 0.08779905 -0.0661186
0003e0 60 f9 09 be 38 cb 18 3e 53 13 cd bd 4f 6e ac 3d
       -0.13474035 0.14921272 -0.100134514 0.08419477
0003f0 bb 42 21 be ec 18 e4 bc 8d b1 d7 bc 26 60 0b 3d
       -0.15748112 -0.027843915 -0.02632978 0.03402724

emb_net.v_lins1.1.bias f4 [32]
000000 5c d7 b7 bd 82 3a ee bb 36 00 b1 3c 95 2a 5c bd
       -0.089766234 -0.0072701583 0.021606546 -0.053751547
000010 63 be 2b be d5 37 d5 bc e2 79 14 3e 66 cb 1e 3e
       -0.16771846 -0.0260276 0.1449962 0.15507278
000020 dc 63 c4 3d b3 b0 ba 3c 8d bc 39 3d 21 02 0c be
       0.09589359 0.022789335 0.04534583 -0.13672687
000030 31 35 8a 3d 7b 04 39 be da 5a 92 bd 11 6d 2f bd
       0.06748427 -0.18068115 -0.07146235 -0.042828623
000040 8a 75 00 3e d5 9a c1 bb 19 fb 99 bd 3a aa 03 3d
       0.12544838 -0.00590835 -0.07518596 0.032144763
000050 f5 bd 16 be 7e 5f 65 bd d2 ea 40 3d 8a ce 45 bc
       -0.147209 -0.05599927 0.047098942 -0.0120731685
000060 25 e1 50 bc 93 ba de 3d 4a b7 10 be 20 10 ac bd
       -0.012748991 0.1087543 -0.14132419 -0.08401513
000070 29 b6 44 3e 9e db e4 3c b1 2d 21 bd c7 08 b8 3d
       0.19210114 0.027936753 -0.039350215 0.08986049

emb_net.v_lins1.2.weight f4 [32, 32]
000000 5f 37 ae 3d 89 42 ea bc 96 54 d6 bd 51 9e 96 bc
       0.08506655 -0.02859618 -0.10465352 -0.018386038
000010 ee 26 9e 3d 01 61 81 bc 0e 24 d3 3d 29 0d 1d be
       0.07722269 -0.015793325 0.10309611 -0.15337051
000020 f9 02 a3 bd 0f a1 e4 3d 05 13 fa 3c a1 47 2d 3d
       -0.07959551 0.11163532 0.030526647 0.04230464
000030 eb e7 64 3d b2 3a 48 bd 6d ed 89 bd b4 4a 47 3d
       0.055885237 -0.0488841 -0.067347385 0.048655227
000040 fe 2a 05 bd 45 07 7a bd 92 79 01 3d d6 8c 2b 3d
       -0.032511704 -0.06104209 0.03161008 0.04188236
000050 90 c4 65 bd 52 38 f4 bd e5 0c 4f bd c0 47 ab bd
       -0.05609566 -0.11924805 -0.050549407 -0.083632946
000060 ad df db 3d 88 29 fb bd 37 db 0d 3e 31 e5 a2 3d
       0.10736022 -0.12263781 0.13853155 0.07953871
000070 8a 5a f5 bd 8e 79 0b 3e e1 51 17 be b4 69 67 bc
       -0.119801596 0.13620588 -0.14777328 -0.014124323
000080 96 98 00 be 1d a6 e8 bd d5 7c 8b bc a7 6a 7e bd
       -0.12558207 -0.113598086 -0.017027298 -0.06211343
000090 a0 da e5 3d 48 d1 28 be fc 1d f8 3d 2c 42 a4 3d
       0.1122334 -0.16486084 0.12115094 0.08020434
0000a0 51 30 4b 3e ca b5 13 bc ba af f4 bd b7 16 0f be
       0.1984265 -0.00901551 -0.1194758 -0.13973509
0000b0 46 e1 d0 3d f0 36 02 be 18 17 37 bd 36 07 5c bd
       0.101992175 -0.1271627 -0.04469976 -0.053717814
0000c0 37 eb 42 3c b1 4b 01 be 38 2c 56 3e 04 cc 13 be
       0.0118969 -0.1262653 0.20915306 -0.14433295
0000d0 cc 0f 4a 3e 84 b8 b2 bd 30 4a 08 be 60 15 45 bd
       0.19732589 -0.087266 -0.1330955 -0.048116088
0000e0 62 52 be 3c 49 6b 8c bd 8d 6f 57 be 42 70 17 3e
       0.023232643 -0.068564005 -0.21038647 0.14788917
0000f0 a0 e0 12 3e 83 65 44 3d 0d c5 0f 3e d6 b9 a4 3c
       0.143435 0.04794837 0.14040013 0.020108145
000100 b3 de 16 3c 5e 34 19 be f2 f7 24 be 7a 1e 04 be
       0.009208369 -0.14961383 -0.16110209 -0.12902251
000110 4b 4c 9b bd f1 3d 93 3d 7f 2c a8 bd 1b 33 48 bc
       -0.07582911 0.07189549 -0.08211612 -0.012219216
000120 e2 61 7f bc 10 19 04 be 17 0e 48 bd 93 e9 26 3e
       -0.015587302 -0.12900186 -0.048841562 0.16300039
000130 5a 85 37 3e fb 95 06 3e 35 8b 85 bc bc 8a f5 ba
       0.17921963 0.1314315 -0.01630173 -0.0018733363
000140 79 90 a1 3d f8 9f 91 bd 99 86 a3 bd a4 41 d0 3d
       0.07888884 -0.0711059 -0.07984657 0.1016877
000150 d9 6e c2 bb ed d3 fa bd ea 9a 2b 3e fd e8 3f 3c
       -0.005933624 -0.12247453 0.16758314 0.011713264
000160 5a 29 b3 3d 4b 77 16 be cb aa 20 3d fd 86 c2 3d
       0.087481216 -0.14693944 0.03922538 0.09498403
000170 63 90 61 bd 6e 2a d8 bd 4b 5b 18 3e 17 07 9e 3d
       -0.05506934 -0.10554968 0.14878576 0.07716196
000180 f2 d7 c4 3d 01 42 ea 3c 77 b4 7f 3c aa 82 b8 3d
       0.09611501 0.028595926 0.015606991 0.09009297
000190 25 6b 30 bc 80 7a a9 bd 3e 4e b0 3d dc 5c 95 3d
       -0.010767733 -0.08275318 0.086086735 0.07293102
0001a0 d3 c8 66 3d 27 82 ea 3b ca 67 63 ba 38 ba 2a 3b
       0.056343865 0.0071566286 -0.00086748286 0.0026050936
0001b0 be aa 0f 3d 49 b7 eb bd 06 1f 0d be a0 c0 af 3d
       0.03507494 -0.11509568 -0.13781366 0.08581662
0001c0 36 70 96 bd 27 71 62 bc 13 ec 2f 3d 02 46 48 3d
       -0.07345621 -0.013820923 0.042949747 0.04889489
0001d0 6b 8a e3 3d 03 8a 00 3d 2e dd 21 3d 34 b4 38 bc
       0.111103855 0.03138162 0.039517574 -0.0112734325
0001e0 48 d4 47 3d 30 05 a5 3d 17 08 e8 3d cd a6 37 be
       0.04878643 0.0805763 0.11329668 -0.17934723
0001f0 21 cc 8a bd f0 f1 1e be 7f c8 9b bd 6d 04 06 3e
       -0.06777216 -0.1552198 -0.07606601 0.13087626
000200 b1 81 49 be 64 68 2f be 44 05 ac 3d 36 37 fc bd
       -0.1967838 -0.17129666 0.08399442 -0.12315218
000210 a8 ec e5 3d 2f 2f f8 3c ba 8c c8 3c 1c 34 f3 3d
       0.11226779 0.030295936 0.024481166 0.118751734
000220 21 53 2d be a3 15 f3 3d 18 30 60 3d 20 86 0c be
       -0.16926242 0.11869361 0.054733366 -0.1372304
000230 bb f9 88 3c 25 6e 89 bd fe fa a8 bd 08 70 1b bd
       0.016720643 -0.067104615 -0.08250998 -0.03794864
000240 7b 28 d5 bd 72 7a 11 3e 58 82 12 3e 72 8a 09 bd
       -0.10408112 0.14206865 0.14307535 -0.033579297
000250 98 14 25 be d3 54 d8 bc 61 45 f5 3b a5 16 d7 3d
       -0.16121137 -0.026407635 0.0074850773 0.10502366
000260 9b 47 8a bc 3a da 19 3d 4f 6b 18 3d d8 ef e2 bd
       -0.016879847 0.037561633 0.037211712 -0.11080903
000270 d4 c0 03 be e7 ef 2b be 2e f2 a3 bc 01 42 23 3d
       -0.12866527 -0.16790734 -0.020012941 0.039857868
000280 34 ff 38 bd eb 04 35 3e 1e e9 d5 bc b6 cf ed bd
       -0.045165256 0.17677657 -0.026112135 -0.11611883
000290 c9 6e 27 3c 66 c5 84 bd af e7 1d bd c5 30 29 3e
       0.010219284 -0.06482963 -0.03855103 0.1652251
0002a0 03 63 08 bc b2 60 14 3e 16 db 7c bb f0 c4 91 bd
       -0.0083243875 0.14490011 -0.0038582734 -0.07117641
0002b0 98 21 0c 3e f5 79 c7 bd 17 59 9c bc cc 69 eb 3c
       0.1368469 -0.09740058 -0.01908545 0.028736971
0002c0 44 43 79 3d ac 29 28 be 71 fb 34 3b e3 6f 7d bd
       0.060855165 -0.16422147 0.002761569 -0.06187428
0002d0 70 9b d1 3d 79 0a 7e 3d 52 ec 9b 3d 46 6d da 3d
       0.102347255 0.062021706 0.07613434 0.106653735
0002e0 7e 7c 68 bd 13 4f fb bc d0 92 0e 3e 93 7c 15 be
       -0.05675935 -0.030677354 0.13923192 -0.14598303
0002f0 bb 5e 0e be c5 ef 61 3c be 6c 81 bd bc 75 23 bb
       -0.13903324 0.013790076 -0.06319569 -0.0024942001
000300 a3 a6 d6 3d 10 dc cc bc 3f 3d 39 be c3 e3 a9 bd
       0.10481002 -0.025007278 -0.1808977 -0.08295395
000310 14 5b 14 3e e5 ef 5f bd 8f 39 d0 bd 7e fd 3e 3d
       0.14487869 -0.05467214 -0.101672284 0.046628468
000320 d2 fc 9d 3c 4b e0 48 be bb 31 1c 3e 31 af 99 3d
       0.019285593 -0.19616811 0.15253346 0.07504118
000330 44 ca 05 3e c6 5c 79 3d 77 34 ac bd c7 55 b2 bd
       0.1306544 0.06087949 -0.084084444 -0.08707767
000340 ef 33 88 3d c9 85 1b bd 97 28 80 3c 60 f6 38 be
       0.066505305 -0.037969384 0.015644355 -0.18062735
000350 b7 73 eb bd 28 56 2b 3d 23 b2 89 bc 44 3a c9 bd
       -0.1149668 0.041830212 -0.016808575 -0.098255664
000360 34 71 2e be 27 33 c2 3d 92 c0 1f bd 45 d5 31 be
       -0.17035371 0.09482413 -0.03900201 -0.17366512
000370 10 d0 22 3e 56 2c 9b 3d 38 73 e7 bd 65 c6 1d be
       0.15899682 0.07576816 -0.11301273 -0.15407713
000380 1e 86 f8 3d bd 7c 7c bd 05 7a dc bd 7c 32 59 3d
       0.12134956 -0.061642397 -0.10765461 0.05302666
000390 a3 dc 64 bd 91 4c ca 3c d8 f8 e5 bd a4 c2 11 be
       -0.055874478 0.024694713 -0.11229104 -0.14234406
0003a0 6b ec 22 be 38 84 93 bd 0c de c8 bd 7b 22 13 3e
       -0.15910499 -0.07202953 -0.09807977 0.14368622
0003b0 f7 15 c5 bc 72 f5 0b bd fa b6 49 3d 1e 7e 39 be
       -0.024058325 -0.03416962 0.049246766 -0.18114516
0003c0 70 d3 0e be 45 07 e2 3c bf 28 40 be 17 59 b1 3d
       -0.13947845 0.027591357 -0.18765543 0.08659571
0003d0 b8 46 98 bb e8 6c 34 be 7f 4b ff bd 02 0e 3c 3d
       -0.004647102 -0.1761967 -0.124655716 0.045911796
0003e0 92 22 93 3d 7c 12 81 bb 42 73 e3 bd d8 cb 04 be
       0.07184328 -0.003938971 -0.11105968 -0.12968385
0003f0 8b de 25 3d 1c 87 fa bc 67 09 59 bc 2e 30 2f 3d
       0.040495437 -0.030582003 -0.013246871 0.042770557

emb_net.v_lins1.2.bias f4 [32]
000000 29 42 7f bd aa 8f 82 bd 93 ce 5d bd 65 2b 23 be
       -0.062318955 -0.06375058 -0.054152083 -0.15934522
000010 aa 33 fc bd 95 da 88 bc 05 b7 db bc f3 79 27 be
       -0.12314542 -0.01670579 -0.026820669 -0.16355114
000020 8a e5 02 3d ea 1d d6 3d 42 ed 12 3e 29 68 18 3e
       0.031957187 0.104549244 0.14348319 0.14883484
000030 86 26 fb bd 61 f3 52 bd 0b 48 ac bd 01 ee 15 3d
       -0.12263207 -0.051501635 -0.084121786 0.03660393
000040 91 02 47 3d f3 24 24 3d ef f7 d1 3d e9 5d bd 3d
       0.048586432 0.0400743 0.10252368 0.092464276
000050 85 7d be bd ae ea f3 3d 2c 03 f9 3d 2e 43 bf 3c
       -0.09301285 0.11909996 0.12158808 0.023347463
000060 95 26 26 be e6 81 db bd 71 96 53 3d 3d 65 79 3d
       -0.16225655 -0.107181355 0.051657144 0.060887564
000070 6c 0f 2c 3e e5 11 c0 3d 08 a2 82 3d 05 fb de bb
       0.16802758 0.09378413 0.06378561 -0.006804826

emb_net.v_lins1.3.weight f4 [32, 32]
000000 c2 2d e0 3d ee 42 53 bd e7 34 4c 3d a3 38 b8 bd
       0.109462276 -0.0515775 0.04985514 -0.089951776
000010 2a 14 92 bc 96 80 b3 3d 3a c3 88 3d 6e c8 33 bd
       -0.01783188 0.0876476 0.066778615 -0.043892317
000020 a3 a9 ea 3c 2d 56 9c bd 4d 8c 82 3d cc 63 bf 3d
       0.028645342 -0.07633624 0.063744165 0.093452066
000030 1b bc 74 3d 78 6e 3a be f2 06 10 be 67 7c c6 3d
       0.059749704 -0.18206203 -0.1406515 0.096916966
000040 60 6e 4b bb 87 ec 05 3e c7 d1 0a 3e 6d 01 86 bd
       -0.003104113 0.1307851 0.13556586 -0.06543241
000050 b9 90 8d bd d4 b1 23 be 83 38 60 3d 8c 7e 92 3d
       -0.06912369 -0.15985805 0.054741394 0.07153043
000060 97 e5 43 bd 9e c7 2b be df fb eb bd 9d a3 08 3c
       -0.047826376 -0.16775367 -0.1152265 0.00833979
000070 21 6f be 3d 3a a0 5f bd 23 48 cf bd 20 34 0a be
       0.0929854 -0.054596163 -0.10121181 -0.13496447
000080 9b c0 39 3e 9a 9c 42 3d 2b 19 40 be 13 e8 e7 bd
       0.1813988 0.04751263 -0.18759601 -0.113235615
000090 73 b9 19 be 07 ce 66 3c 8e 98 b6 bd 9a 3f 70 3c
       -0.1501215 0.014087207 -0.08915816 0.014663601
0000a0 75 5a 1e bd cb 39 10 be 60 65 2c be d7 e6 1a be
       -0.038660485 -0.14084546 -0.16835546 -0.15127121
0000b0 1e 18 e3 bd 40 5e 2d 3b 65 93 b7 bd 54 44 03 bc
       -0.11088584 0.0026453882 -0.0896366 -0.008011896
0000c0 5b c1 c3 bb 7f 25 23 3e 96 70 c4 bd b2 bc 23 3e
       -0.0059739775 0.15932272 -0.095917866 0.1598995
0000d0 1b a7 07 be 4d 5f 27 be c3 a3 09 3d 77 cb f0 bd
       -0.1324734 -0.16344948 0.03360344 -0.11757558
0000e0 22 a9 89 3d 3b 94 b8 bd 16 f5 06 3e b8 57 21 3e
       0.06721713 -0.09012648 0.1317943 0.15756118
0000f0 6d 12 7a 3b 4e b0 ca 3c 54 9a 07 3e 04 3a d5 3d
       0.0038157955 0.024742272 0.13242465 0.10411456
000100 d2 b3 0d be 32 58 59 3c 11 ff 44 be de 9e 0d 3e
       -0.13838127 0.013265656 -0.19237925 0.13830134
000110 7c 16 78 bd ed dc f7 bc 22 c9 0b be 2f b9 00 be
       -0.060568318 -0.030256713 -0.13650945 -0.12570642
000120 4f 3a 6b 3d 1c 5e d8 3d e1 26 ef bd 8f 6a 4c bc
       0.057428654 0.10564825 -0.116773374 -0.012476577
000130 c3 15 08 3e 7c a6 06 3e ad 5c 6a bd dc 9d 01 3e
       0.13289551 0.13149446 -0.05721729 0.12657875
000140 d2 ca 89 3d 41 3c 36 3e 90 a3 6c bb 4b 4b 33 be
       0.06728138 0.17796423 -0.0036108233 -0.1750919
000150 99 55 a1 bd 51 b8 2d 3d d5 7e 6f 3d f7 43 47 be
       -0.078776546 0.042412106 0.058470566 -0.1945952
000160 a5 1d d9 3d b4 cc 2e be 46 2b 83 3d a4 96 14 3e
       0.10601357 -0.17070276 0.06404738 0.1451059
000170 c8 52 a5 3c 0a 86 1b bd ec 3f 0b 3e 86 8c 95 bd
       0.020181075 -0.037969626 0.13598603 -0.07302193
000180 33 4a 1f be bc 2e 18 be c1 75 e0 3d 88 d7 fc 3d
       -0.15555649 -0.14861578 0.1095996 0.12345797
000190 34 13 7d 3c 4f f6 21 be 94 4d 28 be 65 67 fa bc
       0.015446473 -0.15816616 -0.16435844 -0.03056688
0001a0 06 d4 94 3d 61 3e 31 be b2 92 a5 3d 72 6f d7 bd
       0.07267003 -0.17308952 0.080846205 -0.105193034
0001b0 4e a3 0c 3e b3 4c 38 bd f5 36 8d bc 9f 29 22 be
       0.13734171 -0.04499502 -0.01723812 -0.1583619
0001c0 29 5a 27 be 95 d0 a0 bc fa dd 1b 3c b7 f0 c0 3d
       -0.16342987 -0.01963071 0.009513373 0.09420913
0001d0 fd ff 2d be 77 1c 30 3c 18 44 07 bd bd 78 a4 3d
       -0.16992183 0.010748974 -0.033023924 0.080308415
0001e0 2a a8 9f bd 7f fe 73 3d 38 45 85 3d 8b 96 98 3d
       -0.077957466 0.05956888 0.06507343 0.07450589
0001f0 13 3b a0 bd d6 22 77 3b 7f e9 6e bd ff 4d 73 3d
       -0.078237675 0.0037709973 -0.058328148 0.059400555
000200 bf 61 ae bd 3b 3e 1f be 4f a9 12 be 36 cb ef bd
       -0.08514737 -0.15551083 -0.14322399 -0.11708681
000210 d3 3c a4 bd 5c 08 fe 3c 16 7f c8 bc 76 c8 bb bd
       -0.08019414 0.031009845 -0.024474662 -0.09169094
000220 a1 3b 46 bc 43 9d af bc 81 21 cc 3d f9 73 0c be
       -0.012099178 -0.021437293 0.09967328 -0.13716115
000230 21 f7 6a bd fe bd 03 be b4 b0 b1 3c be 1b 22 3c
       -0.057364587 -0.12865445 0.021690704 0.00989431
000240 10 7a 8b 3b 7f 20 2b 3e 92 0c d4 bd a9 04 fb bc
       0.0042564943 0.16711615 -0.1035396 -0.03064187
000250 ce dc b5 3c 02 4a 1d 3e 59 e1 f7 3d 82 47 18 3c
       0.022200014 0.15360263 0.121035285 0.009294393
000260 a6 c2 e6 bd 25 9e 88 3d be 38 b4 3d 33 4f 40 bd
       -0.11267595 0.06670789 0.08799885 -0.04695053
000270 28 6a 86 3d b4 94 1c 3e 6c 1f 0c be 09 24 19 bd
       0.065632164 0.152911 -0.13683861 -0.03738788
000280 cc 51 22 be 4a e6 48 3d 14 01 c9 3d 3f 59 00 bd
       -0.15851516 0.049047746 0.09814659 -0.03133511
000290 bc 54 95 3c 6d d0 37 3d c5 38 77 bc af f7 00 3e
       0.018228881 0.044876505 -0.0150892185 0.12594484
0002a0 b9 75 1c 3d 36 cc 37 be 5f 3d 28 be 56 b8 3f be
       0.038198207 -0.17948994 -0.16429661 -0.18722662
0002b0 6a ed b1 bb c7 60 c4 3d 88 a9 03 bd 8b 15 27 3e
       -0.0054299133 0.09588771 -0.0321441 0.16316812
0002c0 ab 70 a3 3c 19 5d 61 3d fa de 17 3e 71 d8 a5 3d
       0.019951185 0.055020425 0.14831153 0.080979235
0002d0 25 8c 3d 3c 56 74 2a 3e 82 76 fa bd 20 8e 2a 3d
       0.011569058 0.16645941 -0.12229635 0.041639447
0002e0 28 f2 ba 3d 22 ae ee bd bb 80 46 be 19 b6 93 3d
       0.09128219 -0.11654307 -0.19385044 0.07212467
0002f0 99 08 44 bd 67 45 d3 bd ea cd a2 3b df 8a 01 be
       -0.047859762 -0.10315972 0.0049683945 -0.12650631
000300 ca 3f 09 3e d2 d2 f6 3c 75 8e 92 bd 4a 70 1b 3e
       0.1340324 0.030129824 -0.07156078 0.15179554
000310 53 af dc 3c 38 ff e7 3b d2 cd dd bd ea 70 06 3e
       0.02693907 0.007079985 -0.10830273 0.13129011
000320 1f bc f8 bc 89 55 f1 3d 70 e1 8c bd 8a 97 a2 3d
       -0.03036314 0.11783893 -0.06878936 0.0793906
000330 dd 35 fb 3d 33 5f d5 bd 8d f5 02 be 37 4c 1d be
       0.12266133 -0.104185484 -0.12788983 -0.15361105
000340 56 a5 05 3e 19 17 40 3e 40 59 67 bd a2 31 dd bd
       0.13051352 0.18758811 -0.0564816 -0.10800482
000350 db 00 62 3d 8e 91 bb 3d 98 3c af 3c 2b 3c 23 bd
       0.055176597 0.09158622 0.021391198 -0.039852303
000360 25 0c cc bd d6 ab fe 3d ac f5 11 be 34 44 07 be
       -0.09963254 0.12435119 -0.14253873 -0.13209611
000370 79 f0 0b bd ad 41 7d 3c 52 fb af 3d 91 a1 98 3d
       -0.03416488 0.015457553 0.085928574 0.07452691
000380 bb 0a 09 be a7 7a 9d bd d8 e8 9c bd 22 99 97 bd
       -0.13383 -0.0768941 -0.07661599 -0.07402255
000390 f9 75 ff bd 16 be ec 3c 34 66 a1 bc 36 aa 34 be
       -0.124736734 0.028899234 -0.019702055 -0.17643055
0003a0 bc 25 ec bd af d7 e9 bd 04 7f 3d bd 4c 4c c2 bd
       -0.11530635 -0.114180915 -0.04626371 -0.09487209
0003b0 4f 6e 6f bd 30 25 9f 3d 69 ba ea bd a0 03 70 bc
       -0.058454808 0.07770765 -0.11461336 -0.014649302
0003c0 dd b4 74 bd 75 83 d1 bd ec 84 f3 bc 65 eb 3f bd
       -0.059742797 -0.102301516 -0.029726468 -0.04685535
0003d0 63 85 8c 3c 19 ee 04 be d6 d2 78 3d 6e 31 1b 3e
       0.017153447 -0.12981452 0.060747944 0.15155575
0003e0 13 38 22 3e 6d 20 7e bd 4c 1b 8e 3d 58 c9 1c be
       0.15841703 -0.062042642 0.069388 -0.15311182
0003f0 83 f0 1f 3e 76 7a 34 be ef 50 3b be 2b f5 18 be
       0.15619092 -0.1762484 -0.18292592 -0.14937274

emb_net.v_lins1.3.bias f4 [32]
000000 16 2d 29 3e 02 d8 91 bc 1e 78 8d 3d c3 f1 bb 3d
       0.16521105 -0.017803196 0.06907676 0.09176972
000010 da 87 07 be 83 0c 16 be 9f 96 88 3d 5c 02 a6 3d
       -0.13235417 -0.1465321 0.06669354 0.08105919
000020 17 db a5 bd f0 ce eb 3c 07 18 30 be 36 9a 3f 3b
       -0.08098429 0.028785199 -0.17196666 0.0029236204
000030 2d b7 32 3d e6 f4 15 3b a0 06 eb bc 5b 72 97 3d
       0.04363172 0.0022881567 -0.028689682 0.073948584
000040 11 1e 50 bd 75 bf 05 3e 81 91 1c be a3 27 ce bd
       -0.050809924 0.13061316 -0.1528988 -0.10066154
000050 1a 1d 17 be 86 b3 21 be dd 80 06 3e 3f a4 30 bd
       -0.14757195 -0.15791139 0.13135095 -0.043125387
000060 aa 45 0b be ac 53 14 3d 81 c5 09 be ac 10 27 3c
       -0.13600793 0.03621261 -0.13454248 0.010196846
000070 57 fb b4 3d 03 fa 23 bd 17 73 b9 3d 60 1c 17 3d
       0.08837002 -0.04003335 0.09055155 0.036892295

emb_net.v_lins1.4.weight f4 [32, 32]
000000 d3 27 06 be 6b a4 6c 3d df 10 c9 3d db ec 2c bd
       -0.13101129 0.05777399 0.09817671 -0.04221807
000010 70 36 ba bb b4 91 0f 3c 61 39 cf 3c b7 1d 68 3c
       -0.005682759 0.008762766 0.025295915 0.014167241
000020 12 98 08 be 63 52 1a 3e 48 ad 90 3d 17 4d 0e 3c
       -0.1333926 0.1507049 0.07064301 0.008685372
000030 11 d7 e9 3c 7c 86 03 be 72 2c 97 bd 27 c6 a3 bc
       0.028544934 -0.1284427 -0.07381524 -0.019991947
000040 6f fc 1c 3d d9 0e c1 bd ed ab 21 3d 29 44 8a bd
       0.038326677 -0.0942666 0.0394706 -0.06751282
000050 e3 e6 0a 3e 97 52 0f be b9 d2 10 3b 89 8c 18 3e
       0.13564639 -0.1399635 0.0022098257 0.1489736
000060 bc 41 04 be a1 cf 27 bd 11 db 8f 3d 68 10 ad 3d
       -0.129157 -0.040969495 0.070242055 0.08450395
000070 fd a3 4a 3d 8a d8 c8 3d 72 69 be bd 15 30 03 3e
       0.049472798 0.098069265 -0.09297456 0.1281131
000080 4b fd 2b 3d 33 49 10 3e b6 ea 2c 3b 7e 71 d4 bc
       0.041989606 0.14090423 0.0026385016 -0.025933024
000090 9b f2 34 3d 4f 1d 10 3e b3 17 1f 3e ef 28 29 be
       0.04417668 0.1407368 0.15536384 -0.16519521
0000a0 67 6d 23 3d 94 62 f0 bd c0 45 5e 3d f5 5a 7b 3d
       0.039899256 -0.11737552 0.054265738 0.06136604
0000b0 16 db 06 be ce 20 25 bd fa 97 a9 3d 78 db f2 3d
       -0.13169512 -0.040314488 0.0828094 0.118582666
0000c0 ea dd 02 be 3b db 0f 3e 24 22 b0 bc 5f 30 3a be
       -0.12779966 0.14048474 -0.021500655 -0.18182515
0000d0 78 93 41 3d 0a 64 97 3d 18 4f c1 3d a7 cd e9 bd
       0.047259778 0.07392128 0.09438914 -0.11416178
0000e0 8f f5 00 be 69 4a 1e be 58 dd b1 3d b9 74 16 be
       -0.12593673 -0.15458073 0.08684796 -0.14692964
0000f0 98 fc bb bc 35 e0 c4 bd 6d 0d a3 3d 43 25 21 3d
       -0.022947595 -0.096130766 0.07961545 0.039342176
000100 6a 73 d3 bd 9d 4e 24 3c fc 0c 01 3e 4b 31 21 3d
       -0.10324748 0.0100285085 0.1260261 0.03935365
000110 f7 58 d9 bd 23 ee ad bc 35 53 1f be db f7 fd bd
       -0.10612672 -0.021231716 -0.15559085 -0.1240079
000120 ff 87 34 bd 93 2e c8 bd e5 15 21 3e a4 03 af 3c
       -0.04407501 -0.09774508 0.15731008 0.02136404
000130 e6 51 ef 3d 94 ba a5 bd ec 43 ad bc bb 00 63 3b
       0.11685543 -0.080922276 -0.021150552 0.0034637887
000140 64 20 a0 bd a6 cc a1 bd 96 ee 4a be bb 60 e8 3d
       -0.07818678 -0.07900362 -0.19817576 0.11346575
000150 e5 e8 0a 3e da be 3b be c9 61 b0 bd 7f 7e 28 be
       0.13565405 -0.18334523 -0.08612401 -0.16454504
000160 c7 7c c6 bd 38 ed 11 3e 15 2b 97 3d 95 b8 2d bd
       -0.09691768 0.14250648 0.07381264 -0.04241236
000170 0d bc a9 3c d9 61 eb 3c 50 13 a3 3d d8 47 14 be
       0.020719552 0.02873318 0.07962668 -0.14480531
000180 71 15 af 3c 7f c5 53 be 83 17 9a bd 47 65 ae bd
       0.021372529 -0.20680808 -0.07524016 -0.08515411
000190 8d c8 38 3c e8 b7 2a be cf 26 7f 3c cc ff 24 3d
       0.011278284 -0.16671717 0.0155732175 0.04028301
0001a0 45 c9 dc bd d1 31 1d 3d 81 f4 38 3e 87 4b 55 bc
       -0.107805766 0.038377587 0.18062021 -0.013018495
0001b0 dd 3d c8 bd b9 9d 06 be 0d 8c c9 bd 93 2a fb bd
       -0.097774245 -0.13146104 -0.09841166 -0.1226398
0001c0 f6 13 e7 bd 2e 6a ab bd 3e 8e a1 3d 99 58 8d 3d
       -0.11283104 -0.083698615 0.07888459 0.06901664
0001d0 e0 b0 14 3e 63 c9 29 3e a8 e1 94 bd 2b f0 d8 bd
       0.14520597 0.16580729 -0.07269603 -0.105926834
0001e0 cb 94 42 3d 4f 57 d8 bd cf be 92 3d c2 da 6a bd
       0.04750518 -0.10563528 0.071653 -0.05733753
0001f0 b3 09 06 be aa c9 0e be f6 8f 24 be 1b 4b 03 3d
       -0.13089637 -0.13944116 -0.16070542 0.032054048
000200 50 ce 0a 3e 3c 66 0e 3e d5 dc 41 bd 85 47 db bd
       0.13555264 0.13906187 -0.047329742 -0.10707001
000210 e1 11 ac bd f6 09 06 be 3a 8a a2 bd cc 5f 1a be
       -0.08401848 -0.13089737 -0.07936521 -0.15075606
000220 6c 53 c1 3d 66 b5 2c be 76 a6 07 be 76 56 fe 3d
       0.094397396 -0.16866073 -0.13247094 0.12418835
000230 e9 94 0c be fb ba 10 3d 67 23 19 3e 31 c0 1e 3e
       -0.1372868 0.03533457 0.14954911 0.15503003
000240 33 f8 b4 3d 7e a1 89 bd e2 2a 65 3d 14 a6 ca bb
       0.08836403 -0.06720255 0.0559491 -0.006184349
000250 4d 39 15 bd be 95 06 bc f5 e7 15 3d 77 07 dc 3d
       -0.0364316 -0.008214412 0.036598165 0.10743611
000260 1e 51 3f 3d 26 8a bc 3d 9b 7d e2 3b 50 44 b6 bc
       0.04670822 0.09206037 0.006911946 -0.02224937
000270 6b fd 8d 3d 80 8a 38 3d ca d5 26 be 92 55 04 3d
       0.06933101 0.04505396 -0.16292492 0.03230817
000280 8d cb bd bd 62 d5 cc bd f5 21 94 3d 84 98 75 3c
       -0.0926734 -0.10001637 0.07233039 0.014989976
000290 d1 e0 2a 3d c0 73 bb bd 2f 87 72 3d c2 7f 35 3e
       0.041718308 -0.09152937 0.059210952 0.17724517
0002a0 36 29 a1 3c 3f d5 95 3d ba a4 1a be 73 8b ef 3d
       0.019672971 0.07316064 -0.151019 0.1169652
0002b0 b7 8b 80 3d 78 42 ad 3d 51 fd b0 3d 3e b2 44 bd
       0.062766485 0.084599435 0.08642066 -0.048021547
0002c0 cd f6 e2 b6 18 ab 36 3e 40 e1 f0 3d e8 4b f6 bd
       -6.7640563e-06 0.17838705 0.11761713 -0.12026197
0002d0 7c 1e 0e 3e 6f 8f 31 3e 4c fe cb 3c cd 83 09 be
       0.13878816 0.17339872 0.024901532 -0.13429184
0002e0 46 e7 84 3c ca 0f d1 bc 43 59 f4 3d 75 f5 31 be
       0.016223561 -0.025520224 0.11931088 -0.1737879
0002f0 be a0 3d 3d a0 32 97 3b 9f 4c 7d 3c 49 48 0a 3e
       0.046295874 0.0046141893 0.015460162 0.13504137
000300 62 7c c0 3b be 74 3e be 69 27 ed bd 6a c3 9f bd
       0.0058742026 -0.18599221 -0.115797825 -0.07800944
000310 dc 9f 38 3c 58 9e 6e 3d 73 cf e0 bc f3 be a3 bd
       0.011268582 0.058256477 -0.02744267 -0.07995405
000320 82 46 70 3d c6 61 13 be 89 20 d9 3d 41 93 da bc
       0.05866099 -0.14392766 0.10601909 -0.026681544
000330 56 eb e3 3d b0 cc da 3d 1d 62 d3 3c 7c ac 85 3c
       0.11128871 0.10683572 0.02580362 0.016317599
000340 1e 1a a6 bd ae ed de 3d cd 55 a9 3d 51 ab 34 bd
       -0.0811045 0.108851776 0.08268318 -0.044108693
000350 98 c6 64 3d 46 2a 46 bd 0f 27 c0 3d 14 94 7c 3d
       0.055853456 -0.04838016 0.0938245 0.061664656
000360 c0 2d 0a 3e e6 a5 15 be c3 9d bd 3d 6e 83 7b 3d
       0.13494015 -0.14614066 0.09258606 0.061404638
000370 5c 0f 80 3d 53 b5 00 3d 77 07 e7 3d bc 95 35 3e
       0.062529296 0.031422924 0.11280721 0.177329
000380 72 de 6e bd d7 7b 32 be 62 fd fb 3d a3 5f 86 bd
       -0.05831761 -0.17430054 0.12304188 -0.0656121
000390 41 be 8c bd db fc a0 3d 02 94 bd 3d 78 69 03 3c
       -0.068722256 0.07860728 0.09256746 0.008020751
0003a0 4d 30 25 bd 06 17 b4 3c 97 e4 36 3e 8a 0a ec 3d
       -0.040329266 0.021983635 0.17860638 0.11525448
0003b0 dd d4 93 3d 39 a8 db 3d d3 a5 b0 bd bc b0 0e 38
       0.07218335 0.10725445 -0.086253785 3.4020035e-05
0003c0 39 1c 3a be 60 68 cc 3d a8 b9 29 be e5 7a 4a be
       -0.18174829 0.099808455 -0.16574728 -0.19773443
0003d0 b6 96 44 be 42 34 c2 3d a9 5d 3b 3b f2 19 d5 bc
       -0.19198117 0.09482624 0.0028589761 -0.026013348
0003e0 45 ac 9f bb 96 5d 8f bd aa 17 aa bd ea a2 14 be
       -0.004872831 -0.07000272 -0.08305295 -0.14515272
0003f0 3b 73 2b bd f9 5a d8 bd e9 d8 27 bd 40 94 bb 3d
       -0.04185794 -0.10564227 -0.040978346 0.09159136

emb_net.v_lins1.4.bias f4 [32]
000000 3f 21 2d be 12 c2 da 3c 53 26 53 bd 20 0e d3 bd
       -0.16907214 0.026703868 -0.05155022 -0.103054285
000010 d2 9a 07 3d 2f 71 30 3e f8 a1 17 3e 42 7c cc 3d
       0.033106633 0.17230676 0.1480788 0.09984638
000020 cf 77 09 be b9 2f d1 3d 75 d4 ba 3d 7f fe 74 3d
       -0.1342461 0.102141805 0.09122554 0.05981302
000030 d8 77 35 bd f4 63 0d bb 83 07 c2 bd 01 59 13 bd
       -0.044303745 -0.002157447 -0.09474089 -0.035973553
000040 b8 5a ea bc c5 de cb bc f1 31 33 be e6 ab 7f 3d
       -0.028607711 -0.024886498 -0.1749952 0.062419794
000050 81 cb 13 be 1c b2 06 be 73 66 94 3d 68 1a 14 be
       -0.144331 -0.13153881 0.07246103 -0.14463198
000060 07 2c 2d 3e 88 c1 2d 3e 42 4a 65 bd b9 35 f0 bc
       0.16911326 0.16968358 -0.05597902 -0.029322492
000070 81 83 09 be 11 6c 4d 3c 73 ff 02 3d f0 90 c2 bd
       -0.13429071 0.012537972 0.031981897 -0.09500301

emb_net.v_lins1.5.weight f4 [32, 32]
000000 5b 32 45 3d 78 5b 03 bd 7a b2 ce bc 3a a7 2f bc
       0.048143726 -0.032069653 -0.025231589 -0.010721022
000010 11 82 15 be 90 c8 ca bd 35 cc 4a 3d 27 8f 39 3e
       -0.14600398 -0.099015355 0.049511153 0.18121015
000020 82 f0 f6 bd f0 df 11 3e 2d 50 2e 3d 1b ed 4a bd
       -0.12057592 0.14245582 0.04255693 -0.049542528
000030 1f 29 17 3d b9 b7 e9 3d e3 d2 32 3d 17 a7 26 3e
       0.03690445 0.114119954 0.04365815 0.16274677
000040 a7 0d 2b bc 80 86 e9 bd a0 ce 2b 3e 0d f5 a0 bc
       -0.010440267 -0.11402607 0.1677804 -0.0196481
000050 f3 07 e3 3d 84 1f 04 3e 0e 3f 58 3d 0f 1b f2 bd
       0.110855006 0.12902647 0.05279451 -0.11821567
000060 11 49 28 be 57 a2 c9 3d 8d b6 8e 3d e2 ff ed 3d
       -0.16434123 0.09845417 0.069684125 0.116210714
000070 18 2f f6 bd 54 a4 27 3c df f2 3d 3e ea f1 d3 3d
       -0.12020701 0.01023205 0.18549679 0.10348876
000080 32 3f 4b 3e 98 9a e4 3d 47 1d 7a bd be b6 05 be
       0.19848326 0.11162299 -0.061063077 -0.13057992
000090 0a e0 07 be f4 36 39 3d cb c5 d6 bd eb 01 38 3d
       -0.13269058 0.045218423 -0.10486945 0.044923704
0000a0 ba 7a d8 3a bc 7d e4 3d 78 b5 8a 3d 7b bd c2 3d
       0.0016516068 0.111567944 0.06772894 0.09508797
0000b0 a2 2d 31 3c 36 95 88 3d 2d 4b b5 bd 90 d7 7f bd
       0.010814102 0.06669085 -0.08852229 -0.062461436
0000c0 f7 09 01 bc 82 a8 e8 bd 97 0a 0f 3e c1 a6 1a bd
       -0.007875911 -0.11360265 0.13968883 -0.037756685
0000d0 ed 1a 1b 3d 29 23 ea 3a 45 9d a2 bb 7c 1a b1 bd
       0.037867475 0.0017863262 -0.0049625956 -0.086476296
0000e0 e5 1d 55 bc ee 0e 30 be 4b 0c a6 bd 25 ef f4 3d
       -0.013007616 -0.17193195 -0.081078134 0.11959676
0000f0 98 1d 38 be 80 d1 b9 b8 23 86 fb bb 91 d5 4b be
       -0.17980039 -8.86051e-05 -0.0076759025 -0.19905688
000100 43 c8 22 3d 0c 32 08 3e 04 1f ae 3d 53 4f 3e 3b
       0.039741766 0.13300341 0.085020095 0.002903898
000110 c6 0c e3 3d 49 52 e8 bb 68 a0 83 3d 34 47 ed 3c
       0.11086421 -0.0070898873 0.064270794 0.028964616
000120 7a 9e a5 bd b1 78 a7 bd b8 c5 1d be 43 a4 db 3d
       -0.08086868 -0.08177317 -0.15407455 0.1072469
000130 08 10 9a 3d 7c cf a9 bd ca b0 38 bd 83 68 28 3d
       0.07522589 -0.08291528 -0.045090474 0.041115295
000140 fb d9 20 be 62 69 84 3b c8 bd b9 3d 58 d5 82 3b
       -0.15708153 0.004040883 0.09069401 0.0039927177
000150 4b 64 ba 3c b8 d4 e8 3d ef 31 be 3d ee 6b 30 be
       0.022752902 0.11368698 0.09286868 -0.17228672
000160 74 b2 79 3d b9 2c 1a be 93 8a aa 3d e4 45 38 3e
       0.0609612 -0.15056123 0.08327212 0.17995411
000170 c5 69 54 bb 12 7f 98 bd 7f 61 af bd 37 bf 88 bd
       -0.0032411676 -0.07446112 -0.08563518 -0.06677096
000180 19 55 1d bd 2f 03 c0 bd fa 00 25 3e 70 d8 e3 bd
       -0.038411234 -0.09375607 0.16113654 -0.111252666
000190 f2 2f a7 3d 58 d8 36 be 04 d4 8f 3d d3 c8 15 3e
       0.08163442 -0.17855966 0.07022861 0.1462739
0001a0 59 bc 0c be c0 6d c2 bc 90 4f c9 3b d4 e3 36 be
       -0.13743724 -0.023733974 0.006143518 -0.17860347
0001b0 1f da 17 be 1d fb 36 3d 88 09 27 3e c0 93 82 bd
       -0.148293 0.044673074 0.1631223 -0.06375837
0001c0 c3 1c 6e ba 97 c1 1c be 32 a9 15 be ac d1 07 3e
       -0.00090832653 -0.15308224 -0.14615324 0.13263577
0001d0 4b b1 12 3e f5 19 8f bd 2b 5d d9 bd f8 2c 2c bd
       0.14325444 -0.06987373 -0.106134735 -0.042035073
0001e0 3e 66 55 3d 20 c3 24 be ee 75 e1 bd 0c ae c0 bd
       0.05209946 -0.1609006 -0.110088214 -0.09408197
0001f0 0f 23 ce bd de d5 26 bc 6e 1b ce 3d f2 ad 41 bc
       -0.10065281 -0.010182826 0.100638255 -0.011821257
000200 75 9c 47 be 19 a5 12 3e e6 2e 14 3e a0 71 69 3d
       -0.19493277 0.14320792 0.14471015 0.056993127
000210 2b a7 b8 3d c8 4e 5e 3d 19 2f 01 3e 47 80 1e be
       0.0901626 0.05427435 0.12615623 -0.15478621
000220 a7 40 0a be 5d 21 9f ba f1 9e dc bc 56 10 ed bd
       -0.13501225 -0.001214068 -0.026931258 -0.115753815
000230 e7 61 37 be 3c 02 20 be ef e6 94 3b 55 ff 03 3e
       -0.1790844 -0.15625852 0.004544131 0.1289037
000240 b1 26 d3 3d 87 ac 45 3d 5a 44 08 be 08 e5 99 bd
       0.10310114 0.048260238 -0.13307324 -0.07514387
000250 ad 3c e0 3c 0c c4 51 be 87 49 57 bd dd c6 ba 3c
       0.027372682 -0.20484942 -0.052560356 0.022799904
000260 c3 03 24 3e 6f 26 eb bc 8d be 11 3e d4 db 32 3b
       0.1601706 -0.02870485 0.14232846 0.0027291672
000270 9a 41 14 be fb 47 20 3e 6c b1 03 3e 12 ec 1f be
       -0.1447815 0.15652458 0.1286065 -0.15617397
000280 7e 4c ac bd 92 47 87 3d df a4 bf bd 52 3d 1f 3e
       -0.08413027 0.06605448 -0.093576185 0.15550736
000290 e8 cd 8e bd 95 c0 d3 bd 7b 09 cc bd 7f b0 17 3e
       -0.06972867 -0.103394665 -0.09962746 0.14813422
0002a0 cd e5 82 bd c0 49 95 bc b6 2a cd 3d e0 8d f1 bd
       -0.06391487 -0.018223643 0.10017912 -0.11794639
0002b0 5e 6f 1b bd 55 a3 35 be 26 87 28 be 78 d9 9a bd
       -0.037948005 -0.17738087 -0.16457805 -0.0756101
0002c0 39 9a e3 3c 8f d6 e1 3d 83 ad 34 be cd 60 97 bd
       0.0277835 0.11027252 -0.17644314 -0.0739151
0002d0 87 0d 54 3d 96 04 12 3c bd d7 71 3d 97 84 0c be
       0.051770713 0.008912226 0.059043635 -0.13722454
0002e0 98 2a 92 bd 07 2b 21 3d 97 8c 1c be 44 9f c3 3d
       -0.0713703 0.039347675 -0.15288006 0.09551862
0002f0 f4 3e 36 be 8c 53 ba 3d c1 e7 cc 3c f6 4f 57 bd
       -0.17797452 0.090979666 0.025012853 -0.05256649
000300 f5 1e e1 3c 87 97 01 3e d4 91 f0 3d dd 45 ec 3d
       0.027480582 0.1265546 0.117465645 0.11536763
000310 5f 77 b7 bd 1f fd 87 3d fa d8 2b 3e 5a 87 0e 3d
       -0.08958315 0.06640076 0.16781989 0.03479705
000320 c1 42 c4 3d a4 e7 c7 bd f2 48 0c 3e 17 c3 0d ba
       0.09583045 -0.09760979 0.13699701 -0.0005407794
000330 ac 74 fd bd 2d 4f 4a bd 99 6f 2b 3e 61 fd 8d bd
       -0.12375769 -0.049391914 0.1674179 -0.06933094
000340 8a e1 33 bd ba 14 b0 bd 55 4b c0 bd ea 57 00 3d
       -0.043916263 -0.08597703 -0.093893684 0.03133384
000350 56 3c c1 3d dc d9 91 3c be 36 34 bd a2 b2 53 3c
       0.09435336 0.017804079 -0.04399752 0.012921007
000360 6c f1 e2 bd 49 05 ba bd ce 37 d5 bb ca 8d 11 be
       -0.11081204 -0.09083039 -0.0065068966 -0.14214244
000370 6d cd 9d 3d 0d f6 17 3d 08 b8 9a 3c 50 bc dc bc
       0.077051975 0.037099887 0.018886581 -0.026945263
000380 b3 61 0e 3e da 82 18 3e 3d 91 c1 3d ac 04 b3 3d
       0.13904457 0.14893666 0.0945153 0.087411255
000390 12 cf 83 bd 13 c8 9d 3d df 95 fa bd fb 1a 94 3d
       -0.0643598 0.07704177 -0.12235617 0.072317086
0003a0 7d 69 09 be b9 8e 4e 3d c9 11 00 3e 40 53 1d 3e
       -0.13419147 0.05042908 0.12506784 0.15363789
0003b0 88 c6 08 3e cb 6c 8c 3d c4 fa c0 3d a0 9e 30 3d
       0.13356984 0.06856688 0.0942283 0.043120027
0003c0 e3 cd 00 3e c3 31 c2 3d 73 30 78 3d 5d 31 68 bd
       0.1257854 0.094821475 0.06059308 -0.0566877
0003d0 e3 db b7 bd ec 38 39 bd 2b ab a1 3d 83 ce dd bd
       -0.08977487 -0.0452203 0.07893976 -0.108304046
0003e0 7f 1f a2 3c f0 0f 3c 3e 6b 49 1b 3e e8 31 0f be
       0.01979041 0.18365455 0.15164725 -0.13983881
0003f0 3d 44 39 3d cd 25 06 3e 1c 91 25 be 0d 02 be 3d
       0.045231093 0.13100357 -0.16168636 0.09277735

emb_net.v_lins1.5.bias f4 [32]
000000 21 df 67 3c 24 76 2c be cb 19 39 3d 7c 5c 9b bd
       0.014152319 -0.16841942 0.045190614 -0.07585999
000010 1d d4 2d bd 5c f6 bf bd 62 57 48 3e 00 f8 f5 3d
       -0.042438615 -0.09373161 0.19564584 0.12010193
000020 b6 eb 9a bd a3 64 2f bd 39 e0 5b 3d 49 d7 89 3d
       -0.075644895 -0.042820584 0.053680632 0.067305155
000030 f5 28 ab bd ac e2 90 3d 96 b9 ea 3c 42 64 d0 3d
       -0.08357421 0.07074484 0.028652947 0.10175373
000040 69 84 c3 bd 2a 08 ea bd 64 56 a4 3d fd 23 ee bb
       -0.095467396 -0.114273384 0.0802429 -0.0072674737
000050 fa c6 9e bd 5f f4 0d 3e 24 fd a3 bc f0 20 f2 bd
       -0.077527955 0.13862751 -0.020018168 -0.118226886
000060 7b 52 cc bc 39 94 a7 bd 16 70 78 bd 07 11 15 be
       -0.024941674 -0.08182568 -0.06065377 -0.14557277
000070 6b 3c 10 3e bb 28 1f 3e 54 f0 1b be 57 50 e3 3d
       0.14085548 0.15542881 -0.15228397 0.11099308
