pretrained/tsp_nls/500/tsp500_sd0/50.pt (torch, 348837 bytes, 229 tensors)

emb_net.v_lin0.weight f4 [32, 2]
00000000: 55a4 60bc ef13 bf3e 16e2 0bbf 1c11 08bf
00000010: 8d7c 80be cdfb 2c3e bfb0 cf3c 4c3a 0a3f
00000020: 96a1 4bbd aaaa 443e 2519 46be 93b7 26be
00000030: 254e 27bf 6231 fbbe 9d1a 9cbe b281 4c3c
00000040: 8a06 763e 5019 d43e 9fd9 e1be 440e adbe
00000050: 0a69 743e cc6e 143f a68f 1fbe 1a9c 0d3f
00000060: 84a2 bcbd dcdc 533d 7e0d 1d3f f3c8 20bf
00000070: b52a dfbe d523 35be 5c10 92be 5908 183f
00000080: ebff e3be 667e a3be 9359 edbe 799a 23bf
00000090: 2979 c2be 9068 143f 5114 973e 2901 a73e
000000a0: d078 543d 6331 acbe 4b91 ad3d 52c1 22bf
000000b0: 97f6 03bf 6969 b6be 5ecd e53e 95d2 e03e
000000c0: fdfe 97be f7ca 0abd 2be3 d83e 44d7 3a3f
000000d0: 598c 8d3e a34b ca3d 0a41 db3e 0995 c8be
000000e0: f5eb 143e 982f 0abf b907 f3be 0ae1 c1be
000000f0: cf43 a93e 000c 9a3e 656a d5be 8181 6e3e
-0.013711055 0.37319896 -0.54641855 -0.53151107 -0.25095025 0.1689293 0.025352834 0.53995204
-0.049714647 0.19205728 -0.1934553 -0.16280966 -0.65353614 -0.49061114 -0.30489054 0.012482094
0.24025932 0.41425562 -0.44111344 -0.33799946 0.23868194 0.5798156 -0.15582141 0.5531632
-0.09210685 0.0517243 0.6134871 -0.62806624 -0.4358727 -0.1768945 -0.28528106 0.5938774
-0.44531187 -0.31932372 -0.46357402 -0.6390758 -0.37983063 0.5797205 0.29507688 0.32618073
0.05187303 -0.3363143 0.08474978 -0.63576233 -0.5154814 -0.35627297 0.44883245 0.4391066
-0.29686728 -0.03388497 0.42360815 0.7298472 0.2764614 0.09877708 0.42823058 -0.39176205
0.14543135 -0.5397887 -0.4746683 -0.37867004 0.33059546 0.3008728 -0.41682735 0.2329159

emb_net.v_lin0.bias f4 [32]
00000000: dee8 e33e 9d24 c1bd 0335 0f3d 59a4 273e
00000010: 804b d03e 6a78 4c3f f906 0bbf 2ec4 7abe
00000020: e889 6e3e f300 123f d6b6 253f f0ea 2c3f
00000030: 9845 463e 8ca3 21bf da8d a13d 181d e5be
00000040: 7b9f 24bf e40f 1d3f be47 093f a74f 39bf
00000050: aa4e e83d 5248 11be 7d3c d9bd e1be 95be
00000060: 86a5 963e bd35 cabe fbb7 973e cf3b 9f3e
00000070: dced 063f a7ec 833e d4cc 31bf 60d3 dbbe
0.445136 -0.094308116 0.034962665 0.16371287 0.40682602 0.7987124 -0.54307514 -0.24488899
0.23294795 0.570327 0.6473211 0.67545986 0.19362485 -0.6314018 0.07888384 -0.4474876
-0.6430585 0.6135237 0.53625095 -0.72387165 0.11343129 -0.14187744 -0.1060724 -0.29247192
0.2942316 -0.39494124 0.29632553 0.31100318 0.52706695 0.2576649 -0.6945317 -0.42934704

emb_net.v_lins1.0.weight f4 [32, 32]
00000000: 076a b83d c786 c13c 3a05 08be 5586 cebd
00000010: 1e77 2d3e f494 013e 26da c0bd e161 25bd
00000020: e9a9 35be 9141 0ebb ab73 0abe 71cb 07be
00000030: c4de 80bb a153 853c a899 92bd f0f4 d73d
00000040: e482 f7bd 6fe8 173e 3e2c fe3d a9ab 69be
00000050: 96be 4ebd bc24 1cbb 3b19 8e3c b569 52bd
00000060: 1e06 963d 5881 68bc 1737 c3bd 48df 9c3d
00000070: 343e 33be 4c83 dfbd 7972 eebd c423 a9bd
00000080: bb61 3fbd 0117 2bbe 9091 30bd 72de 513d
00000090: f66c f3bd f193 93bc 9b9c 9e3d bfd0 d3bc
000000a0: c46b 2f3c 706c d9bc f750 2e3d e11b d93d
000000b0: 4256 233e b02c fc3d 9071 1f3e 7cc8 6dbc
000000c0: e385 42be e077 cdbd 3b80 eb3d 7477 813a
000000d0: 5411 d7bd 042e 11be d82b 3abe ab68 14be
000000e0: 2a1c 32bd 6402 ca3d 5cd7 ce3d ff38 25be
000000f0: 2ed4 e43d a7fa 1abe ac06 0ebd 85fc 9bbd
00000100: 0fe5 2dbd 169a 75bd 95b3 20be 8d2e 26be
00000110: be15 e0bc 00bd a9bb befe eabd 8cb0 873d
00000120: 5a08 13be acf2 9bbc 894c 273e e161 9abd
00000130: fb1a 233e a910 863d ac40 26be ee9d dd3d
00000140: a547 3dbd 4ca8 e7bd 2210 103e a2f1 09be
00000150: e35b 8f3c 48e8 33bd 05b2 e93d e920 653d
00000160: fe4f aa3d 9a21 8c3d 8d6e 22bd aad5 15bd
00000170: 2ab7 15be 6e5d ae3d e67c 153e eb95 fa3d
00000180: e1fb 15be 8af1 b33b 073f 02be 6352 08be
00000190: e69d e6bd 5a58 613d 9f74 ccbd 7608 b7bb
000001a0: a8b1 503c 002b e13d 9124 01be 63bf 05be
000001b0: 0a86 dcbd 5252 0d3e 8f8f 84bd a22f 0f3e
000001c0: e688 863d cfd7 853c b200 cfbb 503d cebc
000001d0: 9022 de3c 46ef 11bd 546e 0cbb 2ccd fb3c
000001e0: da01 10be 706d b0bd 8241 193e a0a5 08be
000001f0: 0b57 dbbb 4b64 2f3e 2670 953d 750f f93b
00000200: 88ab 2ebe ea8e 943d 0a0d 0abe 133b 95bd
00000210: e658 92bd f19e 12bd c11e 52bc c8ab 0a3e
00000220: 36df bf3c 52a4 163e ddff d63d 898d febd
00000230: df9d 8d3d 6b03 e9bd a833 aebd e8ec 143d
00000240: 68ec 303d 8411 f13d 8207 8abd 4be3 8eba
00000250: e1cd c63d 4b83 2cbe b453 ea3d 3eac 12be
00000260: e0c8 d8bb 468d 38bd be35 acbd e9ec 063d
00000270: 1d6b 1c3e ba56 80bd ccd6 d1bd 4f52 98bd
00000280: 040c 34be 27e5 963d 1034 a2bd ed5e ffbd
00000290: 7aed cabd b116 e53d 5b54 943d b3fb 0e3e
000002a0: 6d6f 053d fcd6 53bd d6e6 bcbd caf8 5c3d
000002b0: 2ab1 1a3e 137d 163d b224 a2bd f20b acbd
000002c0: 3b23 37be 845b 253d de2f c3bd c7ff 3ebe
000002d0: e77b 193e 6274 f8bd a925 b1bc 11a7 c93c
000002e0: 8bab 493c 3155 2abe 0aab 1ebe 85af 063e
000002f0: 835d c93c c6e2 183e ca4f aebd 8ff8 593d
00000300: 0de5 13bd 6b0f 76bd 8b54 cebd 0d35 793d
00000310: ea89 763d 8fa4 09bb bef5 aebd 3b19 d3bd
00000320: 32de e93d ce02 0fbe 43fa 943d 3287 5ebd
00000330: d715 a2bd c1fb cc3c 2a69 bfbd c973 323d
00000340: 137a 05bc 282d 5dbe afae 0d3d f2c0 2c3d
00000350: cbee 743d 0457 1cbd 57e9 29be 7d97 5fbd
00000360: f216 873d 901b b3bd aa05 6e3d 7c12 e43d
00000370: d8f3 cebd aa72 88bc 015a 2d3d 2144 a73c
00000380: 4663 4dba d7d1 f63c 446d 10be 5e13 14bb
00000390: a65e df3d 7422 453e 0d20 be3d 19dd 0b3d
000003a0: 075a 5e3d c0dd 71bd 7a3a 2dbe 106d 27be
000003b0: 59a9 303e 0fe3 fa3d 8f4f c9bd 3f3a 753d
000003c0: b96e 053e ad1a 473e 3916 153e de48 cb3d
000003d0: 2220 d7bc 2f89 43bd a9b5 203e 7631 723d
000003e0: 7f0a a8bd 148b 013e 80c9 493d 1514 d23d
000003f0: 8992 c6bd c548 913d d4b4 d0bd e15d 0b3e
0.09004598 0.023623837 -0.13283244 -0.100842156 0.16939971 0.12654477 -0.094166085 -0.040376548
-0.17740597 -0.002170656 -0.13520686 -0.132612 -0.0039328057 0.016275229 -0.07158214 0.10544765
-0.12085512 0.1483476 0.12410782 -0.2281939 -0.050474726 -0.0023825606 0.017346015 -0.05137034
0.073253855 -0.014190994 -0.09531992 0.07659775 -0.17504197 -0.10913715 -0.11642928 -0.08258775
-0.046724062 -0.16707994 -0.04310757 0.05123753 -0.11886017 -0.01801488 0.07744714 -0.025856374
0.010706846 -0.026540965 0.042557683 0.106010206 0.15950873 0.12313211 0.15570664 -0.014513131
-0.18996386 -0.1003263 0.114990674 0.0009877519 -0.10501352 -0.1417771 -0.18180788 -0.14493053
-0.04348389 0.09863737 0.1009967 -0.16135024 0.111732826 -0.15134679 -0.03467433 -0.07616524
-0.042454775 -0.0599614 -0.15693505 -0.16228695 -0.027354117 -0.0051800013 -0.114743695 0.066254705
-0.14358655 -0.019036613 0.1633779 -0.075382 0.15928261 0.065461464 -0.16235608 0.10821138
-0.046210904 -0.11311397 0.14068654 -0.13471082 0.01749987 -0.043922693 0.11410908 0.05593959
0.083160385 0.068423465 -0.03965621 -0.03658072 -0.14620653 0.08513914 0.14598426 0.12235626
-0.14646865 0.00549144 -0.12719356 -0.13312678 -0.112605855 0.0550159 -0.09983181 -0.0055857254
0.012737669 0.1099453 -0.12611605 -0.1306129 -0.107677534 0.13800934 -0.06472694 0.13983014
0.0656908 0.016338257 -0.0063172216 -0.02517572 0.02711609 -0.03562858 -0.0021428065 0.030737482
-0.14063206 -0.086146235 0.14966395 -0.13344431 -0.006693726 0.17128102 0.07296781 0.0076007196
-0.17057621 0.07253821 -0.13481537 -0.07286658 -0.07145862 -0.03579611 -0.012824715 0.13542092
0.023421865 0.1471112 0.10498021 -0.124293394 0.06914877 -0.11377605 -0.085059464 0.036358744
0.043194205 0.11770919 -0.06739713 -0.0010901479 0.09707237 -0.1684696 0.11441746 -0.14323518
-0.006615743 -0.045056604 -0.08408688 0.03294078 0.15275235 -0.06266542 -0.102460474 -0.07437574
-0.17582709 0.07367926 -0.079200864 -0.124692775 -0.09908576 0.11185969 0.07242652 0.13963203
0.032576967 -0.051718697 -0.09223716 0.0539482 0.15106645 0.036740374 -0.07917155 -0.08400716
-0.17884533 0.04037048 -0.09530614 -0.18652259 0.14988671 -0.12131573 -0.021624403 0.024615796
0.012308965 -0.1663406 -0.15494934 0.13152893 0.024580723 0.14930257 -0.08511312 0.05321556
-0.03610711 -0.060073297 -0.10074719 0.06084161 0.06019012 -0.0021002626 -0.08542965 -0.10307547
0.114193335 -0.13965914 0.07274296 -0.05432815 -0.07914322 0.02502239 -0.0934623 0.043567453
-0.008146781 -0.21599257 0.03459042 0.042176194 0.059798043 -0.038168922 -0.16592918 -0.05458783
0.06596173 -0.087454915 0.05811087 0.11136338 -0.10105103 -0.016656239 0.042322163 0.020418229
-0.0007834922 0.030129356 -0.14104182 -0.0022594552 0.10906725 0.19251424 0.09283457 0.034146402
0.054285076 -0.059049368 -0.16916838 -0.16350198 0.17252101 0.12250339 -0.09829628 0.05987
0.13030519 0.1944377 0.14559259 0.09926008 -0.02626044 -0.04773825 0.15694298 0.0591292
-0.08205127 0.1265071 0.04926443 0.102577366 -0.09695918 0.07093958 -0.1019074 0.1361003

emb_net.v_lins1.0.bias f4 [32]
00000000: 61db 08bd 82d1 36be 7be1 edbd 1bc8 693d
00000010: d2ff b7bd 1159 b9bc 6e50 76bd 7909 b5bd
00000020: c5de e93c 6a10 07be 01d7 a8bd 99b8 823d
00000030: 75c4 513d c154 133e e5ff 5bbd 284e d8bd
00000040: 90c5 fdbb fcac 023d 7adf 043e 48f8 1bbe
00000050: 15e1 083d 26a9 c33d b6fa 82bd 737d 87bd
00000060: 9cf4 993d 7751 28be e528 453d b5d0 f3bd
00000070: 54b1 fd3d 3c4a c8bd 81e8 9e3d 6665 37be
-0.03341234 -0.17853358 -0.116152726 0.0570756 -0.08984341 -0.022625478 -0.060135297 -0.088396974
0.028548608 -0.13189855 -0.08244134 0.063828655 0.051212747 0.143878 -0.053710837 -0.10561782
-0.0077444986 0.031903252 0.12975875 -0.1523143 0.03341778 0.09553747 -0.063954756 -0.066157244
0.07517359 -0.16437326 0.048134703 -0.11905042 0.12387338 -0.09779784 0.0775919 -0.17909774

emb_net.v_lins1.1.weight f4 [32, 32]
00000000: 080a 45be c5b8 f4bb 4be6 0d3e 805f 5abe
00000010: f7ee 12be a7f3 cd3d c638 cfbc e478 4b3d
00000020: de20 1fbe 667a 96bd e8bb 2abd 7d54 073e
00000030: 3f38 873d 257f 04be f516 cb3c ce74 75bb
00000040: adf9 a8bd a93e 10be cdc0 ddbd 2e13 c63d
00000050: d4f5 9cbd f2ae f6bd b552 e4bd 362e cabb
00000060: cf3a 203d d0d6 94bd 9c8f 92bd 32ea 25be
00000070: c57c 06bc ab00 01be 65df f43d b7e6 44be
00000080: 9f07 f8bd b46e 0fbe 7e12 2ebc 93a6 ad3d
00000090: d0c4 df3d f242 44be 4dd1 31bb a5cf ad3d
000000a0: 7629 903d ad32 1b3e 5609 2bbd 9111 c6bd
000000b0: a56f 033e d2af 53bd 2005 bf3d d195 0abd
000000c0: 184b a73d 415a f23d f2f1 0d3e 9416 49be
000000d0: 06e0 1cbe 6541 94bd 3099 10be af10 383e
000000e0: cb54 70bd 2294 12be 4db6 07be 5ef6 f9bd
000000f0: 5a74 063d 77fc 40be 347e 4abe ed32 3ebe
00000100: 0a3c 9d3d 7118 ff3d a2b8 efbd e69e 443d
00000110: f8af 063e 4309 b23c a94f aebc d4cd d83c
00000120: 460a 9cbc 340b cb3d ade5 febd 0f31 db3d
00000130: 0d86 003e 91d0 a9bd c2a1 213e 4ef7 473e
00000140: bfd9 19bd 11a8 7cbd 30d1 c33d 06fb 04be
00000150: 4f62 6c3d 8f93 513d 688c d73d 0ff3 05be
00000160: c610 15be 0e93 b23d c9be 933d 6795 30be
00000170: b600 d9bd 2b0b 2dbe c008 eebd f147 85bd
00000180: 4558 0b3e 128c 25bc 8cf0 e83d 1289 143e
00000190: 799c 643d 61b2 35be 5994 b73d 2f99 7d3d
000001a0: 458f 093e ebd7 37be 208a cc3d 2a9b 343e
000001b0: 4899 04be 5bb8 db3c b2ed 153e 1e29 f3bd
000001c0: 90d0 9a3d 381f 5f3d e568 243d 9262 1f3e
000001d0: 1ec2 0a3e 5354 143e eb9c 21bd 27ff 363e
000001e0: dbe4 2fbe 95e4 cfbd 7cc2 95bd 9506 84bd
000001f0: 5f63 183e 65e5 833d a17e f43d 35ae f03d
00000200: 16ee 00be 246b 8fbd dc9a b1bc 7656 5f3d
00000210: 20fc c23d b9f8 76bd dfe1 d4bd 676e 0e3e
00000220: 731d b8bd 968a 32be b70c fb3d b797 d53d
00000230: 2db6 69bd 438e 25bd 912e 3cbe 1ec1 4bbe
00000240: cd18 9f3c 3ef5 83bd c46d 153e 1f64 f7bd
00000250: 7c44 f0bc 7cec 32bd 9451 db3d f405 0f3e
00000260: 49c5 163e 2b4d 913d 629f 7fbd 1000 f4bd
00000270: d7ea 09be df30 1a3c 620a 453e 538b b5bc
00000280: 7d8a 21bd a65b f1bd b7be 8b3d 506e a53d
00000290: 8209 4dbe b877 1bbe 0418 f73d 0c86 6f3c
000002a0: 4378 43bd b9fc cbbb 4f72 13bd 5418 c6bd
000002b0: 97bc 0abe 2c3b 0a3e 71c6 1cbd 49a3 82bd
000002c0: 4724 36bd 308a f0bd 7c81 8fbd 8c7f 4ebe
000002d0: 1cf1 e03d 0944 313d 0e8a 13be 5465 47bd
000002e0: 4bac 6a3d c09d cbbd 3251 a03c a42c 993c
000002f0: 37b3 03be a131 a13c eb7a 1bbd e028 eb3d
00000300: 398b e2bd 2926 09bd 3495 0f3e 70d7 23be
00000310: 08cd 7abc 433f 0c3e bbc1 e4bd e310 133e
00000320: cafc e53d 91b1 d33d 1314 4c3c 17cc 3b3e
00000330: ec11 83bd 497a 4abd a279 dc3c bd15 e43b
00000340: 6b01 a33d 874d 293e af2a 12be bc55 873d
00000350: a157 ef3c 9a87 663d aa9d 843d 06d9 72bd
00000360: 124d e4bd 005e aa3d 57c9 cfbd ca05 983d
00000370: 4930 07be 1283 61bd 3e75 fdbb 5faa 043d
00000380: 74f6 95bc fd25 843d 8d4a 11bd fd82 443d
00000390: f26b 2c3e c226 f7bd 8ec3 04bc 6203 bbbd
000003a0: 93f4 2f3e 0d51 213e f95a ed3c a8b6 b3bd
000003b0: b489 20be d8b0 923d c29e 42bc 1dc9 283e
000003c0: fbad d43d 0aab 243e 5033 fb3d 3a08 0cbe
000003d0: adfb 943d bc10 87bd 3f53 953d 4dac 5bbd
000003e0: 6fd5 4c3d 66eb 14be 697c 03be c2a0 693d
000003f0: b53f 9c3d b403 a53b 18ca ba3d 4e69 d3bd
-0.19242108 -0.0074683153 0.13857381 -0.21325493 -0.1434897 0.100562386 -0.025295626 0.049675837
-0.15539882 -0.073475644 -0.041683108 0.13215823 0.06602525 -0.12939127 0.02479122 -0.0037453654
-0.08250747 -0.14086403 -0.108277895 0.09671627 -0.076640755 -0.12045087 -0.111485876 -0.0061700596
0.039118584 -0.07267535 -0.071562976 -0.1620262 -0.008208458 -0.12597911 0.119566716 -0.19228636
-0.121108286 -0.14007074 -0.010624526 0.08479037 0.10926211 -0.19166163 -0.002713281 0.08486871
0.07039158 0.1515605 -0.04175695 -0.09671319 0.12835558 -0.051681347 0.093271494 -0.033834282
0.0816862 0.11833621 0.13861826 -0.19637519 -0.15319833 -0.072390355 -0.14120936 0.17975114
-0.058674615 -0.1431432 -0.13253136 -0.12205194 0.032825805 -0.18846308 -0.19774705 -0.18574114
0.07677467 0.12455834 -0.11705138 0.0480031 0.13153064 0.021732932 -0.02127822 0.026465334
-0.019047868 0.09914246 -0.12446151 0.107027166 0.12551136 -0.08291734 0.15784362 0.19527933
-0.037561174 -0.061683718 0.09561384 -0.12986383 0.057710942 0.051166113 0.10524827 -0.13081001
-0.1455718 0.08719455 0.07214124 -0.17244492 -0.10595839 -0.16898791 -0.11622763 -0.06507862
0.13607891 -0.010104196 0.11374006 0.14505413 0.055813286 -0.17743827 0.08963842 0.061913665
0.13433559 -0.1795346 0.09987283 0.17637315 -0.12949097 0.026821306 0.14641455 -0.11873077
0.075593114 0.054473132 0.040139098 0.15564945 0.13550612 0.14485292 -0.03945629 0.1787077
-0.17177145 -0.101510204 -0.073124856 -0.06446568 0.14881657 0.06440238 0.11938215 0.11751977
-0.12590823 -0.07002857 -0.021680288 0.054525815 0.09520745 -0.060295794 -0.10394644 0.13909303
-0.08989992 -0.17435679 0.122582845 0.10429328 -0.057058502 -0.040418874 -0.18377139 -0.19897887
0.019421006 -0.064432606 0.14592654 -0.120796435 -0.02932953 -0.04368256 0.10708919 0.13967115
0.14723696 0.07094797 -0.06240786 -0.119140744 -0.1346849 0.009411066 0.19242242 -0.022161162
-0.039438713 -0.11785059 0.06823485 0.08077681 -0.20023158 -0.15182388 0.120651275 0.014619362
-0.047722112 -0.0062251952 -0.035997685 -0.09672609 -0.13548504 0.13499135 -0.038275186 -0.063788004
-0.04446819 -0.11745107 -0.07007119 -0.20165843 0.10983488 0.043277774 -0.14408132 -0.04868062
0.057293218 -0.09942198 0.019569967 0.018698044 -0.12861334 0.019676985 -0.03795902 0.11482406
-0.11061711 -0.033483658 0.1402176 -0.16000152 -0.015307672 0.13696007 -0.11169764 0.1436191
0.11229856 0.103366025 0.012455958 0.18339573 -0.06399903 -0.049433026 0.026913468 0.006960599
0.07959255 0.1653348 -0.14274095 0.066081494 0.02921659 0.056281663 0.064753845 -0.059289
-0.111475125 0.0831871 -0.101458244 0.07422979 -0.13202013 -0.05505664 -0.0077349236 0.03238904
-0.018305995 0.06452558 -0.035471488 0.047976483 0.16838053 -0.12067939 -0.0081032645 -0.091315046
0.17183141 0.15753575 0.028974043 -0.08775073 -0.1567753 0.071626365 -0.011878671 0.16482969
0.10384747 0.16080871 0.122656465 -0.13675013 0.07274566 -0.06594989 0.072912686 -0.053631116
0.050008234 -0.14542922 -0.12840427 0.057038076 0.07629339 0.005035842 0.091205776 -0.1032282

emb_net.v_lins1.1.bias f4 [32]
00000000: aca2 e53d 036e 74bc 574e abbd 7357 49bd
00000010: 4e8e 923d 51fc 85bc 77ac a53d 56d6 0ebe
00000020: 55fe b7bd dbfa 063e 862a 9c3c 65f9 893d
00000030: 033f 463d d4ac 00bd f5c3 7ebd ad15 5e3d
00000040: 3ffa e4bc ebfb 9dbd ef7e 813c 2a78 433d
00000050: 9f62 3ebc 81c7 10be c7a4 c8bc 8132 97bd
00000060: 6e1f cc3d 4532 ccbd 6284 113e c181 b63d
00000070: 30fc 26be 148d ff3d f933 31be dc65 03bc
0.11212668 -0.014918807 -0.083645515 -0.049155664 0.07156049 -0.016355665 0.08089536 -0.1394895
-0.08984057 0.13181631 0.019063246 0.06737021 0.048399936 -0.03141482 -0.062198598 0.05421989
-0.027951358 -0.07714065 0.015807597 0.04772202 -0.011620193 -0.14138605 -0.024492634 -0.0738268
0.09966932 -0.09970526 0.14210656 0.08911467 -0.1630714 0.124780804 -0.17304982 -0.008019891

emb_net.v_lins1.2.weight f4 [32, 32]
00000000: a1d5 48be 93f9 21be 5995 da3b 7744 febd
00000010: efd2 b23d 521f 19be dfea 0d3e 0e5e c93d
00000020: 4138 183e 0db5 8abd 3060 bbbd 3967 10be
00000030: 8852 c73d c811 0bbe f085 5bbd b5af 81bd
00000040: 2ed3 e53c bf32 06be eabb 073e fd4d 0fbe
00000050: c601 403e 2594 fabc 3014 d4bd ea8c b8bd
00000060: 8633 a23d d6ab 93bd 9866 55be ad27 df3d
00000070: de62 493e 9f26 8a3d c5d6 0d3e 0e61 563c
00000080: b37a 95ba c34a 3cbe 3064 4abe 6753 06be
00000090: 8eec c7bc 3276 f53d 85a1 e7bd 5667 91bb
000000a0: e7e2 1ebd f735 00be 6dfe 0fbd 5086 083e
000000b0: 04c1 d53d 4696 043e 43bf 70bd b21b b8bc
000000c0: df31 2eba 89b0 5bbd 416a 5dbd 91bd 243e
000000d0: 5fa6 b23c f49e 09be baa1 2c3e 5330 413d
000000e0: 1741 cd3d 4666 e4bd 6101 0f3d 7e17 023e
000000f0: 9b65 19bd e513 95bd 93f7 fb3d 92e2 9a3d
00000100: 3600 c23c e5d7 173d af5c 9ebc 7392 973d
00000110: 499d aebd 44bd fabd 4d26 573d 9e25 683b
00000120: 9c49 663d ce0d 14bd 58b1 38bb d3b6 6cbc
00000130: d116 2d3d c6c1 1fbe 164f 35be e5f7 053d
00000140: 2552 a2bd a504 18bd afee 833c a5e1 42bc
00000150: 248a 9f3d 533c 833c d6e1 e13a 89b2 a1bd
00000160: c262 e93c 5da5 243d d922 9b3d edc0 3cbe
00000170: e5ff 4abd daf8 36be 3488 c0bd 8b2b 8b3d
00000180: 5ce0 09be 360b 30be 5854 a03d 46eb f3bd
00000190: 48b0 043e 5974 703d f306 563d 8538 0b3e
000001a0: 2ff3 2dbe cada 223e d8ef 333c 09ac 14be
000001b0: f339 a1ba 84e3 20bd dc1e cabd 13ab bdbc
000001c0: a478 a7bd 39f7 073e 573d 263e 9612 f93b
000001d0: 1ad7 22be 31b4 d0bb 64d5 aa3c e4aa f63d
000001e0: 772c 00bd 2e4a f63d ecca 2d3d f1fe c3bd
000001f0: cc36 19be daf0 0bbe a7e2 083c c54a 713d
00000200: ec6c 3cbc ec29 4c3e f48d 5b3c dc4b eebd
00000210: b565 10bd 1109 6bbd e5cb 3ebd 0388 1b3e
00000220: 8c4d eb3b d169 283e efd7 213d f22a 63bd
00000230: 7a5f f53d c34c dfbd 02d4 1f3d df24 be3d
00000240: 33f1 163d aabd 3dbe 98c9 4bbd d9ae b3bd
00000250: 840f c33d d28d 8f3d b118 3c3c 37de 953d
00000260: d1f2 44bd b8de 19bd e88f c83d cfe5 34be
00000270: 183a 04be 4a84 cfbc 4da8 3dbd f512 c03c
00000280: 8fd2 0d3e 32f4 84bc 728b 21be b8b7 04be
00000290: 2d4e f33d 26e5 a1bd 6868 fbbd 1404 3b3d
000002a0: 0b75 833c c9a1 41be c6b5 0f3e 2fbd e63d
000002b0: 500f 1a3e e960 943d 0386 6fbd dd0d 81bd
000002c0: 7906 dabc 2f77 03bd 1363 cd3b 79ba 49be
000002d0: 5aad ccbd 74c7 7e3d 1912 28bd 12e3 cdbd
000002e0: 834e 1fbe a3e6 d33d e0aa 4fbd 0008 41be
000002f0: 54be 2f3e 473c 5e3d 05b2 04be 1705 2dbe
00000300: e79d 553e e936 363c f38c 96bd 3a5d c33d
00000310: 7c99 19bd ad13 09bc 66b6 b3bd 435a 3ebe
00000320: 7393 28be 45e3 5cbd 85c0 debd c692 343e
00000330: 2a3f 083d 698e 8fbd 95b7 d33d c518 14be
00000340: 2b70 5dbd ee2d 9a3d 71ee 1bbe c687 a03d
00000350: 0837 4dbc 3e9a 30be e97c 2fbe 40ad 603d
00000360: 8739 aa3d bb4d 81bd c63f 34be 9d20 f1bd
00000370: a439 373d 3d86 6fbc 5cb1 123d ce67 0e3d
00000380: b1e7 0abd f8a5 683d 50a8 0a3e 8a1c 0d3e
00000390: e4aa 153e b158 b4bd d0ea b0bd a702 17bd
000003a0: aaa0 953d 435a 963d 3a9e 283b 51b3 bbbd
000003b0: 56b2 efbd 69ae 323e 6db0 a1bd 4416 36bd
000003c0: aa3b 0ebe b655 97bd df7e 393d 86c4 ad3d
000003d0: b762 9dbd 56c7 05bd 717b 0b3e 748d dcbd
000003e0: beec fabd a778 e9bb 4308 1f3e 4d04 163d
000003f0: 528f 313d 9fa9 b6bc 040b b83d 95bc e1bd
-0.19612743 -0.15817861 0.0066706357 -0.124154024 0.08731639 -0.14953354 0.13859127 0.09832393
0.14865209 -0.06772814 -0.09149206 -0.14101876 0.097325385 -0.13581002 -0.05359453 -0.063323416
0.0280548 -0.13105296 0.13255277 -0.13994594 0.18750677 -0.030588219 -0.10355413 -0.09011252
0.079199836 -0.072105095 -0.20839918 0.108962394 0.19666621 0.06745648 0.1385146 0.013084663
-0.0011404365 -0.18387894 -0.19764781 -0.13117753 -0.02440479 0.119854346 -0.11310104 -0.0044373674
-0.03879061 -0.12520586 -0.03515475 0.13332486 0.104372054 0.1294795 -0.05877615 -0.022474144
-0.00066450046 -0.053635154 -0.05405641 0.16087939 0.021807848 -0.13439542 0.16858569 0.047165226
0.100221805 -0.111523196 0.034913424 0.12704274 -0.037450414 -0.07279185 0.123030804 0.07562746
0.023681741 0.037071127 -0.019331304 0.0740098 -0.085260935 -0.12243131 0.05252676 0.0035422812
0.056222543 -0.036145978 -0.0028181877 -0.014447886 0.042258088 -0.15601262 -0.1770595 0.032707114
-0.07925824 -0.037113804 0.016105024 -0.011894618 0.0779002 0.016019976 0.0017233442 -0.07895381
0.028489474 0.040196765 0.07575006 -0.1843297 -0.049560446 -0.17868367 -0.09400979 0.067954145
-0.13464493 -0.17191777 0.07828587 -0.11910109 0.12957871 0.058704708 0.05225272 0.13595779
-0.16987298 0.15903774 0.010982476 -0.14518751 -0.0012300595 -0.039279476 -0.09869167 -0.023152864
-0.08177307 0.13277902 0.16234337 0.0076010926 -0.15902367 -0.0063691367 0.020853706 0.120443135
-0.031292405 0.120258674 0.04242985 -0.095701106 -0.1496231 -0.13666096 0.008354819 0.058909196
-0.011500578 0.19937867 0.0134005435 -0.11635563 -0.035253245 -0.057381693 -0.046581168 0.15188603
0.007180875 0.16446616 0.03951257 -0.055460878 0.11981101 -0.10903313 0.039020546 0.09284376
0.03685112 -0.18529382 -0.0497528 -0.08773584 0.09524444 0.07009472 0.011480496 0.07317775
-0.04808313 -0.037565917 0.09793073 -0.1766579 -0.12912786 -0.025331635 -0.046303082 0.02344654
0.13849853 -0.016229723 -0.1577585 -0.12960708 0.11880145 -0.07905035 -0.12275773 0.045658186
0.016047021 -0.18909372 0.14034185 0.11266553 0.15044904 0.07245047 -0.058477413 -0.06301472
-0.026614415 -0.032096084 0.006267914 -0.1970004 -0.09994002 0.062201932 -0.041032884 -0.10053076
-0.15557294 0.10346725 -0.05070007 -0.18850708 0.17162448 0.054256704 -0.12958534 -0.16896473
0.20861016 0.01112149 -0.07351103 0.09539266 -0.03749989 -0.0083665075 -0.08775024 -0.1858912
-0.16462497 -0.05392768 -0.10876564 0.17634115 0.033263363 -0.070095845 0.1033775 -0.14462574
-0.05406205 0.07528292 -0.15227677 0.07838397 -0.0125253275 -0.17246339 -0.17137493 0.054852724
0.08311754 -0.06313654 -0.17602453 -0.117737986 0.044732705 -0.014619407 0.035813674 0.034766965
-0.033912364 0.056798905 0.13540769 0.13780418 0.14615971 -0.08805979 -0.08638537 -0.036867764
0.07306035 0.07341435 0.0025729076 -0.09165061 -0.11703937 0.17449345 -0.07894979 -0.044454828
-0.13889948 -0.07389395 0.04528701 0.084847495 -0.07684844 -0.032660805 0.13621308 -0.107691675
-0.12252186 -0.0071249786 0.15530495 0.036625195 0.04334957 -0.022297679 0.08986476 -0.11022297

emb_net.v_lins1.2.bias f4 [32]
00000000: ef75 eb3d 3983 4cbd aaf6 b43d e13e 90bd
00000010: 6a96 893b 5b70 c83d 30c5 b43d 656c 2dbd
00000020: d09d c2bb 0947 d3bd d487 a93d 36a5 f73d
00000030: a4e8 4d3d c5e4 31be 3488 0ebe c074 f13d
00000040: 8602 46bc 420a e73d 0f23 073e 3fbd 4ebd
00000050: 6f84 01be ff56 2dbe 7734 8c3d 78c8 bb3d
00000060: 3b29 59bd fffc 3dbe 4c8c efbd 14e9 86bc
00000070: 4020 613d 1ab4 72bd 432f f4bd 5daa e3bd
0.114971034 -0.04992983 0.0883611 -0.07043243 0.004198839 0.09787055 0.08826673 -0.0423397
-0.005939223 -0.10316283 0.0827786 0.12092058 0.05027069 -0.17372425 -0.13919145 0.117898464
-0.012085563 0.112812534 0.13196968 -0.050473448 -0.12648176 -0.16927718 0.068459444 0.09169096
-0.053017836 -0.18553542 -0.116966814 -0.016468562 0.054962397 -0.05925379 -0.11923077 -0.111164786

emb_net.v_lins1.3.weight f4 [32, 32]
00000000: 9f67 753d b12e 543d 6cd9 16be 87c6 dabd
00000010: 03bd 4abe 7d7d ea3b 9b32 c2bd 4e25 dcbc
00000020: 99fc cebc 348f 28be e15e 46be 1be2 14be
00000030: a31c d5bd 2b9e 0d3d d971 1bbe 6af1 1abd
00000040: b1c0 873c 15f2 103e 5f99 d6bd 2867 1b3e
00000050: 4491 10be 40af 22be 2f54 913c 803a 0dbe
00000060: 240d c33d 2c5c e7bd 5c49 053e c46d 033e
00000070: 3013 383d 87a2 39bc 3c70 af3d 19cd 8c3d
00000080: acfe d0bd 2e73 85bd 89fd 52be 46de 3d3e
00000090: 741b 20bc 0073 32bb f405 14be f12e 81bd
000000a0: e979 25bc c7fd ec3d 7d39 d2bd b8e1 90bb
000000b0: fbcd ee3d c9f8 283e d116 6dbd be9e 203e
000000c0: f563 f13c a630 343e 4fb2 473d 6c1b 0abe
000000d0: b29e bcbc bd0f 643d 02ed 1c3e 5c13 10be
000000e0: 05dc e43d 02fe 19be 5979 c83d 9144 3f3e
000000f0: ed02 ff3a 6f71 883b 1a7b a73d 264e 56bd
00000100: 8fba 04be ad7e 11be 3eed 953c 3032 143e
00000110: 1dbe 1d3c fac5 3fbe c0d8 67be 148e cfbc
00000120: 8383 933d ceff 15be dcff 353c 300a e6bd
00000130: 65f0 023e 7e9b 42bd 86c5 60bd 18d9 3dbe
00000140: 44ea 95bd 1aa1 883c 3e2b 543d d6cf 0f3e
00000150: 84f3 15be 5e5f 3a3d bea2 17bc c475 e63d
00000160: 5961 04be 702b 413d 1aaf 973d 4287 b83d
00000170: b9d9 64bd 5701 9d3d fa80 c2bc f397 4b3c
00000180: 14a2 fdbd 086b f6bd 00f9 00be 1f18 01be
00000190: 4694 afbd 97ff 113d dc88 01bd 11fa f2bd
000001a0: 2a82 85bb 0051 77bd da2d 593d 10f4 44be
000001b0: 6f32 87bd b9c5 00be d200 2dbb a892 eb3b
000001c0: 36ad 3abc d396 f63d 6c41 afbd ba47 5bbd
000001d0: c6f5 cb3c d946 f33d 3bf3 ce3d 6a48 973a
000001e0: 4f84 6dbd b7c2 993d 1b19 bc3d d39b 58bc
000001f0: c4a1 c63d 838a f73d 1719 ddbd 3d25 e2bc
00000200: 4407 57be ee5a 133d 1c8c 173e 3a23 73bd
00000210: da39 06bd e7ad ff3c c053 e3ba ae8e da3d
00000220: af85 1b3d b0a4 15be f7f6 f8bd deb2 41be
00000230: 382b 55bc e0cd 8a3d 2f55 013c 317d 363e
00000240: b052 0abd c158 153d ab3c ed3d eb21 413d
00000250: d302 3cbd 0270 213e 8221 04be eaeb 6c3d
00000260: 1b7b 273e a282 15be cca3 30be eca9 253d
00000270: b099 44bd 9255 efbd 1da0 e53c c3a9 b8bd
00000280: 7fd2 013e b3d5 aebc e9fb a6bd 940e 613e
00000290: f5c8 d53c f71c 5bbd 4bd0 cabd f53a 223e
000002a0: 8a7f 0cbd 2740 0a3e 6b23 c9bc 3602 f33d
000002b0: a939 be3d c2ea a7bd c242 2fbe d18a 21be
000002c0: fcaa 4d3d 34a5 053e 03ea 8cbd 1168 d6bd
000002d0: 131a 353c 80a9 983d b134 5dbc 612e 68bd
000002e0: 2c06 14be 331a 243e 6ec9 0fbe ded0 3cbe
000002f0: 0d77 e8bd 3eea eb3b 1c91 eb3b 1ad5 3c3d
00000300: d955 993b 5f61 b6bd a057 b4bd 18b5 f5bd
00000310: 8714 18be ab6a c33d a585 40bd ccfc 63be
00000320: aafe c3bd d5cc f4bd fefa 86bd 3014 c5bd
00000330: 0114 19bd 3036 743d ba44 e6bd f5b9 5a3c
00000340: 67d8 cbbd 9e03 c3bd d1fd 28bd 5079 c0bd
00000350: 5e10 293d d2bd eabd d65c ca3d 9542 4d3e
00000360: 4fa7 1f3e 849b a4bd d4db 943d d5b0 48be
00000370: 23c1 1d3e 240b 29be a282 37be 13fc 21be
00000380: f113 3cbe 64a1 1b3d 0272 a6bd db5e ccbb
00000390: 2823 ccbc 6ad4 2d3d f962 d1bd 1f30 2dbe
000003a0: 7503 1fbe f4b6 b23d 76e6 15be e32a 66bd
000003b0: defa 973d 0e96 35bd 8c5d 9dbd 872d 19be
000003c0: 13ee 0bbe 36f0 823d eafd 9ebd ef93 e83d
000003d0: c367 dabc 4951 5abd 9910 26be 1027 c2ba
000003e0: b14e 50bd 9469 afbd f2a3 a1bd 820a ff3b
000003f0: 4901 febd 0507 8c3b d7bd fa3d 648a 2fbc
0.059913274 0.05180234 -0.14731377 -0.10682397 -0.19798665 0.0071560727 -0.094823085 -0.026873257
-0.025266932 -0.16460878 -0.19372131 -0.14539377 -0.10405853 0.03457467 -0.15180148 -0.037827887
0.016571375 0.14154847 -0.10478472 0.1517607 -0.14117914 -0.15887165 0.017740337 -0.13791847
0.09523991 -0.11296877 0.13016266 0.12834841 0.044940174 -0.011330253 0.08566329 0.06875057
-0.10204825 -0.065161094 -0.20604528 0.18541822 -0.00977217 -0.002722919 -0.14455396 -0.063077815
-0.010099866 0.11571842 -0.10264871 -0.004421439 0.116603814 0.16501154 -0.057883088 0.15685555
0.029466609 0.17596683 0.048754033 -0.13487023 -0.02302489 0.05567907 0.15324786 -0.14069885
0.11174778 -0.15038303 0.0978877 0.186785 0.0019455828 0.004163913 0.08177777 -0.052320622
-0.12961791 -0.14208479 0.018301602 0.1447227 0.009627846 -0.18727866 -0.22641277 -0.025336303
0.07202818 -0.14648363 0.011108365 -0.11232412 0.12787016 -0.04751157 -0.054875873 -0.18539846
-0.07320073 0.016678382 0.05179905 0.14044127 -0.14643675 0.045501105 -0.009255109 0.11252931
-0.1292776 0.047160566 0.07406445 0.090101734 -0.0558717 0.07666271 -0.023743141 0.012426364
-0.123844296 -0.12032133 -0.12594986 -0.12606858 -0.08573203 0.03564414 -0.03162466 -0.11864103
-0.0040743547 -0.060379982 0.053022243 -0.19233727 -0.06601416 -0.12575425 -0.0026398194 0.0071891136
-0.011393836 0.12040486 -0.085574 -0.0535352 0.024897467 0.118787475 0.10104986 0.0011541967
-0.057987507 0.07507842 0.09184476 -0.013220745 0.09698823 0.12086966 -0.10795801 -0.027605647
-0.20998865 0.03597539 0.14799541 -0.059359767 -0.032770015 0.031210853 -0.0017343685 0.10671745
0.037969287 -0.14613605 -0.1215648 -0.18915889 -0.013010792 0.06777549 0.0078938445 0.17821194
-0.033770263 0.036461595 0.11583837 0.047151487 -0.04590113 0.15765384 -0.12903407 0.057842173
0.16355555 -0.14600614 -0.17249984 0.040445253 -0.04799813 -0.11686243 0.02803045 -0.090167545
0.12677954 -0.021342134 -0.08153517 0.21978217 0.0260968 -0.05349442 -0.0990301 0.15842803
-0.03430132 0.13501035 -0.024553021 0.11865656 0.092883416 -0.081990734 -0.1711531 -0.1577561
0.05021189 0.13051301 -0.06880572 -0.10469068 0.01105358 0.074542046 -0.013501332 -0.056684855
-0.1445548 0.16025619 -0.14041683 -0.18439052 -0.11350832 0.0071995547 0.0071889292 0.046101667
0.0046794233 -0.08905291 -0.08805776 -0.119974315 -0.1485158 0.0954183 -0.047002453 -0.22264403
-0.09570058 -0.11953131 -0.06590842 -0.09622991 -0.037372593 0.05962199 -0.11243577 0.01335
-0.09953385 -0.09522174 -0.041257683 -0.093981385 0.041275375 -0.114619866 0.09880988 0.2004493
0.15591167 -0.08037475 0.072684914 -0.19598706 0.15405707 -0.16508156 -0.17920926 -0.15818815
-0.18366982 0.03799571 -0.08127214 -0.0062368936 -0.024919108 0.042438902 -0.10223956 -0.16912888
-0.15528663 0.08726302 -0.14638695 -0.056193244 0.07420896 -0.044332556 -0.07683858 -0.14958774
-0.13665037 0.06393473 -0.07763274 0.11356341 -0.026660806 -0.053300176 -0.16217269 -0.0014812667
-0.050856296 -0.08565059 -0.07892598 0.007783235 -0.12402589 0.0042732977 0.1224324 -0.010714147

emb_net.v_lins1.3.bias f4 [32]
00000000: aa3c 15be bd5d 093d fdd9 eb3d 8cfd 0bbd
00000010: e9aa 9a3c 9e42 bf3c e350 673c b2a0 353d
00000020: d818 29be 3e30 053e 753b 7e3d b2af a33c
00000030: c6c5 d43c fc74 04be fb80 2ebd aed8 08bc
00000040: ed2d 523d b4bc c0bd 6a4a ad3c 01ad 3dbd
00000050: c98a 033e cfdb 12be 591b d83c 2cd4 f63d
00000060: bac4 0fbe 8c5e 2a3c 253d 9e3d a84f b03d
00000070: 0c4f e83c adc8 873d 419a f5bd 07f6 133e
-0.14573923 0.03353666 0.11516187 -0.034177348 0.018880324 0.023347195 0.014118406 0.044342704
-0.16513383 0.13006684 0.06206842 0.019981239 0.025973212 -0.12935251 -0.042603474 -0.008352442
0.05131333 -0.09410992 0.021153647 -0.046307568 0.12845911 -0.14341663 0.026380228 0.12052187
-0.14039889 0.010398518 0.07726506 0.08608943 0.028358005 0.06630073 -0.11992312 0.1444932

emb_net.v_lins1.4.weight f4 [32, 32]
00000000: cc12 86bd 6609 f13d 6afa 113d a7a8 20bd
00000010: cfed 8a3d 3b5c 253e bad5 263e fdfe 26be
00000020: 3f56 063c c735 0bbe a9ec d03d ab36 023e
00000030: 360b 13be 92a7 603b 0baf ba3d 0aad 043e
00000040: ee79 e0bd 3aa6 ed3d cb85 4cbd 87ce 19be
00000050: 5b66 f2bb 34d8 843d 3bc5 9d3d 3357 edbd
00000060: 432c e7bd f6a8 01be 508e b33d 4eb3 27be
00000070: 1d29 ad3c 42bb 8dbd 5845 893d f213 ac3c
00000080: 4a95 e3bc b117 3dbc 6643 e13d e376 3f3d
00000090: 95e8 ecbd 8c63 313d 60f5 55be 7904 d6bd
000000a0: 80ce 48bd 4866 12be 8126 ef3d b084 dd3b
000000b0: 82f1 f53d bd95 84bd ff93 abbd a46a 11bd
000000c0: 8324 acbd 77bd 1ebc 7c41 19be c221 313e
000000d0: 608b c93d c861 21be 8b12 83bd c951 33be
000000e0: c19f a7bd ae43 d23d 891b db3d 2760 90bb
000000f0: 04cb b13d e0f1 8b3d 0c8a 973d 9e00 52be
00000100: 4706 c33c 944d 7ebe 0efe 04be efa7 b4bd
00000110: 50c0 43bd 2519 30be 5565 dd3c 844d 8f3c
00000120: 58e6 74bd 8f9b 063d c4fb 383e 748f 80bd
00000130: a98f 13be 3720 3dbe ecd4 e0bd 765c 9ebd
00000140: 00b1 95bd eb87 07be 38b3 913d a4de 343d
00000150: d020 393e 8b28 243e 6538 adbd 5aec dfbd
00000160: 2cb2 223d 6a4c 1abe d1e7 413d 71cb a1bd
00000170: c4dd 0abe dc10 1dbe f86b 12be 0fff 8e3d
00000180: fbec 003e 73a2 c13d f07e 58bd 04bd 2fbe
00000190: 98c4 b3bd e0a4 14be 99f9 aabc 5e7c 40be
000001a0: 453f ef3d f9ea 3cbe 7493 9abd fb0a ad3d
000001b0: a000 29be 2e5d 0b3d ca30 e83d 3d98 353e
000001c0: 5d8d 913d 157d 7bbd 49c9 903d 5f25 27bd
000001d0: e6b4 33bd db56 24bc 4953 a33a 7023 bb3d
000001e0: 4751 dc3d f565 583d d12b b1bc 7488 21bd
000001f0: a04e 7d3d 8202 ce3c 4157 50be ad55 1f3d
00000200: a410 84bd ce9e e7bd 9086 933d f391 c3b9
00000210: 8c82 0dbd 7de5 8abd 8a37 1e3c 80bf 363e
00000220: 8c33 aa3b e766 2e3d 08c5 1abe b69c e23d
00000230: 286f 973c fde0 673d 5ae7 703c 778d aabd
00000240: 1905 7dbd 4059 513e 2c3b 183e 66b7 0cbe
00000250: 12d3 ac3d 6a10 ec3d 903a 18bd b6a7 2bbe
00000260: 7365 253d ae39 59bd c1f7 d93d e1f0 1ebe
00000270: 63a3 963d 884d a3bc f1db 553d 4128 913d
00000280: bd5f 66bc 9d26 1ebe 509c 91bd a88e 9ebd
00000290: 3bf9 c0ba 52ab 0f3d 5d6e 7bbd 79bc 96bd
000002a0: c7ea 533d 046e 4cbe 7c32 bb3d 9e7e 0c3c
000002b0: d731 bd3d 0a2f 063e d172 64bc 870d 7a3d
000002c0: 33d4 e4bd 4d7f 193e 2fca 123e e0fc debc
000002d0: 4b89 013d 1deb 35bc b618 c13d a756 803d
000002e0: de1f ac3d 5f81 22be 416f 643e 1a5a 693d
000002f0: 48f2 bd3d 368d 813c 010d 0f3e dc5a 1c3e
00000300: 2847 083d f33d 56be dc3b d33d 4029 b3bd
00000310: 92e2 eebd 62c9 f53d 9ec6 953d d3a4 b0bc
00000320: 7bd5 5c3b 398c 75bd 2b22 0d3e ec76 823d
00000330: c572 c53d 71dc f13d b7ba d3bd 0f14 903c
00000340: aa6a 37be e0cf 013e a0e1 53be 36be 52be
00000350: cee5 55be 4027 9a3d 65a3 ce3c 2a29 f2ba
00000360: 0f6d 733d 5b0f 31bd 2c88 a9bd 8edc 04be
00000370: 5e40 4cbd 19d8 e7bd 62a6 4ebd ecc6 c93d
00000380: b938 a8bd e948 c03d 0d74 3abe e4ef 5bbd
00000390: d6b8 013d f613 1a3d dc14 033e f070 0bbd
000003a0: b00e c3bd a9eb cabd 7ff9 f83c 0d26 22be
000003b0: f40b 06be c4f1 95bd 79b1 1cbd 70be f4bd
000003c0: 359c 14be f96f 083e 1a2d 1d3e 799d 34bd
000003d0: 7b13 3ebe 66a7 c7bd 3d9c 5b3d af1e 6b3d
000003e0: 7a24 61bd 84d9 29be 2641 44bd 7acc c4bc
000003f0: 1bf3 573d 59d9 6cbd da68 933d 6068 7fbb
-0.06546554 0.11769371 0.035639204 -0.03922334 0.0678364 0.16148464 0.16292468 -0.16308208
0.008199274 -0.13594733 0.10201389 0.12716167 -0.14359745 0.0034279567 0.09115418 0.12956634
-0.10960756 0.11603971 -0.049932282 -0.1502019 -0.0073974556 0.0648655 0.07703634 -0.115888976
-0.11287739 -0.1266211 0.08767378 -0.16376993 0.021137768 -0.06920482 0.067026794 0.021005604
-0.027781148 -0.011541293 0.10999183 0.04674424 -0.11567799 0.043307826 -0.20894384 -0.10450072
-0.04902506 -0.1429683 0.11677266 0.0067602023 0.120089546 -0.06473873 -0.083778374 -0.03550209
-0.084054016 -0.009688727 -0.14966387 0.17298034 0.09841037 -0.15759957 -0.06400021 -0.17511667
-0.081847675 0.10266815 0.10698611 -0.0044059935 0.086813 0.06833243 0.07399377 -0.20508048
0.023806704 -0.24834281 -0.12987539 -0.08821093 -0.047790825 -0.17197092 0.027025858 0.017493017
-0.059789985 0.032863196 0.18064791 -0.062773615 -0.14410271 -0.1846932 -0.109781116 -0.07732479
-0.07309151 -0.13235442 0.071142614 0.04415764 0.18078923 0.16031091 -0.08458022 -0.10933752
0.0397207 -0.15068212 0.047340218 -0.079001315 -0.1356116 -0.15338463 -0.14299 0.06982242
0.12590401 0.09454813 -0.052855432 -0.17161947 -0.08777732 -0.1451602 -0.02087097 -0.18797442
0.116819896 -0.1844901 -0.07547656 0.0844936 -0.16504145 0.03402441 0.11337431 0.17733856
0.07107041 -0.061398584 0.07069642 -0.040807124 -0.04387369 -0.010030474 0.0012460734 0.091376185
0.1075769 0.05283161 -0.021627339 -0.039436772 0.06184256 0.02514768 -0.20345785 0.038900066
-0.064484864 -0.113095865 0.072034 -0.0003730204 -0.034548327 -0.06782053 0.009656796 0.17846489
0.005194133 0.042578604 -0.15114224 0.110650465 0.01848562 0.05661105 0.014703596 -0.083277635
-0.06177244 0.20444202 0.14866322 -0.13741836 0.08438696 0.11526568 -0.037165225 -0.16763195
0.040379953 -0.053033523 0.106429584 -0.15521576 0.07355382 -0.01993443 0.052211706 0.07087756
-0.014060912 -0.15444417 -0.07109892 -0.07742053 -0.0014722714 0.035075493 -0.061384548 -0.07360167
0.051737573 -0.19963843 0.091404885 0.00857511 0.09238022 0.13103881 -0.01394339 0.061048057
-0.11173286 0.14989968 0.1433494 -0.02722019 0.031625073 -0.011103419 0.09428541 0.062665276
0.08404516 -0.15869664 0.22308065 0.056970693 0.09274727 0.015814405 0.13969804 0.15269035
0.033270985 -0.20922069 0.10314152 -0.08748102 -0.116643086 0.12001301 0.07313274 -0.02156297
0.003369658 -0.05994818 0.13782565 0.06370339 0.09641031 0.11809624 -0.103383474 0.01758769
-0.17911783 0.12676954 -0.20691538 -0.20580372 -0.20888445 0.075270176 0.025224397 -0.0018475403
0.05943018 -0.043227535 -0.08277926 -0.1297476 -0.049866073 -0.11320514 -0.050451644 0.098523945
-0.08213944 0.093889065 -0.18208332 -0.053695574 0.031670414 0.037616692 0.12800926 -0.034043252
-0.09524286 -0.0990823 0.030392407 -0.15834828 -0.13090497 -0.07321504 -0.03825519 -0.119503856
-0.14512713 0.13323964 0.15349236 -0.04409549 -0.18562119 -0.097487256 0.053615797 0.05740231
-0.054966427 -0.16586882 -0.047913693 -0.024023283 0.052722078 -0.057824466 0.07197733 -0.0038972124

emb_net.v_lins1.4.bias f4 [32]
00000000: 928d 873d 0d1d 76bc 756c 9cbc 77c2 46bb
00000010: 6ecc 30be 4ce6 febd 8ae7 f53c 50f9 2e3e
00000020: 9a14 d2bd 59ef e33d c4db 813c 55b4 afbd
00000030: 8ae3 47bb 2c06 b73d 1c1c d03c b83e 1f3e
00000040: ebfd 22ba 8e65 f0bd 199c 253e aa78 45bd
00000050: d08c d83d 50ed eb3d 1cf3 f93c 9622 13be
00000060: 00bd 34be e609 ab3d d081 153d cd35 c73d
00000070: 0625 25be fe10 a9bc bf77 183e 922d be3d
0.06618799 -0.015021575 -0.019094685 -0.0030328312 -0.17265484 -0.124462694 0.030017633 0.17087293
-0.10257836 0.11129636 0.015851863 -0.085793175 -0.0030500614 0.08936724 0.025404029 0.15551269
-0.00062176463 -0.1173812 0.16172828 -0.048210777 0.10573733 0.11519873 0.030511431 -0.14368662
-0.17650223 0.08351497 0.036500752 0.097270586 -0.16127405 -0.020637985 0.1488943 0.092860356

emb_net.v_lins1.5.weight f4 [32, 32]
00000000: 3072 ed3c eab6 343e 2011 6fbd fd4f eebd
00000010: 2622 d6bd b7c6 343d 14fc 15be 1281 ff3a
00000020: baf9 4c39 bb4f 9c3d fa08 fe3d 403e ce3d
00000030: b3a9 9abc f066 d63d 6598 cfbd 37d8 e4bd
00000040: 6e64 c33b 8094 dbbd 95e3 2a3e 5474 993c
00000050: adc6 4e3d bf92 96bc 0078 e8bb d037 afbd
00000060: c6ce 33bd d598 00be ea3d f6bd 598d f73d
00000070: af1d 0ebe 5045 96bb d206 c93c cf39 58be
00000080: a404 bb3d b6a7 543d e09f f83d 864d 7b3d
00000090: cfb7 0e3e d034 463d fcaa da3c c908 8f3d
000000a0: c079 34be e0e5 9abd 1187 0bbe 4be1 ee3d
000000b0: 3021 cc3d b220 a6bd e47f 60bd 6bda 073c
000000c0: 7598 55be f92d 653d 9b6b eb3d 7a21 633d
000000d0: 87c6 4fbd 1250 263e bca9 cf3d 005b 25be
000000e0: 76bf 893d 6dbc e9bd b73a c73d 3056 2f3e
000000f0: 0895 893b b620 33bd dd68 dfbd 73f1 05be
00000100: cfd7 84bd d6ec 72bd b183 d93d 4be3 81bd
00000110: 29ab bb3c a575 59be 683e 1d3e 1f14 a53d
00000120: ed9b d5bd 8b5c 823b 8e5f 563d 9b42 01be
00000130: c722 a2bd dd3e 803d 1b7b 4e3e 0597 2dbc
00000140: 66fd f83c 4ef1 73be 4c19 69be 3e5a d13d
00000150: ee5c 593e 3bac b0bd da37 cdbd bdb0 013d
00000160: d0fe 7a3d cada 20be 1c95 13be 8093 efbd
00000170: f03a a1bd 426b 5b3d 1305 163e 99a4 1c3d
00000180: 80c3 2cbe 6a49 ff3d 5813 203e a413 b13b
00000190: 558c 4a3d b242 1c3d fd0e 4c3e 5bd3 51be
000001a0: a9fa 8dbd 4954 23bd 7c2c c6bb 2c31 f8bd
000001b0: 1aef 20be 2ad5 01be e3a0 73bd 0863 3f3e
000001c0: 61e2 363d 6e35 213d 47d5 13be 964d f4bd
000001d0: 6724 903d bc89 31be bb83 35bd a570 b73c
000001e0: 7a54 d73d be2a a7bd 96dd 0e3e 504c 2ebc
000001f0: 80a5 0ebe e679 223e cbaf 0b3e 47ea ebbd
00000200: c188 e2bd 7bd7 ba3d 022a b7bd 4e58 b33d
00000210: e0c1 f7bd bb7d 63bd 7abf d1bd 030e 2d3e
00000220: 8a4d d0bd 3bb2 41bd 51a1 9b3d 5dca b7bd
00000230: f465 cebc ebb6 ffbd 9c68 38be 4a53 98bd
00000240: b004 81bc a010 163e c51a 0cbe bfb0 38bd
00000250: cbba bcbc 6910 3e3c 624a ed3d 5a4d 2abe
00000260: b840 74bd afab 313a 8061 2dbe 951e c33d
00000270: 08aa 37be 1d39 a73d dffc 7e3d d61e 33bd
00000280: c624 9f3d 1e72 2e3e 6977 c43d 8543 a03d
00000290: 5766 0ebe 872e 62bb 6d0b fc3d 61b0 943c
000002a0: da19 d03d e06e dfbd d7cf b83d 271d 2ebc
000002b0: 9188 37be 7bce dbbd b1e4 093e 567b a1bd
000002c0: de17 51bc f738 92bd 1e1e d3bd e62c 4d3c
000002d0: 97de ad3d c998 b8bb c6fe 9abd 0cc8 d5bc
000002e0: 3c8c 10be 28ff 0cbe ae0e 3b3c 92f1 f5bd
000002f0: 524b 8e3d 8a2f 723d 7aed 3dbd a5d6 30bd
00000300: a78b 013e c1e9 0f3e 4f7e 9d3d bf1d dc3d
00000310: 9008 86bd 6b9a fd3c ac49 f4bd 0023 993d
00000320: ce25 1bbe 6db2 653d 8ed6 983d 6c7d 0e3e
00000330: 1bce 2c3e d5ea b13d 0d47 8d3d dbb6 683d
00000340: 60dc 253e 70ef b33d fc8b 8b3d d17f 68bc
00000350: d877 aabd 067f 25bc f77b e23d 7c8d 98bd
00000360: be17 c43c 1c47 483e 1ef1 e63d c4bb 09be
00000370: 1141 813d c795 fc3d 03ff e0bd cb56 ff3d
00000380: 4369 00be c7a7 e2bd 5735 3fbd 8cfa f9bd
00000390: cf16 0dbe 8db5 02bb 824e 7f3d 1280 a03a
000003a0: cf80 143e dea8 d6bd 2f1b d1bd 3142 f2bd
000003b0: eefc a3bd 0d99 1cbe 7e53 8c3d 5c3c 09be
000003c0: fe86 20be f1ac 813d f4a5 1dbe 01c2 d1bb
000003d0: a3c8 efbd 79f7 293d 1567 723d 0709 48be
000003e0: c7c9 b83d 91dd 07be cebf 4b3d 6efa 0f3e
000003f0: dfca f5bd e3e3 283d 4c68 9d3d 86fa 0d3e
0.028985113 0.17647901 -0.05836594 -0.1163635 -0.10455732 0.04413482 -0.14646941 0.0019493422
0.00019547986 0.07632395 0.12404056 0.10070467 -0.018879747 0.104688525 -0.10136489 -0.11174052
0.0059629 -0.107216835 0.16688378 0.018732227 0.05048244 -0.01838052 -0.0070943832 -0.08555567
-0.043898366 -0.12558301 -0.12023528 0.12087507 -0.13878511 -0.0045858994 0.024539385 -0.21115802
0.091317445 0.051917754 0.12139869 0.06135323 0.13937305 0.04839021 0.02669286 0.069840975
-0.17624569 -0.075633764 -0.13625742 0.11664065 0.099672675 -0.08111705 -0.054809466 0.008291821
-0.20858939 0.055952046 0.114951335 0.055451848 -0.05072644 0.16241482 0.10139796 -0.16147995
0.067259714 -0.114128925 0.09727996 0.17122722 0.004198674 -0.043732367 -0.10908673 -0.13080387
-0.06486475 -0.059307896 0.10620821 -0.06342181 0.022908764 -0.21236284 0.15355837 0.080604784
-0.10430131 0.003978317 0.05233722 -0.12623064 -0.079167895 0.0626199 0.20164149 -0.010595088
0.030394267 -0.23822519 -0.22763556 0.102222905 0.21226856 -0.086266 -0.100204185 0.03166269
0.061278164 -0.15708461 -0.1441235 -0.11698055 -0.078725696 0.053569086 0.14650373 0.03824291
-0.16871452 0.124651745 0.15632379 0.0054039527 0.049450237 0.038149543 0.19927593 -0.20490782
-0.06932575 -0.039875302 -0.0060477834 -0.12118754 -0.1571621 -0.12678972 -0.059479605 0.18690121
0.044649485 0.039357595 -0.14436828 -0.11928861 0.07038193 -0.17337698 -0.04431508 0.02239258
0.105141595 -0.08162449 0.13951716 -0.0106383115 -0.1393032 0.15866813 0.13641278 -0.11519294
-0.1106124 0.09123131 -0.08943559 0.08757077 -0.120975256 -0.055539828 -0.102415994 0.16899876
-0.101710394 -0.047289114 0.07599128 -0.089741446 -0.0251951 -0.12486061 -0.18008655 -0.07437761
-0.015749305 0.1465478 -0.13682087 -0.045090433 -0.023038289 0.011600592 0.11586453 -0.1663107
-0.059632033 0.0006777597 -0.16931725 0.095273174 -0.17935956 0.0816519 0.062252875 -0.04373058
0.07770686 0.1703572 0.09593088 0.07825378 -0.13906227 -0.0034512596 0.12306867 0.01815051
0.10161181 -0.109098196 0.09024017 -0.010627068 -0.1792319 -0.107327424 0.13466145 -0.078848526
-0.012762038 -0.071397714 -0.10308479 0.012522912 0.08489721 -0.005633448 -0.075681254 -0.026096366
-0.14115995 -0.1376921 0.011417074 -0.120089665 0.0694796 0.059127368 -0.046369053 -0.04317345
0.1265093 0.14054014 0.07690107 0.10747861 -0.06544602 0.030957421 -0.11928114 0.07477379
-0.1515114 0.056078363 0.07462798 0.13915032 0.16875498 0.08687369 0.068983175 0.05681501
0.16197348 0.087859035 0.06813809 -0.01419063 -0.0832364 -0.0101010855 0.11058801 -0.07448861
0.023937102 0.19558376 0.11276458 -0.13450533 0.063112386 0.12333255 -0.109861396 0.12467726
-0.12540154 -0.11067157 -0.04668173 -0.12205991 -0.13778232 -0.0019944638 0.06233073 0.0012245199
0.14502262 -0.104814276 -0.10210263 -0.11829031 -0.08007227 -0.15292759 0.06851862 -0.13401932
-0.15676495 0.06331814 -0.15395337 -0.006401301 -0.1170819 0.041495774 0.059180338 -0.19534694
0.09022861 -0.13268115 0.049743466 0.14060375 -0.12001585 0.041232955 0.07685909 0.13865098

emb_net.v_lins1.5.bias f4 [32]
00000000: 889e 6a3d 0098 95bd 8686 57bd e887 e83c
00000010: 92c5 1d3d 324b 1e3e 5de9 293e ea45 2b3c
00000020: 492b 273e 82a1 cfbd d751 a73a 07c6 14be
00000030: d620 bb3d 2d2e 123d be8b d7bd 4802 09be
00000040: 8541 e9bc bb08 8cbd b2d8 82bd 95de 19be
00000050: 3c5a dcbd c78f 143e 5470 bcbd a9a3 893d
00000060: f598 4b3c 7c5f a8bc c5d3 7a3d 31e0 073e
00000070: 8d6b 6a3d 4b39 873c 4f5f 113e fa17 c73c
0.057280093 -0.07304382 -0.052618526 0.028385118 0.038518496 0.15458372 0.16592927 0.0104536805
0.16325106 -0.10138227 0.0012765479 -0.14528666 0.09137122 0.035688568 -0.105247006 -0.13379776
-0.028473625 -0.06837603 -0.063889876 -0.15026315 -0.10759398 0.14507972 -0.092011124 0.06720669
0.0124266045 -0.020553343 0.061237115 0.13269116 0.057231475 0.016506812 0.14196514 0.024303425
