pretrained/tsp_nls/1000/tsp1000_sd0_fromckpt-500_tsp500_sd0_50/20.pt (torch, 348837 bytes, 229 tensors)

emb_net.v_lin0.weight f4 [32, 2]
00000000: f16b 0bbc a470 c13e 4999 06bf 79c7 0ebf
00000010: 4b15 80be 609d 263e 1bac 853c 7d07 0a3f
00000020: 9a42 5abd 11f3 503e b057 2ebe 5b02 2dbe
00000030: daf5 26bf c489 00bf 4d05 9abe 6f79 d03b
00000040: 1c8d 5f3e f606 df3e 9452 dbbe 4951 b3be
00000050: 126a 673e 95ff 153f 8665 23be f311 0e3f
00000060: 7592 acbd 79b6 373d b4ac 1b3f d92e 1ebf
00000070: edfc d9be eb19 3ebe 6977 8ebe e4f8 183f
00000080: ff94 e0be b8dd a7be b4ee e5be 6037 27bf
00000090: 558f b9be 880d 143f d6dc 8e3e f7a3 a63e
000000a0: 5ad2 583d f36c acbe 05ca a63d d62b 22bf
000000b0: 2408 02bf d93a bbbe 0bdc e23e c6d7 e43e
000000c0: cbcc 94be c869 06bd 8dcc d03e 1476 3e3f
000000d0: 0348 8d3e 671d d93d 6c0b d83e 0259 c6be
000000e0: 55a3 143e 8430 0bbf f241 edbe 40c5 cdbe
000000f0: 04b1 9d3e 01a9 9e3e 8f9c d3be e1bb 733e
-0.008509622 0.3778125 -0.52577645 -0.5577312 -0.25016245 0.16270971 0.016317418 0.53917676
-0.053286172 0.20405222 -0.17025638 -0.1689543 -0.6521889 -0.50210214 -0.3008217 0.0063621323
0.21831173 0.43559998 -0.4283644 -0.35022953 0.22599056 0.5859311 -0.15956697 0.5549614
-0.08426372 0.044851754 0.608104 -0.61790234 -0.4257578 -0.18564574 -0.27825478 0.59754777
-0.43863675 -0.32786345 -0.4490868 -0.6531887 -0.36242166 0.5783315 0.2790286 0.3254697
0.052934982 -0.33676872 0.08144001 -0.6334814 -0.5079367 -0.36568335 0.44308504 0.44695872
-0.29062495 -0.032815725 0.4078106 0.7439892 0.27594003 0.10601311 0.42196214 -0.38739783
0.14515431 -0.54370904 -0.46339375 -0.40189552 0.30799115 0.30988315 -0.41330382 0.23802139

emb_net.v_lin0.bias f4 [32]
00000000: 878a eb3e 294a c3bd 45d1 113d b1e0 263e
00000010: 5814 d63e bcaf 4f3f 8ebf 0abf 0ae7 7cbe
00000020: caa6 6f3e 989f 103f daaa 283f 343b 2e3f
00000030: 23a7 493e 8466 22bf 6900 983d c3ad e3be
00000040: ac57 24bf 1140 1c3f 67a1 083f 44d0 3cbf
00000050: 3747 db3d 4a59 15be fbe9 dabd f89d 94be
00000060: c93a 963e b582 c4be d8c0 9b3e f110 9c3e
00000070: 4dea 083f 2494 823e 5302 34bf 3df5 d9be
0.46004125 -0.09535629 0.035599966 0.1629665 0.41812396 0.81127524 -0.5419854 -0.2469751
0.23403469 0.5649352 0.658857 0.68059087 0.19692664 -0.63437676 0.07421953 -0.44468507
-0.64196277 0.6103526 0.5337128 -0.7375529 0.107069425 -0.14584842 -0.106891595 -0.2902677
0.29341725 -0.38380972 0.30420566 0.30481675 0.53482515 0.25503647 -0.70316046 -0.42569914

emb_net.v_lins1.0.weight f4 [32, 32]
00000000: bbf1 ae3d cb84 ce3c 24a1 0bbe 1118 d7bd
00000010: ccc7 283e f46c 043e 5ddf c5bd 4e8a 33bd
00000020: c391 3dbe ae4c 24bb e48f 10be 4bb2 0bbe
00000030: 2a46 edbb a621 af3c 46b6 97bd d41c d13d
00000040: 4f48 fabd 8833 1f3e 60de f53d 26bd 70be
00000050: 5ea4 39bd ede3 663b 18fd 753c e5ad 58bd
00000060: 7bb2 8e3d 1c71 bbbc 85e8 bdbd f0f7 a43d
00000070: e0b3 2dbe f6bb e0bd 65c0 f3bd fbe0 afbd
00000080: a11b 86bd dfc6 34be 759b 41bd b63b 313d
00000090: e5e7 02be cb74 aabc 64cb 563d 8f0e f6bc
000000a0: f451 393c ad5d ffbc 82e9 303d 4710 c63d
000000b0: 8b64 1f3e 0f58 f73d 781d 1a3e 79d2 b8bc
000000c0: 07d9 4fbe 0dc7 dabd a894 e03d 9900 9e39
000000d0: 0303 dbbd fc34 2dbe e940 41be e7c1 13be
000000e0: d808 41bd 9039 c63d 6160 d33d ffe6 21be
000000f0: 2780 e53d 4186 20be dc27 0fbd d3b6 a5bd
00000100: d230 29bd 4c86 7dbd 9fdb 21be 377d 24be
00000110: 4223 ddbc c8d3 16bc 439d e2bd 57a8 833d
00000120: 23ba 04be 7b67 b4bc 6830 3c3e 6177 9abd
00000130: 70af 213e 8502 843d b2fd 27be 179c da3d
00000140: 9e28 3bbd 2f90 f2bd 96a4 0e3e 1960 03be
00000150: 911b 853c 2683 3cbd f8cf e43d db17 793d
00000160: 3aa5 a53d 8bdc a23d 8da5 15bd 53be 12bd
00000170: 912b 16be 14e7 a73d a13b 1a3e 1c9c f63d
00000180: 5eec 21be 989f b33b dfdb 04be 1b96 1bbe
00000190: 0e5b eabd 992e 583d 77ea c3bd 4988 f1bb
000001a0: eb97 6d3c 8bd2 dd3d 56a4 febd 6438 0abe
000001b0: 2052 e1bd 3f50 0b3e 4fd5 86bd 1d1b 063e
000001c0: 3660 893d dcb6 773c 3655 2dbc 6fd2 b6bc
000001d0: e9d2 db3c 9ee5 17bd ebf9 18bb a497 093d
000001e0: 6ea5 11be cc22 b0bd 8846 1b3e 97e2 08be
000001f0: 20d2 00bc b002 2e3e 1445 9b3d 8fe9 7c3b
00000200: bf82 38be 153f 8a3d a26e 0dbe 8ba3 bbbd
00000210: 9409 9cbd 4c45 1fbd 9102 8bbc 4538 073e
00000220: fece ca3c f9a8 123e 433b d93d de59 04be
00000230: 0867 863d c995 debd 5d3a b4bd 7cc8 ed3c
00000240: e62b 203d 9b5b e63d 0086 92bd 2f03 4a3a
00000250: 7ecb cc3d 580b 2dbe cc4e e23d 4abb 0fbe
00000260: 71a2 20bc 408c 39bd 5fd4 a4bd 035a 143d
00000270: 59c9 1d3e 84a4 87bd 7217 cdbd f506 9fbd
00000280: 4bf6 2ebe e901 953d 0337 9fbd 25f2 f2bd
00000290: 6373 c4bd 3afd e23d 3a66 923d ee72 0f3e
000002a0: 9b2e 0d3d 37b9 53bd 83bd b5bd 8511 683d
000002b0: 308f 1b3e d563 163d b821 a1bd 9768 a5bd
000002c0: a7f9 36be 8d4a 213d 54b6 bebd 93e3 3dbe
000002d0: cf77 173e fd46 f4bd 9dc1 b2bc 8fd7 ca3c
000002e0: 7018 523c de46 27be 15dd 1ebe b84a 053e
000002f0: cc1d c03c aa10 183e e7f3 adbd 5b41 5f3d
00000300: 6621 09bd 64bb 75bd d49a c6bd 84aa 7d3d
00000310: f063 7e3d 85bc cd3b a23a bfbd 8f98 c9bd
00000320: 88b0 a73d d37f 08be aa01 673d c513 56bd
00000330: bf16 9abd 3f68 923c bf53 b5bd 192b 333d
00000340: b038 29bc 286d 56be a99c 173d 66b3 c23c
00000350: 4ef2 5f3d c2aa 42bd eb0c 26be 2a63 8dbd
00000360: 363a 913d 03e9 f6bd ed6f 523d 7488 da3d
00000370: 1ab0 d8bd fd99 3dbc 8f66 e93c cb59 be3c
00000380: db6d 90bc 4eca e93b c3d4 21be f65d a2bc
00000390: c1e1 ba3d 8619 343e 8413 8e3d b51c 883c
000003a0: 79fb 2b3d d564 9fbd 0c1a 39be 80ce 38be
000003b0: fea9 1e3e 6f8b 0e3e 3fcf eebd fc64 333d
000003c0: ad31 db3d c0b1 383e 301d 033e e441 cf3d
000003d0: f096 27bc 01a6 08bd 64f1 0a3e 1563 8a3d
000003e0: b2e0 cbbd da22 e73d af63 873d 97a1 f43d
000003f0: ec87 a4bd 3002 503d d81f c0bd 3743 f63d
0.085422 0.025209805 -0.13635689 -0.10502637 0.16482466 0.12932187 -0.09661744 -0.04383307
-0.18512635 -0.0025070119 -0.1411739 -0.13642232 -0.00724103 0.02137835 -0.07407813 0.10210577
-0.12220823 0.15547001 0.12005305 -0.23509654 -0.04532277 0.003523107 0.0150139555 -0.052900214
0.06967636 -0.022881083 -0.09272865 0.08055103 -0.16963148 -0.10973351 -0.11901931 -0.085878335
-0.065482385 -0.17653988 -0.047267396 0.043269835 -0.12783773 -0.020807644 0.052440062 -0.030036239
0.011311043 -0.031172598 0.04319144 0.096710734 0.15565698 0.12077343 0.15050304 -0.022561299
-0.20297633 -0.10682497 0.10965854 0.00030136554 -0.10693934 -0.16914743 -0.18872418 -0.14429437
-0.047127575 0.09678948 0.10321117 -0.15810774 0.11206084 -0.15676214 -0.034950122 -0.080915116
-0.041306324 -0.061895654 -0.15806435 -0.1606339 -0.026994351 -0.009205766 -0.110651515 0.06428593
-0.1296163 -0.022022 0.1837784 -0.07542301 0.1578958 0.06445793 -0.16405371 0.10674303
-0.045693032 -0.11843907 0.13929972 -0.12829627 0.016248496 -0.04602351 0.111724794 0.060813766
0.08088155 0.079522215 -0.036534835 -0.03582604 -0.14665057 0.081983715 0.15061809 0.12041494
-0.15812823 0.0054816715 -0.12974499 -0.1519398 -0.114431486 0.052778814 -0.09566205 -0.007370983
0.014501552 0.108311735 -0.12433688 -0.13498074 -0.11001992 0.1360483 -0.06583654 0.1309628
0.06707804 0.015119281 -0.010579398 -0.02231714 0.026833968 -0.037084214 -0.0023342322 0.03359188
-0.14223263 -0.08600387 0.15163624 -0.13367687 -0.007862598 0.16993213 0.07581535 0.003859136
-0.18018626 0.06750313 -0.13811734 -0.09162053 -0.076190144 -0.038884446 -0.016968997 0.13205059
0.024756905 0.1432227 0.106070064 -0.12924907 0.065626204 -0.10868413 -0.088001944 0.029026262
0.039104365 0.11247941 -0.07154465 0.0007706163 0.099997506 -0.16898859 0.110501856 -0.14036289
-0.009804354 -0.04529977 -0.08048319 0.036218654 0.1540884 -0.06623176 -0.100142375 -0.07764999
-0.17086141 0.07275755 -0.077741645 -0.11862592 -0.09592321 0.110834554 0.071484044 0.14008686
0.034468275 -0.051690307 -0.08874037 0.056657333 0.1519134 0.0367163 -0.078677595 -0.080765896
-0.17868672 0.039377738 -0.0931212 -0.18543844 0.14791797 -0.119276024 -0.021820838 0.02476099
0.012823209 -0.16335627 -0.15514024 0.13016784 0.023451708 0.14850107 -0.08493786 0.054505687
-0.033479117 -0.059993163 -0.096975 0.061930194 0.062107027 0.006278577 -0.09337355 -0.09843551
0.081879675 -0.13330011 0.05639807 -0.052264947 -0.0752387 0.017871974 -0.08853864 0.043742273
-0.010328457 -0.20940077 0.037014637 0.023767184 0.05467444 -0.04752613 -0.16215865 -0.0690368
0.07091181 -0.12056162 0.051376272 0.106705576 -0.10580464 -0.011572358 0.028491287 0.023236176
-0.017630508 0.0071347123 -0.15803818 -0.019820195 0.091250904 0.17587861 0.06937316 0.016615251
0.04198787 -0.07782904 -0.18076342 -0.18047523 0.15494534 0.13920377 -0.11660623 0.043797478
0.10702834 0.18036556 0.12804103 0.101199895 -0.010228857 -0.03336144 0.13568646 0.0675718
-0.099549666 0.11285944 0.0661081 0.11944883 -0.080337375 0.050783336 -0.09381074 0.12024539

emb_net.v_lins1.0.bias f4 [32]
00000000: a49e 4bbd 2e59 3cbe beae e0bd 4d1c 443d
00000010: dfce aabd ca94 cebc 71f4 6fbd b291 a8bd
00000020: 9ed5 963c 33ee f7bd a96f 8ebd 8038 723d
00000030: 0a4b 143d f739 073e a5b6 27bd 60a5 d7bd
00000040: db80 193b fb55 733d faa1 fa3d 9ba7 22be
00000050: f9ef 003d f291 b83d 0585 7abd 9db0 4bbd
00000060: 5ec4 aa3d 8bba 2bbe e2fd 093d e007 02be
00000070: 7136 003e 8935 d6bd ba4a b43d a7f1 30be
-0.04971184 -0.18393394 -0.109708294 0.047878552 -0.08340239 -0.025217433 -0.058582727 -0.08230914
0.018412407 -0.1210598 -0.06954891 0.059135914 0.036204375 0.13205706 -0.040945668 -0.1052959
0.002342275 0.05940817 0.12237926 -0.15884249 0.031478856 0.09012212 -0.061162014 -0.04972898
0.08338235 -0.16770379 0.033689387 -0.12698317 0.12520768 -0.1045943 0.088033155 -0.17279683

emb_net.v_lins1.1.weight f4 [32, 32]
00000000: 220d 47be c45b 2abc 1e1d 173e 4ae4 82be
00000010: 0912 43be 4527 9e3d d669 7fbc 29bc 463d
00000020: 56ee 13be 688d 87bd 316b 3ebd bc44 fd3d
00000030: d3ff 713d 7b65 07be 8893 123d 22b8 053b
00000040: d254 a5bd eed2 28be 8c86 efbd d94c b83d
00000050: a38b 81bd bee3 d7bd 497c 19be e145 e4bb
00000060: 9a29 2d3c 8c0c 9fbd 3d11 b9bd 9718 2cbe
00000070: b93f 98bc 8ffe 1abe df43 e83d bda7 4bbe
00000080: 7755 08be 925f 1bbe 1958 7dbc 1649 a43d
00000090: 6fc3 d03d 0c0e 4ebe 469b 4dbb 8fba b03d
000000a0: bbe6 863d 43e8 133e 89f2 32bd 8a6a dcbd
000000b0: 5778 f13d ca48 8abd 5b91 ba3d b98d 2abd
000000c0: 296f 943d 4cb2 ee3d d06c f43d dd60 5ebe
000000d0: eee9 16be a37c 94bd d273 16be 9c05 2b3e
000000e0: 10fe 83bd 3fc7 17be 5ad7 0abe 93fd f1bd
000000f0: b010 fa3c 8a41 40be 80ec 52be c305 3ebe
00000100: 9cc9 943d dabc f63d 8b18 05be 0a04 fb3c
00000110: 6791 ef3d f919 113c 1c65 debc 5ba7 af3c
00000120: 6aa6 f1bc 788e ad3d 5d78 07be 7c09 dc3d
00000130: f176 033e 4665 adbd 3459 133e 6744 363e
00000140: 6218 33bd ca0c b0bd 6df9 b33d 11b0 0dbe
00000150: ab8b 4e3d 779c 2b3d 504f b43d dcf5 05be
00000160: ec0e 31be 4d33 993d d494 4f3d 8978 3fbe
00000170: 95da f1bd 4c6e 38be 002e fbbd 686e 8dbd
00000180: e590 f93d 65f3 b4bc be94 e43d d155 013e
00000190: baae 153d c45e 4ebe 9b26 b53d ce88 2c3d
000001a0: 1a0d 093e 3e16 3dbe 38fe bd3d 2d61 323e
000001b0: f997 06be 47dd 9c3c aecc 123e c2af 04be
000001c0: 3407 803d 5218 0f3d 8f94 8d3c 614a 093e
000001d0: 0684 0a3e 227a 113e ee52 77bd 9b0e 333e
000001e0: 88b9 44be 59ac eebd d98d adbd d5d2 a4bd
000001f0: 5c19 093e 6c24 2f3d cae9 cd3d a4c3 c13d
00000200: b17f 06be fb6d c1bd 5fcc 62bd d073 3d3d
00000210: 6587 b33d 06c3 87bd 7f83 11be 69ca 053e
00000220: 97ec ebbd 85c2 47be 3fad fb3d 893f c33d
00000230: 0eb3 64bd 5ed7 19bd 66b0 52be a1de 6cbe
00000240: eaa9 04bc 9136 93bd 3bd5 0b3e dc20 ffbd
00000250: b8ae d9bc 60d2 33bd 5ec9 ce3d 2a3c 133e
00000260: bf49 0e3e 6732 843d 9c00 8bbd dbc1 f8bd
00000270: c46c 0bbe 4a0a c93a 9815 403e 9e0d dbbc
00000280: bd14 3fbd 5e2f ebbd 3a1d 893d 2c94 a23d
00000290: e352 52be 2d16 22be 2cb2 023e 4a8b 0a3a
000002a0: b601 35bd e67d cabb 82ea 0fbd 702f c1bd
000002b0: c522 0abe d5cc 063e b92b 18bd a76d 67bd
000002c0: b15f 22bd 2f64 f9bd 2f2a 9cbd b6c4 57be
000002d0: b9ca e03d a312 3c3d 87b0 1abe 212f 46bd
000002e0: b2c7 623d ab4a d3bd c0b7 973c 45cb 513c
000002f0: c40d 04be f403 873c f3fb 5cbd fb6b d63d
00000300: 9fb5 e7bd d7ca 24bd a6de 0c3e f5fd 27be
00000310: d72a 99bc e82a 093e 878d fbbd d6ba 113e
00000320: b5d7 d63d eeb1 c93d 27f6 a03c 08bf 363e
00000330: eda6 8abd 5461 48bd c9c0 be3c 236f ff39
00000340: a422 8f3d fb0e 2b3e 71c9 17be 4159 7a3d
00000350: c527 053d a9f4 5a3d c272 803d 112d 67bd
00000360: d27b ddbd 5fdb 9f3d 9d02 d0bd ab18 983d
00000370: 6833 fbbd 25df 66bd c62c 32bc aae6 c43c
00000380: b253 23bd bb5d 8f3d c79c 16bd 7115 433d
00000390: be05 293e 1098 ffbd 3375 d2bb ff89 d2bd
000003a0: 551f 2e3e 713a 1e3e 12dc 1c3d 1b2b a4bd
000003b0: 159d 20be 80eb 493d 54fb 63bc bec1 283e
000003c0: 137a d93d 786e 253e 2dbf e43d ea46 14be
000003d0: d674 8e3d e178 95bd 7b23 8e3d b5ac abbd
000003e0: 0e0b 5e3d d869 23be ff02 fdbd 675a 453d
000003f0: 94b8 a33d 831e 293b 019f a73d 6205 e2bd
-0.19438604 -0.010397855 0.14757201 -0.25564796 -0.19049849 0.07722334 -0.015589198 0.048519287
-0.14446387 -0.06618768 -0.046488944 0.12366626 0.059081864 -0.13222305 0.035785228 0.002040394
-0.08072819 -0.16486713 -0.11695585 0.089990325 -0.06325462 -0.10541485 -0.14988817 -0.006966338
0.010569001 -0.07766065 -0.09036491 -0.16806255 -0.018585073 -0.15136169 0.113410704 -0.19888206
-0.13313852 -0.15173176 -0.015462899 0.080217525 0.10193526 -0.20122546 -0.0031373068 0.08629333
0.06586977 0.1444407 -0.04368833 -0.10762508 0.11790531 -0.06752165 0.091097556 -0.041639064
0.072477646 0.11655101 0.11934817 -0.21716638 -0.14737675 -0.07250335 -0.1469262 0.16701359
-0.06444943 -0.148221 -0.13558713 -0.118159436 0.030525535 -0.18775001 -0.2059803 -0.18556885
0.072650164 0.12047739 -0.12997644 0.030641574 0.11697655 0.00885629 -0.027147822 0.021442106
-0.029498298 0.084744394 -0.13229509 0.107439965 0.12838341 -0.08466582 0.14389497 0.17799531
-0.043724425 -0.08596189 0.087878086 -0.13836695 0.050426167 0.041897263 0.0880419 -0.13082069
-0.17290848 0.07480488 0.050679043 -0.18698324 -0.11809269 -0.18010825 -0.12264633 -0.06905824
0.121858396 -0.022088716 0.11161183 0.12630393 0.036543585 -0.20153338 0.08845254 0.042122655
0.13383904 -0.18465516 0.09277004 0.17419882 -0.1314391 0.019148482 0.14335892 -0.12957671
0.06251374 0.034935303 0.017282752 0.1340728 0.13526925 0.14206746 -0.060381822 0.1748604
-0.192114 -0.116539665 -0.08474321 -0.080480255 0.1338858 0.042759344 0.10054357 0.094611436
-0.13134648 -0.09444805 -0.055370685 0.046253026 0.08766059 -0.06628995 -0.14210318 0.13065495
-0.11519735 -0.19507797 0.122889034 0.09533603 -0.055834822 -0.037558906 -0.20575103 -0.23131801
-0.008097151 -0.07188142 0.1365556 -0.12457439 -0.02657257 -0.0439018 0.100970015 0.1437842
0.1389532 0.06454926 -0.067872256 -0.1214635 -0.1361571 0.0015338149 0.18758237 -0.026739892
-0.046650637 -0.11483644 0.06695028 0.07938418 -0.20539431 -0.15828772 0.1276328 0.0005285038
-0.044191085 -0.006179559 -0.035135753 -0.09432876 -0.13489826 0.13164075 -0.037151072 -0.056501057
-0.03964204 -0.12177312 -0.076252334 -0.21071133 0.10976166 0.04591621 -0.15106402 -0.04838479
0.055366226 -0.10316976 0.018520236 0.012804811 -0.12895876 0.016481377 -0.053951215 0.104698144
-0.11313938 -0.040232506 0.13756809 -0.1640547 -0.018697185 0.13395274 -0.122828536 0.14231429
0.104903616 0.098483905 0.019648625 0.1784631 -0.0677012 -0.048920944 0.023285287 0.00048720193
0.06989029 0.16704933 -0.14822938 0.061120275 0.03250863 0.053455982 0.06271888 -0.056439463
-0.108146325 0.078055136 -0.101567484 0.0742658 -0.12265664 -0.05636515 -0.010874933 0.02403577
-0.03987474 0.070002995 -0.03677061 0.04762787 0.16506097 -0.124801755 -0.0064226626 -0.10280227
0.1700414 0.15451981 0.038295813 -0.08016034 -0.15684922 0.049296856 -0.013914902 0.16480157
0.10618987 0.16155422 0.111692764 -0.14480177 0.069558784 -0.072984464 0.06940361 -0.083825506
0.05420976 -0.15958345 -0.12354087 0.048181918 0.0799419 0.002580554 0.081846245 -0.11036183

emb_net.v_lins1.1.bias f4 [32]
00000000: 4ef4 e33d d796 b3bc 3098 afbd 1844 5cbd
00000010: 2a5a 943d 165d 95bc d954 9d3d 8aed 12be
00000020: 9419 aebd 49f8 063e bcfc 8c3c 73b6 8e3d
00000030: 2e01 403d 4e53 c0bc 064c 8bbd 1119 5f3d
00000040: 6b64 04bb 2964 a5bd 9dab a33c 2248 2a3d
00000050: 9c2b 61bc f977 16be 997f d2bc f2a8 9abd
00000060: 6d76 d73d 92c0 cdbd ee6f 153e 84ac be3d
00000070: 78c6 1cbe e5c6 ff3d 9a05 29be a845 b3bb
0.11130582 -0.021922512 -0.08573949 -0.053775877 0.0724376 -0.018232863 0.07682199 -0.14348426
-0.085009724 0.13180651 0.017210357 0.06968393 0.046876125 -0.023477223 -0.0680161 0.054467265
-0.0020201455 -0.08075745 0.019979293 0.041572697 -0.013743307 -0.14694203 -0.025695609 -0.07551755
0.10520635 -0.100464955 0.14593479 0.093102485 -0.15310085 0.12489108 -0.16506043 -0.00547095

emb_net.v_lins1.2.weight f4 [32, 32]
00000000: 0429 50be 05bc 28be 212f 733a ae2b f6bd
00000010: 3dad c13d 9a1d 15be 8ae5 083e d1ba dc3d
00000020: 13b2 1d3e d44b 86bd e259 c3bd 4e53 17be
00000030: 47cb b43d cd96 03be 0c40 79bd 3142 82bd
00000040: 4091 423c 9c22 02be cb65 0c3e 4283 06be
00000050: 2128 453e 08ae a3bc b02f c5bd 9f2e aabd
00000060: b10e b23d 612c 86bd 13b8 51be adff f03d
00000070: 6d7e 3a3e f2d4 993d a533 0d3e 1bf6 3c3c
00000080: aa33 26bc eb45 46be 4ab9 53be dea6 0bbe
00000090: eaba dabc 4853 e33d 488c f4bd 1f68 3fbc
000000a0: 4023 dabc 390b 06be 08bb ecbc 79d8 0f3e
000000b0: 718f dc3d e4bf 1a3e 876b 8bbd ed35 09bd
000000c0: 51a0 1d3c 8d22 50bd 28a5 57bd c693 273e
000000d0: c9c8 9d3c 8f4d 06be 2db9 2a3e 13e5 5d3d
000000e0: c12f cd3d f728 dfbd 9296 073d 379d fb3d
000000f0: 3950 02bd ad62 91bd 4f11 eb3d f776 9d3d
00000100: ef9d 3e3d 7cd3 143d 580d cabc 8a60 6d3d
00000110: 086c c7bd 55ac fabd ce26 203d 2114 e4bc
00000120: 61bb 133d 1f47 63bd a131 f1bc 2f2d 84bc
00000130: e519 863d 483c 17be 21b4 34be 8e75 063d
00000140: 0912 97bd 629a 52bd 4b40 a23b b5c3 a1bc
00000150: f00d 503d 5105 c4bc 523c 46bc 20e5 7abd
00000160: 5bc9 1b3b 15de 253d f300 d93d cd3e 4bbe
00000170: 8089 66bd dfe5 45be 7f23 d5bd 9b93 4c3d
00000180: 34ee 0abe 91aa 32be 86d1 9b3d 2cad 13be
00000190: 378b f83d 40b0 063d dc0e 4d3d a0ac ec3d
000001a0: e2f3 1cbe 48c9 133e 92bc 74bb 553d 06be
000001b0: 14df 623c 6ed5 a138 2eaa d1bd f454 00bd
000001c0: d30b 69bd 297f eb3d 46fa 1c3e f169 c53b
000001d0: 5f15 35be f338 e8bc b7b6 3b3c 1f5b 023e
000001e0: 0211 81bd 8006 133e dcb0 3f3d 1771 dbbd
000001f0: 3642 22be 1c63 16be 9dd3 44bb e37f 403d
00000200: 4ed6 8ebc 8855 443e fd6a eb3b 8115 f9bd
00000210: c2db 1cbd 9c04 7bbd 6bc8 8abd 6503 163e
00000220: c3b5 72bb f7b6 233e 856c 053d ca05 77bd
00000230: 7f16 ff3d 1ff7 efbd ce91 153d 9298 c73d
00000240: 6311 0b3d 3ea4 47be 945c 55bd 2f27 cdbd
00000250: 7197 b63d 9418 793d 4ca7 dc3b 237c 933d
00000260: 648e 67bd 6107 57bd 3e05 cf3d f872 38be
00000270: a6bf 15be d6ba e4bc 6fd3 47bd 0614 0b3d
00000280: f25e 003e 5d1a cfbc 5b04 2bbe 4d79 05be
00000290: c9cf fd3d fd25 91bd 29d1 f8bd 1bb2 613d
000002a0: e7d6 e03a 376e 41be 5c86 1b3e a976 f43d
000002b0: 4f91 223e f641 943d 8f1a 89bd dbcd a5bd
000002c0: 32a1 80bc c35d 98bc af9d 4b3c 7c12 3ebe
000002d0: 6119 b0bd fb63 993d c6f1 0cbd 4dd1 c8bd
000002e0: e73a 13be 9678 e33d 4158 26bd 59e8 37be
000002f0: cb8d 393e 6d8c 7f3d 030f 10be 2d35 2ebe
00000300: 52c1 5c3e 8ae0 633c b336 94bd 7696 c73d
00000310: 2f38 0fbd e6df 973c b83c b6bd 0aae 2bbe
00000320: 6c83 2dbe 74f2 57bd 413e cfbd 39d5 343e
00000330: 6951 153d 23c4 8fbd 4899 da3d 6e93 13be
00000340: 3768 76bd ab16 b23d 80f6 1cbe 372b 9f3d
00000350: bcc1 223b bc7b 2dbe 3b71 2fbe ad43 683d
00000360: 94bd c73d 221f 84bd 72ff 2cbe 6860 e6bd
00000370: cec0 563d 9f87 74bc 2b38 1e3d 010c 2d3d
00000380: bfa3 26bd 8eca db3c 4cf0 e53d 07f8 0b3e
00000390: 1492 213e d6a6 babd de10 e5bd edbd 11bd
000003a0: 2d79 913d 9975 8e3d ada0 3e3b 257e b6bd
000003b0: 67e0 e7bd df26 393e f8bb d4bd 16ba 56bd
000003c0: 1b18 e9bd ad83 8cbd 063c 773d 2228 e13d
000003d0: 92ff 90bd 6636 e2bc b64f 183e a425 afbd
000003e0: 95ab f3bd 796e cbbb 48f7 2b3e 0543 223d
000003f0: dcd3 4e3d ee74 30bc 6c54 ad3d 58f5 e0bd
-0.20328146 -0.16477974 0.0009276737 -0.1202005 0.09456871 -0.14562073 0.13368812 0.1077782
0.15399961 -0.06557432 -0.09538628 -0.14777872 0.088278346 -0.12850495 -0.060852095 -0.06360281
0.011875451 -0.12708515 0.13710706 -0.13136008 0.19253589 -0.019980446 -0.09628236 -0.083096735
0.086942084 -0.06551433 -0.20480375 0.11767516 0.1821229 0.07511319 0.13789232 0.0115332855
-0.010144154 -0.19362609 -0.20676151 -0.13637874 -0.026700456 0.11099869 -0.11940819 -0.011682539
-0.026628137 -0.13090219 -0.028897777 0.14047422 0.10769547 0.15112263 -0.068076186 -0.033498693
0.009620742 -0.0508142 -0.05264774 0.16364965 0.01926078 -0.13115524 0.16672201 0.05417354
0.10018874 -0.10896485 0.03310258 0.12285846 -0.031814788 -0.07098899 0.11477911 0.07688706
0.046537336 0.0363345 -0.024664566 0.057953395 -0.09737402 -0.12239901 0.039099507 -0.02784163
0.03606737 -0.05548775 -0.02944261 -0.016134826 0.06547908 -0.14769089 -0.17646839 0.032826953
-0.07376487 -0.051416762 0.004951512 -0.01974664 0.05079454 -0.023928316 -0.012099342 -0.061253667
0.002377114 0.040494997 0.10595884 -0.19848175 -0.056283474 -0.1932597 -0.10407161 0.049945455
-0.1356743 -0.17447878 0.07608323 -0.14421529 0.12135928 0.03288293 0.050063 0.11556363
-0.15327409 0.14432251 -0.0037343842 -0.13109334 0.013847131 7.7168326e-05 -0.10237537 -0.031331018
-0.056896042 0.11498863 0.15329847 0.006024592 -0.17683934 -0.028347468 0.011457137 0.12730072
-0.06302072 0.14357948 0.046799526 -0.107149296 -0.1584557 -0.14686245 -0.0030033358 0.046996962
-0.017436173 0.19173253 0.007184385 -0.12162305 -0.038295515 -0.061283693 -0.06776508 0.14649732
-0.0037034608 0.15987764 0.032574195 -0.060308255 0.12455463 -0.117170565 0.036516003 0.09745897
0.03395213 -0.19496247 -0.052090243 -0.10017239 0.08915604 0.060814455 0.0067338105 0.072014116
-0.05653228 -0.05249727 0.10108422 -0.18012607 -0.1462389 -0.027921122 -0.048785623 0.033954643
0.12536219 -0.025281126 -0.1670088 -0.13034554 0.123931475 -0.07087324 -0.12149269 0.055101495
0.001715389 -0.188897 0.15187973 0.11936695 0.15875743 0.072391436 -0.06694519 -0.080959044
-0.015701864 -0.018599397 0.012427731 -0.18561739 -0.08598591 0.07489773 -0.03441026 -0.09805546
-0.14377938 0.11106984 -0.04061151 -0.17959727 0.18120496 0.06238978 -0.14068227 -0.17012472
0.21558121 0.013908515 -0.072369955 0.09745495 -0.03496569 0.01853938 -0.088983 -0.1676561
-0.16944665 -0.052721456 -0.10119296 0.17659463 0.036454592 -0.07019832 0.10673767 -0.14411709
-0.06015798 0.0869573 -0.15328407 0.077719145 0.0024834713 -0.16941732 -0.17133038 0.056705166
0.09752956 -0.064512506 -0.1689432 -0.11248857 0.052429967 -0.014924913 0.038627785 0.042247776
-0.040683504 0.026829984 0.112274736 0.13668834 0.1577838 -0.09113853 -0.11184858 -0.035581518
0.071031906 0.06956024 0.002908747 -0.08910779 -0.11322098 0.18081234 -0.10387415 -0.05242356
-0.11381551 -0.06861053 0.060359977 0.10993983 -0.07079996 -0.02761383 0.14874157 -0.08552101
-0.11897961 -0.0062082377 0.16793549 0.039614696 0.050495014 -0.010770066 0.08463368 -0.109842956

emb_net.v_lins1.2.bias f4 [32]
00000000: 5708 de3d 9d3d 45bd 05a2 b73d f705 99bd
00000010: 9c68 d33b 710d c53d 60bb b03d 1f9a 24bd
00000020: 1b34 fbbb 6b89 d1bd 1040 a53d 2ffd fa3d
00000030: b08d 5f3d 2350 35be 3e4f 0ebe 78b1 f43d
00000040: 5325 0fbc 72eb e03d 2a61 073e e54c 67bd
00000050: 5477 f2bd 4d75 2bbe b4f3 7f3d c0d3 c23d
00000060: 34bf 76bd e3f4 3dbe 1651 f0bd c842 82bc
00000070: 704a 753d 67af 74bd 1877 eebd 7ffa dbbd
0.108414344 -0.048154462 0.0896645 -0.07471841 0.0064516794 0.09621704 0.08629489 -0.040186044
-0.0076661236 -0.102312885 0.080688596 0.12255322 0.054578483 -0.17706351 -0.13897416 0.11947912
-0.008736926 0.10982408 0.13220659 -0.056469817 -0.11839166 -0.16743965 0.062488273 0.09513044
-0.06024094 -0.18550448 -0.11734216 -0.015900984 0.059885442 -0.05973759 -0.11643809 -0.10741138

emb_net.v_lins1.3.weight f4 [32, 32]
00000000: 84d5 eb3c ee51 593d 13db 1ebe 7351 adbd
00000010: b750 43be 2b93 32bc cb74 cfbd 348c abbc
00000020: 6b3d 09bd e07f 30be d64c 4fbe 4f03 20be
00000030: ccdc c6bd f430 2d3d cb5e 2fbe aa8d 07bd
00000040: 9085 753c 6b73 0d3e a776 d7bd cc2e 203e
00000050: b120 1fbe 0ce0 23be 1d83 993c 7840 07be
00000060: 5a13 903d fc91 cabd 3ae4 093e 3e59 063e
00000070: 4de1 833c d130 03bc b964 ba3d 83d6 6d3d
00000080: 7188 f7bd fbe1 bcbd 47ba 6cbe b19b 323e
00000090: 94c9 a8bc b39e 833c 6088 43be 8cf4 84bd
000000a0: ae07 07bd 092b 9e3d 08f3 d0bd 1b8b 3f3a
000000b0: 5438 fe3d d979 4e3e 7250 96bd 703b 033e
000000c0: 1d19 613d c01c 483e c227 5e3d 8f3c c0bd
000000d0: 3734 febc 6436 823d 49e9 1d3e e277 0fbe
000000e0: 281a c53d 2e51 24be 63c5 c43d fc00 3f3e
000000f0: f332 cdbb 2480 7a3a 5e77 a23d deb6 81bd
00000100: f530 04be 0ced 12be fbf1 c33b 4fc2 223e
00000110: 3b1d 593c b6da 3ebe ad7a 76be ab41 d4bc
00000120: 3fda 993d b172 1abe eeb4 eb3b fcbc eabd
00000130: 0abc e93d 1a3c 29bd 88eb 6fbd 1ac3 46be
00000140: d078 a9bd c5d7 723c ecc7 6f3d 7f94 0e3e
00000150: 2785 19be 7b5f 183d 5acb 2dbc 4859 ea3d
00000160: 2357 f3bd 798d 3c3d 55f9 813d ff53 b63d
00000170: fb32 25bd 8308 9f3d ffe8 19bd 5f44 393b
00000180: 6358 06be 05cf c2bd 5cea d8bd a03e 20be
00000190: 4d49 cabd 19c5 183d 4804 77bc 637a 11be
000001a0: 6b75 613c ac6e 78bd 39e6 0a3d b202 46be
000001b0: 7884 8abd b82a 03be 8b4d 48ba b954 7c3c
000001c0: 8ccb 2b3a 40ae d63d 3eba e4bd 969c 82bd
000001d0: 92b6 bf3c 775e d43d ffd9 a63d c3d1 48bc
000001e0: 7f72 8cbd 727d bf3d 2381 b73d 38e4 ffbc
000001f0: 2a0c b83d de43 d13d 0f43 eabd 5ce3 b4bc
00000200: 54f1 73be a3e3 153d ab67 163e 0d17 71bd
00000210: b426 2cbd 0b0f c13c 44df 94bb 1340 bd3d
00000220: e261 1e3d a941 1abe 4544 05be 5ab4 3abe
00000230: f30b 5c3c d904 893d 53e2 013c 0948 343e
00000240: 9630 01bd 210d 083d fc1c e73d cc0e 503d
00000250: 6686 81bd f3e5 0f3e 997c 0dbe a1c7 783d
00000260: bdf8 1e3e f9d7 1fbe 65d1 32be 579c 283d
00000270: b81d 5dbd a530 04be f4a6 223c b929 b6bd
00000280: be57 fd3d a4ac f8bc 6414 c1bd 40d7 6c3e
00000290: 4a8b f23c 62e9 59bd 4bce e0bd 55ce 243e
000002a0: aeac 47bd 4464 063e 4543 a8bc 0729 ea3d
000002b0: 093b be3d 7be0 8abd af34 38be 5378 23be
000002c0: c5b9 7a3d b268 013e 6589 83bd 5293 b9bd
000002d0: 05e0 863c 5cf0 a83d 77c6 fabb afee 1ebd
000002e0: c615 0cbe 0862 203e 3543 05be 77cd 40be
000002f0: 50c5 cdbd f26c 463c 1ca0 c13b 8b35 333d
00000300: 87da 073d c963 a7bd 1fd3 a0bd cd75 16be
00000310: bc9b 11be d4d7 c43d 74ce 18bd e921 5ebe
00000320: eab5 9bbd 5ce9 dabd c11c 16bd f439 acbd
00000330: 0f70 2ebd 52fa 4a3d 21b8 cfbd c4b5 933c
00000340: fbc1 d7bd b933 c7bd 9776 51bd fbd7 d5bd
00000350: b518 523d 2ecd d3bd 2d00 cb3d 0faf 583e
00000360: a946 213e 7787 a5bd 0bfc bc3d 400a 54be
00000370: 75a9 223e aaeb 22be 6894 34be b078 17be
00000380: 5827 44be c76d 453d 8241 9bbd 8e25 70bc
00000390: e93c c2bc d150 273d 8898 d0bd a56e 31be
000003a0: 3db4 23be 096f a83d 88b4 0cbe ccb1 35bd
000003b0: e293 a13d 8a01 0dbd 7b29 86bd b9fe 1abe
000003c0: ff9e 03be 52a9 863d ced5 9bbd 4cdd f03d
000003d0: afb0 e5bc 57e1 47bd 3498 29be 2363 0b3c
000003e0: 8635 90bd d4cb a7bd 3174 90bd 3165 053c
000003f0: 3124 0ebe 40fe 043b 6b6f 043e 1f2f 7b3b
0.028788336 0.05305665 -0.15513258 -0.08462801 -0.19073759 -0.010899345 -0.10129698 -0.020940877
-0.03350584 -0.1723628 -0.20244154 -0.15626262 -0.097100824 0.042283013 -0.17126004 -0.033094086
0.014985457 0.1381356 -0.10520678 0.15642852 -0.15539815 -0.16003436 0.018739277 -0.13208187
0.07034941 -0.098911256 0.13465968 0.1311998 0.016098643 -0.008007244 0.091012426 0.058065902
-0.12086571 -0.0922279 -0.23117934 0.17442204 -0.020603932 0.016066885 -0.19094992 -0.06491956
-0.03296631 0.07723052 -0.102026045 0.00073068 0.124130875 0.20163669 -0.073395625 0.12815642
0.05495559 0.19542217 0.054237135 -0.09386551 -0.031030757 0.063580304 0.15421022 -0.14010575
0.096241295 -0.16046593 0.09607961 0.1865272 -0.006262177 0.00095558376 0.07932924 -0.06333707
-0.129093 -0.14348239 0.005979774 0.15894435 0.013251598 -0.18638119 -0.24070235 -0.02591022
0.0751233 -0.15082814 0.0071931994 -0.11461827 0.11412819 -0.041317083 -0.05857423 -0.19410363
-0.08274996 0.014821951 0.05854027 0.13923834 -0.149922 0.037200432 -0.010607565 0.1144281
-0.118818544 0.046033356 0.063463844 0.0890274 -0.040331822 0.07765295 -0.037575718 0.0028269512
-0.13119654 -0.09512142 -0.105915755 -0.1564889 -0.09877262 0.037297342 -0.015076704 -0.14206843
0.013760905 -0.06065242 0.033910964 -0.19336966 -0.06763548 -0.12809265 -0.00076409493 0.015401059
0.0006553463 0.10482454 -0.111683354 -0.06377523 0.023402486 0.1036958 0.08147048 -0.012257042
-0.06857776 0.09350099 0.08960178 -0.031236753 0.08986695 0.10218023 -0.11438572 -0.02208107
-0.23822528 0.036594044 0.14687984 -0.058859874 -0.042029098 0.023566743 -0.004543217 0.09240737
0.038667567 -0.1506411 -0.13014324 -0.18232861 0.013430583 0.06690378 0.007927495 0.17605604
-0.031540476 0.033215646 0.11284825 0.05079536 -0.063244626 0.14052562 -0.13817061 0.060737256
0.15524574 -0.15609731 -0.1746269 0.041164722 -0.05398342 -0.12909181 0.0099275 -0.08894677
0.12370251 -0.030355759 -0.09427717 0.23128986 0.029607434 -0.053201087 -0.10976847 0.16094334
-0.048748665 0.13124186 -0.02053989 0.114336066 0.09288604 -0.067810975 -0.17988847 -0.15963869
0.06121232 0.12637594 -0.0642269 -0.09061302 0.016464243 0.0824897 -0.0076530534 -0.038801845
-0.13680181 0.15662396 -0.13013919 -0.18828379 -0.100474 0.0121109355 0.005908979 0.043752234
0.03316739 -0.081733294 -0.07852768 -0.14693375 -0.14219564 0.096114784 -0.037306264 -0.21692623
-0.07603057 -0.10689041 -0.036648516 -0.08409491 -0.042587336 0.04955513 -0.10142542 0.018031009
-0.10535046 -0.09726662 -0.051138487 -0.10441586 0.051293094 -0.10341869 0.09912143 0.2116053
0.15749611 -0.080824785 0.09227761 -0.20707035 0.15884955 -0.15910211 -0.17634737 -0.14792132
-0.19155633 0.048200395 -0.07580854 -0.014657391 -0.023710685 0.040848557 -0.10185343 -0.17327364
-0.15986724 0.08224303 -0.13740742 -0.044359013 0.078895345 -0.034425296 -0.065508805 -0.15136231
-0.12853621 0.06575264 -0.076091394 0.11760959 -0.02803835 -0.048798885 -0.16561967 0.008507523
-0.07041459 -0.08193174 -0.07053412 0.008141802 -0.13880993 0.0020293146 0.12933128 0.0038327647

emb_net.v_lins1.3.bias f4 [32]
00000000: b8ac 0fbe 0411 0a3d e0ee ea3d 0bac d2bc
00000010: 2fde d43c 8aae c53c 4db0 653c d26a 383d
00000020: 995b 29be 7254 013e d3a3 983d 1078 953c
00000030: 7ca2 d23c a4d0 02be bcf1 2cbd cf45 01bc
00000040: 8d60 4e3d f956 bdbd cd32 b43c 4a10 38bd
00000050: 2318 fe3d 5439 0fbe f729 e63c 2c63 f13d
00000060: 2398 10be 3017 be3b c6c8 903d cb96 bb3d
00000070: 3ccf 083d b6e4 803d eb44 f7bd 5fae 123e
-0.1403073 0.033707634 0.11471343 -0.025716802 0.025984852 0.024131078 0.014019084 0.045023747
-0.16538848 0.1262987 0.07453122 0.018245727 0.025712244 -0.12774903 -0.042222723 -0.007890179
0.050385047 -0.09245104 0.02199688 -0.04493741 0.124069475 -0.13986713 0.028096182 0.11786494
-0.14120536 0.005801104 0.070695445 0.09159621 0.03340076 0.06293623 -0.12073692 0.1432433

emb_net.v_lins1.4.weight f4 [32, 32]
00000000: 63e2 aebd 8b07 fa3d a02d 283d 11c9 0dbd
00000010: 6622 813d fa21 173e edac 2f3e ffc0 26be
00000020: 57d8 9e3c 7c38 0abe e2eb de3d 01f8 003e
00000030: 330d 11be 6dc8 1abc 5923 a43d 3d6a 0c3e
00000040: c6ab d4bd a258 e43d 5c14 6cbd 7023 21be
00000050: 5fc7 9dbb b01e 813d 523f 9c3d 4640 eebd
00000060: 3738 edbd 0cc3 fdbd 0151 b03d 67ba 25be
00000070: f9ed d43c e009 98bd a0f6 763d 034c 053d
00000080: f3cb ccbc 7d22 1bbd 2dcb d83d 2d52 2f3d
00000090: 3e43 d2bd 06c3 3d3d 9ba4 5bbe 7f16 d1bd
000000a0: e945 5cbd f1b5 0fbe 61c5 073e 1f7e a13c
000000b0: ef3e d13d a389 81bd 6e1b b6bd 2348 81bd
000000c0: 329e 77bd e59c 303b eaff 1fbe 6e98 3e3e
000000d0: d4a9 d53d 3bfd 07be 4106 60bd 1385 3abe
000000e0: b872 b1bd 51f3 ba3d c56b ce3d 333b 923b
000000f0: a45d 963d c68a 9f3d 27d9 a13d 5453 4bbe
00000100: d601 b43c e5b4 8abe aba6 08be 5219 ddbd
00000110: d242 3abd ffbf 39be 3c6e 013d a1bc 393b
00000120: b903 3dbd 3e54 ad3c 710a 453e fb07 6dbd
00000130: 8c43 14be a294 40be b04c d7bd 426f 98bd
00000140: 4fb1 84bd d9c7 04be 9338 6d3d 91f4 1f3d
00000150: 1d0e 383e b5bc 1e3e 6736 d4bd 7844 01be
00000160: 67ed 493d 1d3c 22be 6048 b93c 9c88 aebd
00000170: d826 0bbe be0e 35be e47c 1bbe 8dc8 8c3d
00000180: 05cd f53d e0a5 c63d 7618 2dbd 81f7 33be
00000190: 015e b8bd bc27 1bbe 8334 62bc 68c2 4fbe
000001a0: 7294 123e 4800 32be 8e33 99bd 95ba c93d
000001b0: 9206 1bbe 505b 903c 5351 f93d 4b52 403e
000001c0: 3865 973d b628 90bd 86d3 5a3d 3bcb 5abd
000001d0: 5cf5 34bd d166 73bc 0b43 bf3b d28c c23d
000001e0: e47a c33d 4353 4d3d 1527 9ebc 2606 6bbd
000001f0: 740f 3f3d 6348 253d 747b 4cbe adeb 573d
00000200: 898a 88bd de8a fcbd bd7b 9a3d 0471 cabc
00000210: 4017 95bd a1c8 aebd 8694 b8bc c346 423e
00000220: 20ef 1e3c 0ad9 343c 6866 e1bd 9774 bf3d
00000230: e9fa e33c caed 363d 6cea f1bc 022f d8bd
00000240: aaa9 68bd 5d15 7c3e df2b 193e a2ae 0bbe
00000250: f521 233d 61bd 9d3d 77f7 87bd 7bf2 35be
00000260: bae1 963c 58a9 60bd ef25 013e a13d 14be
00000270: ae3d d23d 0662 18bd 8511 653d e204 0f3d
00000280: 9f4d 833b db35 37be 33d4 c4bd 5c57 b4bd
00000290: c739 073c a4ff 883c 8c64 8dbd 915a b3bd
000002a0: f4e5 263d e0d9 4fbe b6c6 c43d b7a7 88bb
000002b0: b421 863d 06f1 063e 2707 31bc 01dd 573d
000002c0: 26aa c8bd 7b1d 173e 62b8 0a3e 594f b0bc
000002d0: 07c0 2d3d 653f 92ba c17e c23d 9a37 4c3d
000002e0: 0438 e23d b6c4 2ebe 6ae2 4a3e b272 533d
000002f0: b3e0 be3d 14c3 2d3c 9f8b ee3d cc23 103e
00000300: d9e3 b83c 157e 52be 9c18 e43d 5d21 aabd
00000310: 4017 c5bd 49ac fd3d a363 8a3d 60a1 06bd
00000320: 740b 763c 3b38 3cbd 2771 103e eb05 953d
00000330: c3cd dd3d 9d8b f33d c62c a8bd 83da b43c
00000340: bb68 31be 6a4a f33d e64c 64be 7f3f 58be
00000350: c7ef 4fbe 9cb1 ad3d e91b 0b3d b233 8e3b
00000360: 5ca2 5a3d 492e 10bd 2050 b9bd 65ea 0abe
00000370: c81d 87bd df54 dfbd 21d8 46bd 5247 dc3d
00000380: dfdb 98bd b96b b33d 09cf 41be 25d6 80bd
00000390: ef0f 003c 59fa f63c 0983 063e b58e 53bd
000003a0: 9ca6 b7bd b8d9 e8bd 1cad 453d d1d7 24be
000003b0: 3c92 03be 2d71 93bd 4615 61bd 33e0 00be
000003c0: 77c8 febd cda4 1b3e e11f 183e a64a 1cbd
000003d0: 95f1 45be ed5a d6bd eff7 2d3d 12b5 603d
000003e0: 7f4f 71bd 4351 34be 89b1 6abd 5225 d7bc
000003f0: bde8 a03d 3913 92bd 5778 8d3d d516 07bb
-0.085392736 0.1220847 0.041059136 -0.03461558 0.06305389 0.14759055 0.1715581 -0.1628456
0.019390268 -0.1349811 0.10884835 0.12594606 -0.14165191 -0.009447199 0.080145545 0.13712402
-0.10384326 0.11149718 -0.057636604 -0.15736175 -0.0048150267 0.06304681 0.07629265 -0.11633353
-0.11582988 -0.12390718 0.086092 -0.16184388 0.02599238 -0.074237585 0.060293794 0.032543194
-0.024999594 -0.037874687 0.10585628 0.04280298 -0.10266732 0.046328567 -0.21449511 -0.10209369
-0.05377761 -0.14034249 0.13258888 0.01971346 0.10217082 -0.0632508 -0.088919505 -0.06312587
-0.0604536 0.0026948985 -0.15624967 0.18612835 0.10432783 -0.13280194 -0.054693464 -0.18214826
-0.08664459 0.0912844 0.10079149 0.0044626235 0.07342079 0.07790141 0.07902747 -0.19856006
0.021973532 -0.27091137 -0.13344829 -0.10795845 -0.04547388 -0.18139647 0.03159927 0.0028341191
-0.04614613 0.021158334 0.19242264 -0.05786894 -0.14478892 -0.18806699 -0.10512674 -0.07443096
-0.064791314 -0.12966861 0.05791528 0.039051596 0.17974134 0.15501674 -0.10361939 -0.12623775
0.04929867 -0.15843244 0.022617519 -0.0852215 -0.13589036 -0.17681405 -0.1518436 0.068741895
0.12001995 0.09699607 -0.042259656 -0.17574884 -0.09002305 -0.15151876 -0.013806465 -0.20289004
0.1431444 -0.1738292 -0.074805364 0.09850041 -0.15139225 0.017621666 0.121737145 0.18781392
0.07392353 -0.07039015 0.05342438 -0.053416472 -0.044179305 -0.014856056 0.0058368496 0.094995156
0.09544924 0.050128233 -0.019305745 -0.05737891 0.046645597 0.040352236 -0.19968969 0.052714992
-0.066670485 -0.12331174 0.075431325 -0.024712093 -0.07279825 -0.08534361 -0.022531759 0.18972306
0.0097005665 0.011038074 -0.110058606 0.093484096 0.027829604 0.044660367 -0.029530726 -0.10555841
-0.05680243 0.24617524 0.14958142 -0.13640836 0.039827306 0.07702137 -0.06638997 -0.1776828
0.018418182 -0.054849 0.12612127 -0.14476635 0.10265671 -0.037202857 0.05592491 0.034916766
0.004007056 -0.17891638 -0.09610786 -0.08805725 0.008253521 0.016723461 -0.069039434 -0.087575085
0.040746644 -0.20297956 0.096082136 -0.004170384 0.06549397 0.1317788 -0.010804928 0.052701
-0.09798078 0.1475734 0.13546899 -0.02152221 0.04241946 -0.0011157809 0.09496833 0.049857713
0.110458404 -0.17067227 0.19812933 0.051623054 0.09320202 0.010605592 0.11647724 0.14076155
0.022569584 -0.20555909 0.11137506 -0.08307145 -0.09623575 0.123863764 0.067572854 -0.032868743
0.015017379 -0.045952063 0.14105664 0.072765194 0.108302616 0.118918635 -0.08211665 0.02207685
-0.17325108 0.11879428 -0.2229496 -0.21117972 -0.20306312 0.08481142 0.033962164 0.0043396587
0.053377494 -0.03520039 -0.09048486 -0.13565977 -0.06597477 -0.1090486 -0.04854596 0.10755791
-0.07463812 0.08760781 -0.18926634 -0.06290845 0.007816299 0.030148672 0.13135923 -0.051649768
-0.08967325 -0.113696516 0.048260793 -0.16097952 -0.12848753 -0.07199321 -0.05495193 -0.12585525
-0.124405794 0.15199585 0.14855911 -0.038157128 -0.19330437 -0.104665615 0.042472776 0.054860182
-0.058913704 -0.17609124 -0.057298217 -0.026262913 0.07856891 -0.07132573 0.06907719 -0.0020612974

emb_net.v_lins1.4.bias f4 [32]
00000000: 4de2 873d 3c20 70bc a58a febb 6b65 5ebb
00000010: efba 32be 89c6 fcbd e77a ff3c 0599 323e
00000020: efa8 d2bd 492a e23d ae21 983c dfe2 abbd
00000030: 6b41 61bb 10fd b23d f8f1 c63c eb40 213e
00000040: 61a2 583b a0dc edbd aa25 253e 2f2e 4abd
00000050: cf21 d83d eb33 f03d 9dd9 e73c ee8a 13be
00000060: ad42 33be 75b6 a83d 522e 063d d6e6 c53d
00000070: 6c0d 24be 0e03 a1bc aa21 183e a375 be3d
0.0663496 -0.014656123 -0.0077679926 -0.0033934962 -0.17454122 -0.12342555 0.031186534 0.17441185
-0.10286128 0.110432215 0.018570747 -0.083928816 -0.0034371268 0.08739674 0.024285302 0.1574742
0.003305577 -0.116143465 0.16127649 -0.04936045 0.105533235 0.117286526 0.028302008 -0.14408466
-0.17505904 0.08237926 0.03275902 0.09663169 -0.16020745 -0.019654777 0.14856592 0.09299781

emb_net.v_lins1.5.weight f4 [32, 32]
00000000: 64fb d93b e1c8 3c3e e826 84bd 7f34 e4bd
00000010: a0a0 d7bd 7703 423d 25e8 2ebe 4164 ea3b
00000020: 6885 153a 12fd 9c3d 0675 e93d 2829 cf3d
00000030: 82e1 c6bb 4c03 d43d 8297 d7bd e9c5 c6bd
00000040: a738 35ba 6c1e dfbd f627 3e3e be50 473c
00000050: 1daa 523d 8e48 18bd 823f 37bb 57b4 84bd
00000060: 9af4 43bd abf1 e8bd d07c f4bd 6a32 f73d
00000070: 0a0d 00be 2b60 42bb 2a0a df3c 6f65 55be
00000080: fe44 c53d bd4e c73c 9dc7 d83d f5c5 693d
00000090: f467 173e 8ed6 713d 58e2 833b af75 8f3d
000000a0: fee7 51be 836c 8ebd 27f3 05be 8248 ff3d
000000b0: 7972 793d 5440 63bd bc89 51bd 7188 14bd
000000c0: 795c 38be 0458 623d 6f0b ef3d c3e6 943d
000000d0: 6de3 51bd 9601 463e e660 ea3d f802 34be
000000e0: 2143 6c3d cc6e e2bd f77b be3d f842 413e
000000f0: 897f 763c 4430 09bd 46b7 e6bd 9827 f8bd
00000100: 0d25 89bd c5a1 86bd 6f27 b63d 122a 77bd
00000110: 3242 a93c ea2d 54be c6b0 2b3e 1a45 673d
00000120: e653 a2bd b8a9 903a 01ff 633d 3333 fdbd
00000130: 4878 a1bd 6576 933d 9da9 4e3e ad95 66bc
00000140: d43c 233d ceb7 6fbe 521e 81be 6303 cb3d
00000150: a97d 593e c78e b8bd 5fd3 d2bd bae0 223d
00000160: 4e1d 853d 9384 21be 6672 1bbe e775 00be
00000170: d36b a3bd ccac 503d 6000 1a3e 465c fc3c
00000180: c027 11be d755 0a3e c4fc 103e 6637 143c
00000190: 5d36 5a3d 64ce 323d 0e04 573e 11ce 58be
000001a0: 0b43 82bd 2531 edbc 616e aabc e15e f6bd
000001b0: 576f 18be abd5 eebd 669c 2fbd 7ca1 4e3e
000001c0: 2518 5d3d 80a5 f93c aabc 08be eabd e6bd
000001d0: 1910 933d 1300 31be ed3a 0fbd 856e dd3c
000001e0: 20cd d93d bcd9 9cbd 23bf 113e b8e2 adbc
000001f0: 54c1 06be a198 323e a10a 193e 705b d6bd
00000200: 1328 dcbd 4fbd f53d 2144 afbd 63c6 803d
00000210: c0e7 1abe fabf 8ebd 95ff bebd cd35 2a3e
00000220: a16e b4bd 890f 7bbd f693 bc3d 104a f3bd
00000230: 781b 62bc 7ea0 0fbe fdd9 46be d0cc 8dbd
00000240: 05f1 bbbc aa39 253e 1764 18be 419f 34bd
00000250: 36f8 59bd c0d8 35bc 0b96 c13d d9ad 2ebe
00000260: cf96 90bd 225c 0ebc 22a8 28be 500d a73d
00000270: bb82 2ebe f0e6 833d 322a 643d abab 72bd
00000280: 6317 bd3d 4b6c 2f3e 8f5a b13d b281 993d
00000290: d5f0 12be a9e9 a2bc b6ba fc3d fdc1 93b9
000002a0: 31b4 da3d 3944 e7bd cd4e c63d 11ed c9bb
000002b0: 1aa5 30be 340e d2bd 165f 043e 383a 9ebd
000002c0: 3796 47bc 36c3 a4bd 45b5 d4bd fcfe 443c
000002d0: 9462 b43d 2c53 12bc 6f1b a6bd aa2f d0bc
000002e0: 9d48 15be f9a4 0bbe b00b c13b 3e79 00be
000002f0: 7205 983d 822d 6d3d 79e7 54bd a5c6 42bd
00000300: 87a2 ff3d dfab 053e 95fb 903d f3b0 f43d
00000310: f9a3 3abd 5c03 4b3d 3973 f7bd 6179 a43d
00000320: 7719 1bbe 971c 9f3d 4731 3a3d 10f5 1a3e
00000330: 0ada 333e bd0f e63d 4dab b63d fe8d 353d
00000340: c7d9 2a3e 1bde ab3d 445b a43d 7755 6abc
00000350: 3b78 a5bd fe02 3abc e1be 0f3e fb1c 85bd
00000360: 48dc dd3c 56f9 533e e5c4 f63d 33a6 03be
00000370: 0a18 493d 17bb 073e 256d b2bd b307 053e
00000380: 2a6d eabd 4003 edbd 087d 50bd 3531 0ebe
00000390: 466e 19be c6d3 b0bb 6824 8e3d 403e c5bc
000003a0: 33f5 203e 0c1f d4bd 2f0c bfbd 5925 febd
000003b0: 7ede 89bd 91bd 2abe 9619 983d 1a5e 01be
000003c0: 4b5b 18be ff13 473d de3e 28be 063e 92bc
000003d0: 4e4e e4bd 7312 0a3d 0016 2d3d e27c 4abe
000003e0: 3613 b83d 7e24 19be aaa6 1c3d d910 043e
000003f0: 4ccd f6bd 9b4a 113d 5392 863d 7b66 113e
0.0066522826 0.18436004 -0.06452733 -0.11142825 -0.10528684 0.047366586 -0.17080744 0.0071530645
0.0005703778 0.07665457 0.113992736 0.10115272 -0.006069363 0.10352191 -0.10526945 -0.09705717
-0.0006913044 -0.108944744 0.18569931 0.0121652465 0.051431764 -0.03717857 -0.0027961438 -0.064797096
-0.047840692 -0.113742195 -0.119378686 0.120701626 -0.12504974 -0.0029659371 0.027226526 -0.20839475
0.096323 0.024329538 0.10584948 0.057073552 0.14785749 0.059042506 0.004024785 0.07004868
-0.20498654 -0.06954291 -0.13081037 0.12465002 0.060900185 -0.05548127 -0.051156744 -0.036262933
-0.18004026 0.05525972 0.11672103 0.07270577 -0.05124228 0.19336542 0.11444263 -0.17579257
0.057681207 -0.11056289 0.09300988 0.18873203 0.015045055 -0.033493295 -0.112654254 -0.12116927
-0.0669652 -0.06573824 0.0889424 -0.060342856 0.020661447 -0.2072064 0.16766652 0.056462385
-0.079261586 0.0011036908 0.055663113 -0.12363281 -0.0788427 0.07200316 0.2018189 -0.014073771
0.039852932 -0.2340996 -0.25218445 0.09912755 0.21239342 -0.090116076 -0.10294222 0.039765097
0.0649973 -0.1577323 -0.15180358 -0.12544976 -0.0797955 0.050946042 0.15039206 0.030805718
-0.1417532 0.13509308 0.14158922 0.009046411 0.0532745 0.04365386 0.2099764 -0.21172358
-0.06360444 -0.028954098 -0.020804586 -0.120298155 -0.14886223 -0.11661848 -0.042873763 0.20178789
0.053978104 0.030474424 -0.1335322 -0.11266692 0.07180805 -0.17285185 -0.034968305 0.027030239
0.106348276 -0.07658717 0.14233069 -0.021226272 -0.13159686 0.17441036 0.14945461 -0.10466659
-0.10749831 0.119989984 -0.085579164 0.06287839 -0.15127468 -0.069702104 -0.09326092 0.16622086
-0.08810163 -0.061294112 0.09207909 -0.11879361 -0.013800494 -0.14026067 -0.19419093 -0.069238305
-0.022942076 0.16135278 -0.14881931 -0.04409719 -0.053215228 -0.0110990405 0.094524466 -0.17058505
-0.070600145 -0.008688958 -0.16470388 0.08156836 -0.17042057 0.06440532 0.055704303 -0.059245747
0.09232976 0.17131154 0.08659851 0.074954405 -0.14349683 -0.019886808 0.123403 -0.00028182557
0.106789 -0.11292309 0.09682999 -0.0061622937 -0.17250481 -0.10256615 0.12926897 -0.07725948
-0.01218181 -0.08045046 -0.10386137 0.012023684 0.08807865 -0.0089309625 -0.08110701 -0.025413353
-0.14578481 -0.13637151 0.005891286 -0.1254625 0.074229136 0.057904728 -0.051978562 -0.047552723
0.124821715 0.13053845 0.070792355 0.11947813 -0.045566533 0.04956375 -0.12082524 0.08030964
-0.15146433 0.07769125 0.04545715 0.15132546 0.17563644 0.112334706 0.08919392 0.044324867
0.16684638 0.08391973 0.0802522 -0.014302603 -0.08079573 -0.011353252 0.14037658 -0.06499668
0.027082577 0.20700583 0.120492734 -0.12856369 0.04909519 0.13254963 -0.08712224 0.12991218
-0.11446603 -0.115728855 -0.05090049 -0.13885958 -0.14983472 -0.005396339 0.06940538 -0.024077535
0.15718536 -0.10357484 -0.09328496 -0.12409467 -0.0673189 -0.16673876 0.07426755 -0.12633553
-0.14878576 0.048603054 -0.16430232 -0.01785184 -0.11147748 0.033709 0.04225731 -0.19774202
0.08988039 -0.14955327 0.03824488 0.12897052 -0.12050876 0.03547154 0.06570878 0.1419925

emb_net.v_lins1.5.bias f4 [32]
00000000: e7a9 683d 4fbc 92bd 7859 54bd ac48 e93c
00000010: 0a79 1e3d a5c0 1b3e bd19 293e 1ee4 353c
00000020: b333 243e 77a1 cfbd b587 643a 2599 14be
00000030: d85d bb3d 5000 0f3d 7cbd d6bd fbf7 08be
00000040: 2964 cbbc 6a6e 8dbd e59d 8abd fbcb 1abe
00000050: 3f14 e2bd 45be 163e d2f1 c5bd 1977 8a3d
00000060: d6b1 323c 80a3 b6bc b076 7d3d 2138 063e
00000070: 26f0 543d 38c2 933c fc8f 113e 7344 003d
0.056802657 -0.07164823 -0.051843137 0.028477035 0.03868965 0.15210207 0.16513725 0.011101751
0.16035347 -0.10138219 0.00087177317 -0.14511545 0.09148759 0.034912407 -0.1048536 -0.13375847
-0.024828034 -0.069058254 -0.06768397 -0.15116875 -0.11039018 0.1472102 -0.09665264 0.06760997
0.010906657 -0.02229476 0.061880767 0.13107349 0.051986836 0.018036947 0.14215082 0.03131528
