pretrained/op/100/op100_sd0/20.pt (torch, 359348 bytes, 234 tensors)

emb_net.v_lin0.weight f4 [32, 2]
000000 7c c7 20 bc 50 f2 c0 3e b5 13 16 bf f4 07 06 bf
       -0.009813186 0.3768487 -0.5862382 -0.52355886
000010 71 24 90 be ec 69 41 3e 2a 9b 9f bc 9f 05 0d 3f
       -0.28152803 0.18888062 -0.019483168 0.550867
000020 b7 2d 7a bd ac 7c 3e 3e 55 10 52 be 3a 19 0a be
       -0.061078753 0.18602246 -0.20514043 -0.13486186
000030 4d 42 2a bf 02 1e ea be 25 27 98 be 75 b2 96 3c
       -0.66507417 -0.4572602 -0.29717365 0.018395642
000040 b2 ca 8f 3e a1 94 d9 3e d0 41 ff be bc 0e a8 be
       0.28084332 0.42496207 -0.49854898 -0.3282374
000050 8e f1 82 3e e2 d1 16 3f d3 46 14 be 4c 1b 07 3f
       0.25574917 0.58914006 -0.14480142 0.52776027
000060 e0 f0 e2 bd ea 46 9a 3d 71 ba 21 3f d3 22 29 bf
       -0.110810995 0.07533057 0.6317511 -0.6606876
000070 d6 48 e0 be 37 69 35 be 06 23 8a be c4 03 1d 3f
       -0.4380557 -0.17715918 -0.26979846 0.6133387
000080 5c fb e7 be 72 b9 a2 be b3 cc f6 be 79 ac 25 bf
       -0.4530896 -0.3178211 -0.48203048 -0.647163
000090 89 d7 d2 be dd 3a 1a 3f d4 ce 9a 3e 19 8b a7 3e
       -0.41180065 0.6024607 0.30235922 0.3272331
0000a0 b8 b5 0c 3d 1d 7c b9 be 01 88 fc 3d 03 c8 28 bf
       0.034352988 -0.36227503 0.12330628 -0.65930194
0000b0 8e cb 01 bf a1 94 b9 be 08 81 e8 3e 23 72 d6 3e
       -0.50701225 -0.36246207 0.45410943 0.41883954
0000c0 a5 a1 9e be 78 79 c6 bc 39 34 e4 3e 75 92 32 3f
       -0.309827 -0.024227843 0.44571093 0.69754726
0000d0 9f 97 96 3e dd a6 de 3d 08 52 ef 3e be 75 d7 be
       0.29412553 0.108716704 0.46742272 -0.42082018
0000e0 58 f3 05 3e a3 fe 0b bf f9 b7 fa be 95 d8 ba be
       0.1308111 -0.5468542 -0.48968485 -0.36493364
0000f0 23 eb aa 3e 66 72 9a 3e 3a 6e d8 be 1b 9c 53 3e
       0.3338252 0.30165404 -0.42271596 0.20665018

emb_net.v_lin0.bias f4 [32]
000000 ca 82 c4 3e e5 05 b1 bd 53 17 39 3d 2e 79 1e 3e
       0.38381034 -0.086437024 0.04518826 0.15475914
000010 91 9b e6 3e b8 7c 2d 3f 56 9a 0a bf 11 11 82 be
       0.45040563 0.6776843 -0.5414175 -0.25403646
000020 4f 51 8e 3e 9e d0 17 3f da dc 1c 3f 22 31 1d 3f
       0.2779641 0.593027 0.6127449 0.61403096
000030 0a 8e 2d 3e ca 09 22 bf a3 af 7b 3d bf 6c e1 be
       0.16948715 -0.63296187 0.061446797 -0.4402828
000040 3d 45 25 bf 70 ae 1e 3f bf 23 08 3f aa 35 37 bf
       -0.64558774 0.6198492 0.53179544 -0.7156626
000050 3b 12 04 3e 24 35 f6 bd 2f 0d dd bd 13 5f a1 be
       0.1289758 -0.120218545 -0.1079353 -0.31517848
000060 72 2f 8b 3e fe ec d4 be 13 3d 8d 3e 76 4d aa 3e
       0.27184635 -0.4158706 0.27585658 0.33262223
000070 ed 74 02 3f ac 4d 83 3e b0 23 2f bf de c9 e7 be
       0.50959665 0.25645196 -0.6841383 -0.452712

emb_net.v_lins1.0.weight f4 [32, 32]
000000 6a 6c f4 3d af 52 e4 3b 78 10 31 be a0 ff 8e bd
       0.11934741 0.0069678645 -0.17291439 -0.0698235
000010 cc 25 48 3e fe 4b b2 3d 39 64 d9 bd de ae 9e bd
       0.19545668 0.087059006 -0.10614819 -0.07748197
000020 a8 16 0b be 00 83 0d bd 92 d0 ce bd 29 78 d9 bd
       -0.13582861 -0.03454876 -0.100983754 -0.10618622
000030 e8 3e 38 bd 13 39 0b 3d d1 65 d4 bd 03 3e 09 3e
       -0.044981867 0.033989977 -0.103709824 0.13402562
000040 f5 32 0c be 49 7b 05 3e a7 9e 12 3e 5b 64 0b be
       -0.13691314 0.13035311 0.14318334 -0.13612501
000050 e4 df 96 bd d9 dc a9 bc 62 a0 97 bb e1 2a 80 3d
       -0.073669225 -0.020735191 -0.0046272734 0.062581785
000060 e4 20 16 3d de 9b a2 3c d6 e0 59 bd c3 b3 de 3d
       0.03665246 0.019849714 -0.053192936 0.108741306
000070 f3 47 4b be 65 b9 0a be f0 dd f0 bc a5 ba f6 bd
       -0.19851665 -0.13547285 -0.029402703 -0.12047318
000080 a3 15 9a bd 43 99 15 be 21 29 e0 bc ae 85 c9 3c
       -0.07523658 -0.14609246 -0.027363362 0.024599876
000090 e0 22 04 be 6b e7 99 3b 65 70 f7 3d cf 6d 6d bb
       -0.12903929 0.0046967766 0.120819844 -0.003622878
0000a0 9e b0 ff bb 3e e3 85 ba 82 1d bb 3c 83 13 ca 3d
       -0.007803037 -0.0010214818 0.022841219 0.09867003
0000b0 a1 1a 36 3e 8d fe ef 3d 88 83 39 3e 1d 92 d9 bc
       0.17783596 0.117184736 0.18116581 -0.02655893
0000c0 0c 3c 27 be 8e 28 99 bd c1 52 d9 3d f8 9d 55 bc
       -0.163315 -0.07478438 0.10611487 -0.013038151
0000d0 e9 d1 96 bd ad 8b fd bd b4 a1 25 be f9 f0 24 be
       -0.07364256 -0.12380157 -0.16174966 -0.16107549
0000e0 28 65 b3 bc e6 4f ae 3d b2 b3 a9 3d 6d 74 30 be
       -0.021898821 0.08511333 0.08286227 -0.17231913
0000f0 b2 58 fe 3d fb 12 02 be 4a 12 4a bd 6b 9a 6c bd
       0.12419261 -0.12702553 -0.049333848 -0.057764452
000100 e8 60 83 bc e4 0e 1f bd bf ba 37 be f5 79 0a be
       -0.01603742 -0.03883256 -0.17942332 -0.13523085
000110 b8 a5 19 bc 86 64 98 bc ee d7 9c bd a1 7a 3a 3d
       -0.009377889 -0.01860262 -0.07658373 0.045527104
000120 96 83 10 be 41 70 fd bc 5d f7 31 3e 8d fa 5c bd
       -0.14112696 -0.030937316 0.17379518 -0.05394988
000130 41 de 0d 3e 3c 93 77 3d 01 5c 35 be 84 92 02 3e
       0.13854314 0.060443148 -0.17710878 0.12751204
000140 81 34 a2 bc cc 73 bf bd 49 83 20 3e 24 13 04 be
       -0.019800426 -0.093482584 0.15675081 -0.12897927
000150 9d 15 87 ba c0 3e 5f bd c0 eb ef 3d 76 30 85 3d
       -0.0010306124 -0.054503202 0.117148876 0.06503384
000160 73 26 82 3d b3 e9 9d 3d ac e5 c1 bc 67 5c c2 bc
       0.0635499 0.0771059 -0.023669086 -0.023725701
000170 f9 7c 29 be 77 ee a4 3d 68 31 1e 3e ae c3 ca 3d
       -0.1655158 0.08053296 0.15448534 0.09900604
000180 70 b2 08 be ee 2e bc bb 73 34 0e be f4 f0 df bd
       -0.13349319 -0.005742899 -0.13887195 -0.1093463
000190 02 5d e1 bd 65 db 59 3d d5 91 f5 bd da 9e 84 bc
       -0.11004068 0.053187747 -0.11990706 -0.016189028
0001a0 5b 6b 6c bb 67 a0 d1 3d 99 00 13 be 46 c2 05 be
       -0.003607473 0.102356724 -0.14355697 -0.1306239
0001b0 6b a5 ea bd 15 c2 0c 3e ff 44 9b bd f1 6e 09 3e
       -0.11457332 0.13745911 -0.07581519 0.13421227
0001c0 4d 39 4c 3d ec 45 33 3c e7 5c 88 bc ef e6 42 bd
       0.049859334 0.010941964 -0.016645862 -0.047583517
0001d0 c5 32 87 3c 88 6f 4a bd 34 30 6c bc 51 5a 18 3c
       0.016503701 -0.04942277 -0.014415789 0.009298877
0001e0 36 38 18 be 70 7c d9 bd eb 25 0c 3e 30 56 03 be
       -0.14865193 -0.10619438 0.1368634 -0.12825847
0001f0 c7 ac 8b bc 4f 5a 26 3e 37 d0 4f 3d ea 5b 2e bc
       -0.01705016 0.16245387 0.05073568 -0.010642031
000200 02 8c 0a be ba 08 82 3d 3a 7a 21 be 67 77 1d bd
       -0.13529971 0.06349321 -0.15769282 -0.03844395
000210 d9 66 18 bd 34 c3 7f bd 7a aa 94 bc 4e 11 e2 3d
       -0.03720746 -0.06244202 -0.018147696 0.11038457
000220 6f 9b 07 3d d5 c9 00 3e 40 fc fa 3d 87 b8 bf bd
       0.033107217 0.12576993 0.12255144 -0.09361368
000230 66 63 3f 3d 79 c6 fe bd 4a 76 d8 bd 67 e7 73 3d
       0.046725653 -0.124401994 -0.10569437 0.059546854
000240 69 fe 15 3d 3d 05 d6 3d 28 14 34 bd 2b 19 17 ba
       0.036619578 0.10450218 -0.043964535 -0.0005763943
000250 2e 28 69 3d 00 bd 4c be f6 73 d1 3d 64 62 14 be
       0.056923084 -0.19993973 0.10227196 -0.14490658
000260 f4 09 0b bd d4 91 01 bd 5a a6 9a bd 43 44 1b 3d
       -0.03394504 -0.031633213 -0.0755126 0.037906896
000270 d5 37 e7 3d 18 94 a4 bd 50 51 d8 bd fc 84 cb bd
       0.11289946 -0.08036059 -0.10562384 -0.09937474
000280 7e 1e 13 be 10 87 54 3d 07 9c e4 bd 7c be b5 bd
       -0.143671 0.05188662 -0.11162572 -0.08874223
000290 25 64 92 bd bc ec 94 3d 62 e5 86 3d b1 8c d9 3d
       -0.07148007 0.07271716 0.0658672 0.10622538
0002a0 45 13 bd 3d 09 bf b3 bd 30 d7 9a bc 1f 4c aa 3d
       0.09232191 -0.087766714 -0.018901438 0.083153
0002b0 b4 18 f1 3d 5f 67 3f 3d 0a 6f e5 bd 99 da 67 bd
       0.1177229 0.04672944 -0.1120282 -0.056604955
0002c0 8e 39 47 be 0e da 2e 3c f8 73 93 bd 9d 90 21 be
       -0.19455549 0.0106721055 -0.07199854 -0.15777822
0002d0 3a d2 01 3e c7 56 11 be 95 10 45 bd d9 30 6a 3d
       0.12677851 -0.14193259 -0.048111517 0.05717549
0002e0 a8 65 c0 bc 01 f3 f8 bd fa 18 e4 bd cc 1c 1e 3e
       -0.023485973 -0.12155724 -0.111375764 0.15440673
0002f0 0b bf 6f 3a 83 a0 f2 3d 85 fd 6f bd 6f 63 bc 3c
       0.0009145594 0.118470214 -0.058591384 0.022996632
000300 36 d6 7e bd 1e 29 ad bc 43 41 a7 bd 0f 79 1d 3d
       -0.062216006 -0.02113777 -0.081667446 0.03844553
000310 d1 b2 0a 3d 7b 40 a7 3c bd bf 68 bd 3f a3 aa bd
       0.03386194 0.020416489 -0.05682348 -0.08331918
000320 f4 cf cc 3d 95 86 e0 bd dd 68 4e 3d 23 0f a5 bd
       0.100006014 -0.109631695 0.050392974 -0.08059528
000330 ee 7c 71 bd 84 2f e5 3c ff 04 95 bd e1 22 a8 3c
       -0.058957033 0.027976759 -0.072763436 0.020524444
000340 c9 49 93 3c d4 37 fd bd 38 ac 24 3c cb ed 58 3d
       0.01797952 -0.12364164 0.010050826 0.052961152
000350 e7 b3 bf 3d 2e 74 88 bb 9d 2d 1a be c4 3a 4c bd
       0.093604855 -0.0041642403 -0.15056463 -0.04986073
000360 3c a2 b0 3d ca f5 b0 bd a5 2b 35 3d c5 6b c9 3d
       0.08624694 -0.086406305 0.044231076 0.098350085
000370 ef 24 8d bd 25 9b 49 3c 9b 3a 4e 3d be 9a 23 3d
       -0.0689181 0.012305056 0.05034886 0.039942496
000380 5f e9 9a 3b 4a 74 cf 3b 76 81 0e be c0 4e 10 3b
       0.004727527 0.0063310014 -0.13916573 0.0022019595
000390 fe e5 e7 3d ac c2 27 3e 4d e3 a5 3d 3f 51 cc 3c
       0.113231644 0.16382855 0.08099995 0.024941085
0003a0 27 f4 91 3d eb f1 b1 bd b8 b6 20 be c7 4e 26 be
       0.071266465 -0.0868872 -0.15694702 -0.16240989
0003b0 55 df 35 3e 8d 62 f3 3d e9 80 ff bd 19 27 61 3d
       0.17760976 0.118840314 -0.124757595 0.054968927
0003c0 2a 23 e7 3d d1 56 2f 3e 56 da 12 3e a9 6b f9 3d
       0.11286004 0.17122962 0.14341101 0.12178738
0003d0 e0 6a 16 bd db 66 84 bd 42 42 09 3e d5 91 ad 3d
       -0.036723018 -0.064649306 0.13404182 0.08475081
0003e0 1f f0 d3 bd ee 33 12 3e b4 a9 9b 3d 1c e5 cf 3d
       -0.10348534 0.14277622 0.07600728 0.10151121
0003f0 a6 ec d9 bd 42 b6 3a 3d 47 f7 9d bd d4 4a 0c 3e
       -0.1064084 0.04558397 -0.0771318 0.1370042

emb_net.v_lins1.0.bias f4 [32]
000000 4e b4 d3 bc 6b a0 1d be e4 44 f7 bd 1c c6 9f 3c
       -0.025842812 -0.15393226 -0.12073687 0.019503646
000010 93 f4 29 be ce c8 b9 bc 59 d4 ee bd b7 51 00 be
       -0.16597204 -0.022678759 -0.11661596 -0.12531172
000020 b9 d8 98 3d 8c 6d 0d be 1f 0e f8 bd 55 45 d0 3d
       0.074632116 -0.1381132 -0.121120684 0.10169474
000030 e2 d4 85 ba ef 50 2a 3e 5a 27 66 bd 13 e0 a5 bd
       -0.0010210539 0.16632436 -0.056189872 -0.080993794
000040 9c b0 92 bc 93 01 29 bb f8 72 10 3e b2 0d 49 be
       -0.01790648 -0.0025788292 0.14106357 -0.1963413
000050 a2 68 2e bc 0a d4 a2 3d 61 bf d0 bd 95 08 ab bd
       -0.010645064 0.079505995 -0.10192753 -0.08351246
000060 f1 39 b8 3d e7 fa 2c be a2 44 40 3d 1b 2e 0b be
       0.089954264 -0.16892587 0.046940453 -0.13591807
000070 99 9e aa 3d 73 a8 19 be 2f b5 db 3d 97 c7 28 be
       0.08331031 -0.15005665 0.107279174 -0.16482387

emb_net.v_lins1.1.weight f4 [32, 32]
000000 e7 81 1c be be 76 7e 3c 9c b9 1c 3e fb 2d 1e be
       -0.15283929 0.01553124 0.1530518 -0.15447228
000010 b2 c5 a7 bd ac f7 15 3e 39 34 8b bc 0e 74 89 3d
       -0.08192004 0.1464526 -0.016992675 0.06711589
000020 76 62 24 be ed 37 34 bd 0f 98 d0 bd 56 4e 10 3e
       -0.16053185 -0.043998647 -0.10185253 0.14092383
000030 3a 0d 91 3d 50 7c f8 bd f7 b8 22 3d ae 45 2e 3c
       0.07082601 -0.12133086 0.039727177 0.01063673
000040 07 1d 76 bd 0d 04 da bd b2 e9 85 bd d8 d7 03 3e
       -0.060086276 -0.10645304 -0.065387145 0.12875307
000050 c9 6a 00 be e6 61 e5 bd 28 83 77 bd 99 f5 83 3b
       -0.12540735 -0.11200313 -0.060427815 0.0040270803
000060 a1 2a 37 3d 1a c7 8e ba eb ff 62 bd 13 be e5 bd
       0.04471839 -0.0010893077 -0.055419844 -0.112178944
000070 ba 48 2f bd 5e 48 ae bd 85 b4 0c 3e 0b 42 3c be
       -0.042793967 -0.08509897 0.13740738 -0.18384568
000080 5d 30 ff bd e6 28 30 be 14 98 5d bd f3 d6 05 3e
       -0.124603964 -0.17203102 -0.05410011 0.13070278
000090 9e f9 1a 3e 19 6c 1f be cb 85 10 bd ae 75 c7 3d
       0.15134284 -0.1556858 -0.035283845 0.097392425
0000a0 ed 37 8c 3d 19 9d ed 3d b4 4a 1c bd 50 42 e6 bd
       0.068466045 0.116022296 -0.03815718 -0.11243117
0000b0 1a 6f 08 3e 3e 82 b9 bd 5d 0f 80 3d 1e b4 8a bd
       0.13323632 -0.09058045 0.0625293 -0.06772636
0000c0 89 39 42 3d f4 85 25 3e 60 e6 1f 3e 49 85 37 be
       0.04741815 0.1616438 0.15615225 -0.17921938
0000d0 73 cd db bd 99 ce cf bd c1 50 e1 bd 3a 3b 22 3e
       -0.10732546 -0.10146827 -0.11001731 0.15842906
0000e0 6c a0 c2 bb f8 c2 10 be 1e 73 ca bd d8 89 c7 bd
       -0.005939534 -0.14136875 -0.09885238 -0.097430885
0000f0 c9 df 69 3d e6 a7 1f be 0d 04 2a be cc 26 2e be
       0.057098184 -0.15591392 -0.16603108 -0.17006987
000100 a1 35 8a 3d 63 59 a9 3d e9 07 ee bd c8 5b 13 3d
       0.0674851 0.08269002 -0.116226025 0.0359762
000110 4d d0 fe 3d d2 1a 97 3c 10 9d 20 bd f5 f9 0f 3c
       0.12442074 0.018445406 -0.039212286 0.008787622
000120 6f 47 c7 bc b4 cb 92 3d 0a a4 0f be 9c 9c a1 3d
       -0.024326054 0.071677595 -0.1402742 0.07891199
000130 ce a6 b6 3d 0c 5b cd bd ec 1f 0c 3e 77 63 2c 3e
       0.08918534 -0.100271314 0.13684052 0.16834818
000140 55 19 9d bd 5e 5d 5d bd a8 d2 a3 3d 76 45 19 be
       -0.07670847 -0.05404412 0.07999164 -0.14967903
000150 0c 91 84 3d f9 04 17 3d 59 03 d7 3d f6 37 24 be
       0.06472978 0.036869977 0.104986854 -0.16036972
000160 50 fc 25 be 7f 56 8d 3d e0 41 4d 3d 0f d1 2e be
       -0.16209531 0.069012634 0.05011165 -0.17071937
000170 d1 e4 ac bd d8 31 2e be 82 92 0b be e5 00 bf bd
       -0.08442081 -0.17011201 -0.13630107 -0.093263425
000180 fc 1b 25 3e 6b ee 60 bd 33 98 aa 3d fe 4e 31 3e
       0.16123956 -0.054914873 0.08329811 0.1731529
000190 4d 0b b4 3d 61 35 18 be f1 b6 8d 3d 5d 22 88 3d
       0.08791218 -0.14864112 0.06919659 0.06647179
0001a0 84 70 eb 3d d4 cb 48 be b0 ea 09 3e 0a c6 0f 3e
       0.1149607 -0.19609004 0.13468432 0.1404039
0001b0 d5 cc 23 be e0 74 ce 3a 2c 1e 04 3e 46 ff 18 be
       -0.15996106 0.0015751384 0.12902135 -0.14941129
0001c0 d7 f3 16 3d 67 f0 b1 3d b1 c5 60 3d 38 85 48 3e
       0.036853638 0.08688431 0.054876033 0.19582069
0001d0 55 7e 0d 3e 2c 08 09 3e f6 8a 97 bc 6d 2c 1e 3e
       0.13817723 0.13382024 -0.018498879 0.15446635
0001e0 f6 2d 1c be 73 09 a2 bd 29 51 a2 bc f7 c3 45 bd
       -0.15251908 -0.079119585 -0.01981409 -0.04828259
0001f0 0f d9 1d 3e 04 95 b4 3d 2a 54 fa 3d a1 65 0d 3e
       0.15414833 0.08817485 0.12223084 0.138083
000200 9f 28 ef bd e3 e1 10 bd cc 62 5c 3c ad 81 34 3d
       -0.1167767 -0.035371672 0.013451289 0.04406898
000210 81 23 b9 3d 6d 0e 75 bd bc d3 8c bd 3c 8f 15 3e
       0.09039975 -0.05982821 -0.068763226 0.14605421
000220 30 2f 78 bd 03 93 0d be 8e 45 10 3e 3a 9b d6 3d
       -0.060591877 -0.13825612 0.14089033 0.10478826
000230 e5 08 95 bd 20 e8 41 bd f0 ca 16 be 16 33 27 be
       -0.07277087 -0.047340512 -0.14725852 -0.16328081
000240 4c 08 4e 3d fa 30 a5 bd 4e 43 13 3e 4a e9 f6 bd
       0.05030088 -0.08065982 0.14381143 -0.12056215
000250 0c 54 32 bd ef 45 1a bc 82 5d 96 3d 78 25 11 3e
       -0.043537185 -0.0094160875 0.07342054 0.1417445
000260 99 71 f3 3d ba b5 b7 3d 9c 2d 75 bd a7 18 10 be
       0.118869014 0.089702085 -0.05985795 -0.14071904
000270 6c bc 24 be ce 38 41 3c 83 8f 21 3e 9a 88 30 bc
       -0.16087502 0.011793328 0.15777402 -0.010774756
000280 de 98 aa ba d0 f9 f4 bd 5e ae 7b 3d d8 26 e0 3d
       -0.0013015529 -0.119617105 0.061445586 0.10944909
000290 e7 bc 37 be dc ae 00 be 86 22 0c 3e 10 5b 0a 3d
       -0.17943154 -0.12566704 0.13685045 0.03377825
0002a0 ec ff 76 bb b8 00 19 3d 0a 2b 82 bb 04 44 fb bd
       -0.0037689162 0.0373542 -0.003972416 -0.12268832
0002b0 18 74 38 be 4f 1a f7 3d 35 09 7b bc 92 b7 79 bd
       -0.18013036 0.12065565 -0.015322019 -0.060966082
0002c0 1b fc 19 bd 00 07 d7 bd 39 9a 54 bd 7a a7 0d be
       -0.037593942 -0.10499382 -0.05190489 -0.13833418
0002d0 2b 72 f7 3d 78 1c a3 3d 7f 6a c1 bd be a6 7a bd
       0.12082323 0.07964414 -0.09444141 -0.061194174
0002e0 bf 3e 9d 3d 86 e9 76 bd 59 fc 6f 3d 96 88 37 3d
       0.076779835 -0.0602813 0.058590267 0.044807993
0002f0 56 13 d9 bd 54 4f 03 3d bd 7a 83 3c 3e 87 25 3e
       -0.10599391 0.032058075 0.016049737 0.16164872
000300 02 b1 59 bd a1 4b 59 bd 29 11 15 3e 4f ff 0a be
       -0.053147323 -0.05305064 0.14557327 -0.13573955
000310 83 d6 b1 3c 03 4e 39 3e 96 86 b2 bd 31 2d 39 3e
       0.021708732 0.18096165 -0.087170765 0.18083645
000320 40 3c 1b 3e de a1 21 3e f7 94 6b bb 79 e3 20 3e
       0.15159702 0.15784404 -0.0035946944 0.15711774
000330 04 81 8a bd d7 21 8b bd 56 16 72 3d 92 f1 f5 3c
       -0.06762889 -0.06793564 0.059103332 0.030022416
000340 c7 f4 b8 3d f7 30 33 3e 8a 46 cc bd fd bd da 3d
       0.090310626 0.17499147 -0.09974392 0.10680769
000350 1d 94 72 3d f6 94 ae 3d 9c 39 b3 3d d0 80 62 bd
       0.059223283 0.08524506 0.087512225 -0.055298626
000360 e9 50 08 be 02 e9 1f 3e de e1 a0 bd 72 d7 ef 3d
       -0.13312115 0.15616229 -0.07855581 0.11711015
000370 f4 0f 36 be 91 47 96 bc a7 e6 98 3b 26 eb 2e 3d
       -0.17779523 -0.018344672 0.004666168 0.042704724
000380 30 53 13 3b 72 d6 8f 3d 11 66 83 bb 71 c5 03 3d
       0.0022480004 0.07023324 -0.00400997 0.032170717
000390 1d f9 26 3e 27 aa 01 be 83 e9 60 3b 87 7a a7 bd
       0.16305967 -0.12662564 0.0034318871 -0.08177667
0003a0 6f 9d 25 3e 16 45 25 3e 98 0e 86 bc 9a 1c 93 bd
       0.16173337 0.16139635 -0.01636438 -0.0718319
0003b0 5f 90 f0 bd 4e 8e 0b 3e 4a b4 ce ba 7f f2 36 3e
       -0.117462866 0.13628504 -0.0015770283 0.17865942
0003c0 c3 a0 e8 3d e7 2f 12 3e d9 bd 01 3e 6b c6 03 be
       0.11358788 0.14276086 0.12670077 -0.12868659
0003d0 e2 d3 23 3d c6 79 72 bd 96 e3 9c 3d 86 21 da bc
       0.03999699 -0.059198163 0.07660596 -0.026627313
0003e0 93 45 8b 3b 3c 71 08 be b8 e7 28 be 45 dc 5e 3d
       0.0042502373 -0.13324445 -0.16494644 0.054409284
0003f0 00 13 08 3d cc 8f c5 3a 8f 7d dd 3d 8a 0b b8 bd
       0.033221245 0.0015072762 0.10814964 -0.08986576

emb_net.v_lins1.1.bias f4 [32]
000000 50 b3 dd 3d 30 ee e4 bc ff ef 93 bd 4e f2 e6 bc
       0.10825217 -0.027945608 -0.0722351 -0.028191712
000010 f5 1d 84 3d 8b f9 bb bc b9 2c d4 3d 07 32 15 be
       0.06451026 -0.02294614 0.10360093 -0.14569865
000020 68 3a b0 bd 23 c5 09 3e d3 f9 c6 3c e7 06 14 3d
       -0.0860489 0.13454108 0.024289047 0.036139395
000030 5b 8f 6f 3d 9e d6 2d bd a7 d4 96 bd 5d a4 4d 3d
       0.058486324 -0.042441003 -0.07364779 0.050205577
000040 ce aa 47 bd d3 9b 8e bd 41 78 a8 3c 82 0d 2b 3d
       -0.048746876 -0.06963315 0.020565154 0.04176093
000050 0a 9f 86 bc 85 40 f5 bd 8a 2f d7 bc a6 6b cf bd
       -0.016433258 -0.11975197 -0.026267786 -0.10127954
000060 83 1c be 3d 7f 85 ef bd d0 7e 10 3e ca 39 99 3d
       0.09282782 -0.11695384 0.14110875 0.074817255
000070 7d f4 1b be ca 4c 07 3e c5 35 33 be e6 20 2e bc
       -0.15229984 0.13212886 -0.1750098 -0.010627961

emb_net.v_lins1.2.weight f4 [32, 32]
000000 08 e5 ec bd b9 7f 1d be 79 55 8d 3c ca fe a8 bd
       -0.11567122 -0.15380754 0.01725267 -0.08251722
000010 11 e5 07 3e f0 cc 0b be 90 83 10 3e 98 6f d1 3d
       0.13270976 -0.13652396 0.14112687 0.10226363
000020 ec 7b 21 3e 21 5b 85 bd 6e 6c d4 bd 08 bd f7 bd
       0.15769929 -0.06511522 -0.10372244 -0.12096602
000030 e2 bb 17 3e 8d 98 b3 bd 02 6e ef bc 98 bd 76 bc
       0.14817765 -0.08769331 -0.02922726 -0.015059851
000040 92 74 3e 3d 97 cd 10 be 35 0e 13 3e a1 c8 05 be
       0.04649789 -0.14140926 0.14360888 -0.13064815
000050 86 4e 37 3e 9a c9 91 bd c3 2b 93 bd 4d 2f 8f bc
       0.17901048 -0.071185306 -0.07186081 -0.01747861
000060 92 79 49 3d 2e f2 ef bc a0 35 2f be cd b5 fd 3d
       0.049188204 -0.029290285 -0.171103 0.12388191
000070 e2 41 2b 3e 63 b5 c1 3d 69 f4 31 3e 45 45 12 3d
       0.16724351 0.09458425 0.17378391 0.03571059
000080 04 d7 0d 3b bb 39 11 be c9 9f 20 be 28 5c 07 be
       0.0021643052 -0.14182179 -0.15685953 -0.13218749
000090 d4 6f 63 bd 62 47 a9 3d 72 39 b2 bd 0c d0 a3 bc
       -0.05552657 0.08265568 -0.08702363 -0.019996665
0000a0 c4 9f f0 bb 52 9b df bd 63 dd 8c bc 0c 25 19 3e
       -0.0073432643 -0.10918297 -0.01719541 0.14955539
0000b0 d7 ab 10 3e 14 aa e5 3d 72 62 ee bc 0d 23 27 bb
       0.14128052 0.112140805 -0.029099677 -0.002550307
0000c0 4d 28 a6 3d ab bc 9f bd bd 34 a6 bd a2 fd 11 3e
       0.081131555 -0.077996574 -0.08115528 0.1425691
0000d0 2f 9a f0 3a a0 88 f2 bd bb 72 0d 3e cb 9b 94 3c
       0.0018356497 -0.118424654 0.13813297 0.018140694
0000e0 b0 9c 9a 3d cb 00 27 be de 89 c5 3c b4 7e c6 3d
       0.07549417 -0.16308896 0.024113592 0.096921355
0000f0 c4 d3 d4 bc 0d b4 dc bd 11 e8 f9 3d 33 db b3 3d
       -0.025979884 -0.107765295 0.12202466 0.08782043
000100 83 85 50 3d bc 10 1f 3d 95 c9 01 3c 45 33 b2 3d
       0.050908577 0.03883432 0.007921596 0.08701185
000110 fe be 53 bd 33 1b fa bd 03 f5 50 3d e4 14 eb 3c
       -0.051695816 -0.12212219 0.05101491 0.028696485
000120 8a f6 4a 3d 89 8c ad bc c4 f5 0e bd fe 73 05 bd
       0.049551524 -0.021185176 -0.03490235 -0.032581322
000130 c5 92 42 3d 83 44 16 be ec 6f 3d be a5 1c 7c 3d
       0.04750325 -0.14674573 -0.18499726 0.061550755
000140 08 2d f0 bd 2c a9 f2 bc ea 8e 0c 3d 99 8b 57 3c
       -0.11727339 -0.029621683 0.03431598 0.013155841
000150 55 8b ce 3d 4c 36 f6 3c ea 41 08 3d 9d dc f8 bc
       0.10085169 0.030055188 0.033265986 -0.030378634
000160 0b c8 05 3c 07 59 51 3d 32 87 dc 3d 63 57 3a be
       0.00816537 0.051110294 0.10767974 -0.18197398
000170 6b ff 9d bd 8c c2 2e be 1e 8f b6 bd 04 cb c3 3d
       -0.07714733 -0.17066401 -0.08914016 0.095602065
000180 b4 44 3f be 83 9a 41 be c5 97 a9 3d ea 8e dc bd
       -0.18678552 -0.18906598 0.08280901 -0.10769446
000190 d1 d6 06 3e 3e 9c 3e 3d c9 5f d8 3c 22 f0 00 3e
       0.13167883 0.046535723 0.026412861 0.12591603
0001a0 3c 46 24 be df 14 d0 3d 8a 85 83 3d 9f ec 05 be
       -0.16042417 0.10160231 0.06421955 -0.13078545
0001b0 b9 a1 76 3c bf e4 0a bd b6 39 9e bd 86 df c2 bb
       0.015053206 -0.033909556 -0.07725851 -0.005947056
0001c0 73 84 9b bd 17 1e 14 3e 51 2e 2f 3e a3 cc 0a bc
       -0.07593622 0.14464603 0.17107512 -0.008471641
0001d0 35 9e 26 be cb 73 78 bc 47 8c 9d 3b 89 88 05 3e
       -0.16271289 -0.015164326 0.004807982 0.13040365
0001e0 24 7b e2 bb a5 e8 94 3d ed 79 5e 3d 85 b3 a9 bd
       -0.006911652 0.07270936 0.054315496 -0.08286194
0001f0 40 29 0a be 7f b8 13 be 5b 39 8f bc bf ef 5e 3d
       -0.13492298 -0.14425848 -0.017483404 0.05442786
000200 9a 76 c4 bc 78 76 16 3e d2 32 5f bd 04 1e fd bd
       -0.023982335 0.1469363 -0.054491825 -0.12359241
000210 cd 40 a4 3c be a8 86 bd d8 e8 3d bd 2b a7 1a 3e
       0.02005043 -0.06575154 -0.046364635 0.15102832
000220 62 73 bf bc 65 66 0e 3e 1e f4 a9 3c a2 d2 b1 bd
       -0.023370448 0.13906248 0.020746287 -0.08682753
000230 f1 40 cc 3d 9f 53 aa bd 1e 4d c4 3b 7b 03 40 3d
       0.09973324 -0.08316731 0.0059906384 0.04687832
000240 39 11 57 3d b3 bc 35 be 99 7f ef 3c 4b a2 f4 bc
       0.05250666 -0.17747764 0.029235648 -0.029862544
000250 8e 4e d0 3d 52 45 8a 3d 51 4a 5c 3d 37 59 db 3d
       0.10171233 0.06751503 0.05378181 0.10710376
000260 f6 d3 86 bd 58 3d 5e bb 42 bd 1b 3e da 3e f9 bd
       -0.06583397 -0.0033911075 0.15208915 -0.12170191
000270 99 22 0a be 47 67 dc 3c 10 5e c6 bd 3d 55 f3 3c
       -0.1348976 0.026904715 -0.0968591 0.02970373
000280 7e b5 0a 3e 63 0f 23 bd 1e 92 2a be 70 e9 8b bd
       0.13545796 -0.039809596 -0.16657302 -0.06831634
000290 f8 28 37 3e 08 e2 09 bd fb 93 96 bd ba 4a b1 3d
       0.17886722 -0.033662826 -0.07352444 0.08656831
0002a0 7d fe ed 3c 2e 4a 2f be 65 1d 1c 3e e9 3e de 3d
       0.029052014 -0.17118141 0.15245588 0.10851843
0002b0 55 00 05 3e 57 b0 c8 3d 59 7e 8f bd 29 c6 74 bd
       0.12988408 0.09799259 -0.07006521 -0.059759293
0002c0 7f 8b d3 3d a4 e5 86 bc 99 ee 3d 3d ce 89 1d be
       0.10329341 -0.016466923 0.046370123 -0.153846
0002d0 dd 4c 98 bd bf 4c 81 3d 1a 85 1a 3b f4 47 87 bd
       -0.074365355 0.06313466 0.002357787 -0.06605521
0002e0 ce 75 1a be 48 0e 09 3e 17 f8 d6 bc 8e 33 23 be
       -0.15084001 0.13384354 -0.026241345 -0.15937635
0002f0 dd 81 1f 3e 09 b1 c8 3d fb d1 bc bd b1 07 11 be
       0.15576883 0.09799392 -0.09219738 -0.1416309
000300 ed 87 30 3e e7 8e c5 3c c3 9e b7 bd 9f f6 b7 3d
       0.17239352 0.024115993 -0.08965828 0.08982586
000310 48 a7 53 bd b5 79 7d 3c 27 03 9e bd 32 25 14 be
       -0.051673204 0.015470912 -0.07715445 -0.14467314
000320 26 34 c0 bd da 15 ec 3b df e4 e7 bd 2b 08 3b 3e
       -0.093849465 0.0072047533 -0.113229506 0.18264835
000330 fd 04 a3 3c 1e 89 bd bd bc 38 b9 3d 1c 78 1d be
       0.01989984 -0.09254669 0.09044024 -0.1537785
000340 21 50 d5 bd d6 69 5a 3d 19 7a 2a be 27 1b 8c 3d
       -0.10415674 0.05332359 -0.16648139 0.068411164
000350 ad ae 9f 3b ba fd 0c be 6f 44 41 be d1 f6 1d 3d
       0.004873118 -0.13768664 -0.18873762 0.03856546
000360 76 3e 9f 3d 58 0e 6b bd 1c a9 2b be fa 0f eb bd
       0.07775585 -0.057386726 -0.16763729 -0.11477657
000370 5e 8e 1e 3d 41 18 2b bc 3a 8b 2f 3d 9f 6b 53 3d
       0.03870999 -0.010442794 0.042857386 0.051616307
000380 9e ce c8 bb 85 fe a5 3d d6 36 21 3e 31 94 11 3e
       -0.0061281463 0.081051864 0.15743575 0.14216687
000390 b4 b9 25 3e c2 52 87 bd c7 01 b2 bd 8a df 3f bd
       0.16184121 -0.06607582 -0.08691745 -0.046844043
0003a0 c4 22 68 3d f3 9a 7d 3d 26 cc b6 bc 64 c2 04 be
       0.05667378 0.06191535 -0.022314142 -0.12964779
0003b0 dc 5d 10 be c9 5c 2d 3e 68 d5 31 bd 6b e3 fa bb
       -0.14098305 0.16929926 -0.04341641 -0.007656505
0003c0 51 25 f5 bd a4 af cf bd cf 98 56 3d 7c c1 b4 3d
       -0.11970008 -0.10140923 0.052391823 0.08825967
0003d0 ed be 96 bd 94 0c a6 bd ad 39 08 3e 2b ba ad bd
       -0.07360635 -0.08107868 0.13303252 -0.08482774
0003e0 71 31 16 be 93 58 65 bc cb d0 3f 3e 9c 64 61 3d
       -0.14667298 -0.0139981685 0.18731992 0.05502759
0003f0 fc c0 56 3c 3f 54 3a bc b0 15 ab 3d 24 2f 91 bd
       0.0131075345 -0.011372625 0.08353746 -0.070890695

emb_net.v_lins1.2.bias f4 [32]
000000 b2 fe f6 3d 3a db 80 bd e8 24 96 3d 7e 66 ac bd
       0.12060298 -0.06291814 0.07331258 -0.08417986
000010 5b 2e 26 bb db 49 d3 3d 8b 50 a9 3d 79 5d 20 bd
       -0.002535722 0.10316821 0.082673155 -0.039151642
000020 76 6a 25 bb 2b 55 c8 bd 8e 2f a7 3d 04 bf f2 3d
       -0.0025240458 -0.097818695 0.08163367 0.118528396
000030 50 78 79 3d 2d 77 2e be bb 36 01 be 2a 41 f1 3d
       0.060905755 -0.1703765 -0.12618534 0.11780007
000040 6f 38 cc bc c7 58 dd 3d bd cb 05 3e d3 b0 52 bd
       -0.024929253 0.108079486 0.13066001 -0.051438164
000050 b4 49 d4 bd e7 3e 2a be 7c 59 83 3d dc 98 bb 3d
       -0.1036562 -0.16625558 0.06413552 0.09160015
000060 7e 9c fc bc e1 f5 2f be 8e b5 e7 bd 78 e9 e4 bb
       -0.03083634 -0.17183639 -0.11313926 -0.0069858395
000070 9b 55 a4 3d 5f 56 72 bd 68 a6 e7 bd 94 5c fc bd
       0.080241404 -0.0591644 -0.11311036 -0.123223454

emb_net.v_lins1.3.weight f4 [32, 32]
000000 3b 9b 1c 3e 43 57 72 3d d0 6c 18 be 21 10 e6 bd
       0.1529359 0.05916525 -0.14885259 -0.11233545
000010 94 4c 10 be 83 18 19 3d 14 f0 c0 bd 18 35 cb bb
       -0.14091712 0.03737689 -0.09420791 -0.0062013976
000020 97 98 b8 bc 81 bf 35 be ea 1e 1e be b7 55 0e be
       -0.022533698 -0.17748834 -0.1544148 -0.13899885
000030 98 0e 83 bd e0 b0 d1 3b c4 cb bd bd 9f 8b 00 3c
       -0.06399268 0.006399259 -0.09267381 0.007845788
000040 78 13 3e bb 09 45 26 3e 16 be 97 bd e8 ce 33 3e
       -0.0029003303 0.16237272 -0.07409303 0.17559397
000050 8a f0 0b be 84 79 24 be 52 b8 8b 3d 9f 93 cf bd
       -0.13665977 -0.1606198 0.06822266 -0.10135578
000060 a3 ac 7b 3d 18 01 cd bd c2 21 0c 3e 71 70 28 3e
       0.061443936 -0.10009974 0.13684753 0.16449143
000070 0e a4 cd bb 91 7a 37 3d d1 1f 2b 3e d5 a6 cb 3d
       -0.0062756604 0.044794623 0.16711356 0.0994393
000080 57 d1 f7 bd e8 19 11 3c d9 d5 11 be 6b 77 dd 3d
       -0.12100475 0.008856274 -0.14241733 0.10813793
000090 e7 ef 47 bd 4e 42 0b bd 0d e4 b4 bd 9b 21 cf bd
       -0.048812773 -0.03399878 -0.0883256 -0.101138316
0000a0 76 12 45 3d 25 c1 20 3e 92 83 ee bd fb 3d 80 bb
       0.04811331 0.15698679 -0.11646189 -0.0039136386
0000b0 4f 78 2c 3e bc 70 10 3e 2a 96 0c bd 01 fd 30 3e
       0.16842769 0.14105505 -0.034322895 0.17284013
0000c0 6f 87 b0 3d f1 db 10 3e 5b b9 ab bc 25 e1 22 be
       0.08619582 0.14146401 -0.020962408 -0.15906198
0000d0 90 c6 29 bd 48 57 45 3d ea 7f 9c 3d e3 f5 47 be
       -0.04144913 0.04817894 0.07641585 -0.19527392
0000e0 a3 06 08 3e be f8 3a be b1 f7 ba 3d 1d d9 17 3e
       0.13283782 -0.1825895 0.09129275 0.14828916
0000f0 d2 bc 7e 3d 1b 8d 15 bd b6 38 ac 3d 00 4a 21 bd
       0.06219179 -0.03651152 0.08409254 -0.039377213
000100 0c 52 08 be f4 6b f1 bd c0 92 a7 3d 8b 89 00 3e
       -0.13312548 -0.117881685 0.08182287 0.12552468
000110 f7 f9 d7 3a af 0c 29 be 71 0c 3f be 00 7f 54 bd
       0.0016477694 -0.16508745 -0.1865709 -0.05187893
000120 11 b5 dc 3d f9 d0 07 be e4 66 39 3d 34 69 c0 bd
       0.10776723 -0.1326331 0.04526414 -0.09395066
000130 32 ac 1d 3e ce 3a 97 bd 04 92 50 bd a7 e3 13 be
       0.15397719 -0.07384263 -0.0509205 -0.14442311
000140 d5 a6 1a be 48 67 24 3c 2b be 84 3c 86 da a1 3d
       -0.15102704 0.01003439 0.01620396 0.07903008
000150 fe 94 22 be 1b 09 95 3b b9 2a ab bc c0 46 cc 3d
       -0.15877149 0.0045482046 -0.020894395 0.09974432
000160 83 cc e5 bd 1c 0e 46 3d 0d 5e 7d 3d f2 bf 91 3d
       -0.11220648 0.0483533 0.061857272 0.07116689
000170 6d 1d b6 bd d8 24 52 3d c1 79 f6 bc 33 11 e2 3c
       -0.08892331 0.05130467 -0.030087354 0.027596092
000180 7d 92 06 be 2e 4f 1a be 63 74 20 be 8f 89 02 be
       -0.13141818 -0.15069267 -0.15669398 -0.12747787
000190 a0 82 c5 bd b9 d7 1c 3d 8d 9c 78 bd af 83 f1 bd
       -0.09644055 0.038291667 -0.060696173 -0.11792695
0001a0 10 6f da bc 07 af 99 bd 49 0b 00 3e a6 a6 26 be
       -0.026664287 -0.07504087 0.12504305 -0.16274509
0001b0 dc f3 a8 bd fb 01 ac bd 8f 0b b6 b9 c4 a4 76 3c
       -0.082496375 -0.08398815 -0.00034722357 0.015053932
0001c0 e9 7e 57 bc c9 78 1e 3e ca 0a 9f bd d3 40 31 bd
       -0.013152816 0.15475763 -0.0776573 -0.04327471
0001d0 37 0d d9 3c 5d 2c 07 3e c1 d6 e7 3d a8 71 6e 39
       0.02649556 0.13200517 0.11320258 0.00022739789
0001e0 77 0f 8c bd 12 51 2f 3d c6 91 b5 3d 7b 40 56 bc
       -0.06838887 0.042801924 0.08865695 -0.013076897
0001f0 1a de c3 3d d8 7a f8 3d 79 4e e8 bd 66 c7 d9 bc
       0.09563847 0.121328056 -0.113430925 -0.026584338
000200 a7 68 23 be 0b 24 e4 3c ad dd e6 3d 24 d6 fd bc
       -0.1595789 0.027849218 0.1127275 -0.0309859
000210 7d 61 ec 3c 88 5f 8f 3d fa 10 77 bc 5d 22 0f 3e
       0.02885508 0.07000643 -0.015079731 0.13977952
000220 50 07 31 3c f7 48 38 be 48 65 11 be 46 a6 32 be
       0.010804966 -0.17996584 -0.14198792 -0.17446241
000230 a3 27 13 3b 6f 30 cd 3d ae 88 b5 bc 3c cc 11 3e
       0.0022454045 0.100190036 -0.0221599 0.14238065
000240 ca f2 2f bd eb a2 0b 3d d2 2c 29 3e a1 36 be 3d
       -0.04295615 0.034090918 0.16521004 0.092877634
000250 f6 1d 34 bb 7c 08 35 3e 69 7e dd bd dd 64 83 3d
       -0.0027483678 0.17679018 -0.108151264 0.064157225
000260 f3 f6 02 3e c3 0d e3 bd af 01 29 be bd 0d 85 3d
       0.12789516 -0.11086609 -0.16504548 0.06496761
000270 5f 8e 8d bd ae 1e ad bd d2 49 f2 3c a2 fb 06 be
       -0.06911921 -0.08453117 0.029576216 -0.13181928
000280 be fb fa 3d c8 26 0f bd d2 19 93 bd f6 23 1b 3e
       0.12255047 -0.034949094 -0.07182659 0.15150437
000290 94 4d c8 3c e0 8e 6f 3d ea c7 dc bd 30 1d 10 3e
       0.024451055 0.058485866 -0.10780318 0.14073634
0002a0 dc 9a af bd bd 9f 06 3e fc ea be bc 76 8b 66 3d
       -0.08574459 0.13146873 -0.023305409 0.056285344
0002b0 08 67 b1 3d f3 b8 e0 bd 28 b7 1e be 54 25 3b be
       0.0866223 -0.10972776 -0.15499556 -0.18275958
0002c0 4b ac 08 3e 51 56 0a 3e b5 e1 ac bd 0d 5b cc bd
       0.13346975 0.1350949 -0.08441488 -0.09978304
0002d0 2a 9d 8c 3c 24 15 97 3d d2 94 e5 3c 87 6c 6c bd
       0.017164785 0.07377079 0.028025065 -0.057720687
0002e0 d1 64 00 be b7 80 09 3e bb d0 0f be 31 9d 3d be
       -0.12538458 0.13428007 -0.14044468 -0.18516995
0002f0 61 50 b4 bd 02 cf 5e 3c 2e 46 04 3d 07 a5 2c 3d
       -0.088043936 0.013599159 0.03229349 0.04214957
000300 7d 2a 7d bd b4 1c 35 bd 08 38 96 bd 1e a3 ce bd
       -0.061808098 -0.044216827 -0.07334906 -0.10089706
000310 6a 0a 16 be 6a 5d 8f bb b9 d1 d4 bc a8 23 30 be
       -0.1465241 -0.0043751495 -0.02597891 -0.17201102
000320 24 8f bd bd dc 7d b8 bd 48 dc dd bd f1 f7 d9 bd
       -0.092558175 -0.09008381 -0.10833031 -0.10642994
000330 f7 98 c1 bc db bb 3a 3d 9a 5b fd bd 54 86 d5 bc
       -0.02363251 0.04558931 -0.12370987 -0.02606503
000340 d9 a7 0f bd ae c1 e5 bd 43 86 3a bd 06 c8 8c bd
       -0.03507218 -0.11218582 -0.0455382 -0.06874089
000350 43 5d c6 3c 10 73 0c be 36 6b d1 3c 22 f3 1a 3e
       0.024214393 -0.13715768 0.025563817 0.1513181
000360 da 64 21 3e 0c 63 d6 bd cc 2c 6f 3d b0 1e 28 be
       0.15761128 -0.104681104 0.05839233 -0.16417956
000370 6b a8 3c 3e d4 a3 28 be 7f 74 36 be bd f9 1e be
       0.18423621 -0.16468745 -0.17817877 -0.15524955
000380 19 15 33 be 2e f0 53 3c 1b e8 21 bd 9a 1f b3 3c
       -0.17488517 0.012935681 -0.039527994 0.021865655
000390 d6 40 c4 bc 14 1c 05 bc 83 ea 94 bd 0f 93 e7 bd
       -0.023956697 -0.00812437 -0.07271292 -0.11307346
0003a0 93 ab 05 be 5d 40 cf 3d fb 93 80 bd f3 8e b9 bc
       -0.13053732 0.10119698 -0.06278225 -0.022651171
0003b0 ca de d1 3d 42 4e 3b bd 86 0f 0e bd 33 33 bb bd
       0.10247572 -0.04572893 -0.034682773 -0.09140625
0003c0 17 b4 27 be 57 c2 a0 3d b6 85 30 bd 0b c1 c0 3d
       -0.16377293 0.078495674 -0.043096267 0.0941182
0003d0 8a c6 83 bc bd 7e 1c 3c 09 36 29 be 7c b5 bf bb
       -0.016085882 0.009551701 -0.16524519 -0.005850492
0003e0 97 79 37 bd 96 2e c7 bd 59 e2 2e bd e1 5c 30 3c
       -0.04479369 -0.097256824 -0.04269633 0.010764332
0003f0 9b a1 01 be a6 e2 a0 3c 69 3f 05 3e 8e 2a 80 3d
       -0.12659304 0.019639324 0.1301247 0.06258117

emb_net.v_lins1.3.bias f4 [32]
000000 8b a2 11 be 19 52 0f 3d 90 59 e9 3d c4 e5 26 bd
       -0.14222161 0.034990404 0.11394036 -0.040746465
000010 d2 82 88 3c bc f0 c9 3c 58 a6 78 3c 28 67 3d 3d
       0.016663942 0.024650924 0.015176378 0.046240956
000020 60 19 2e be c5 51 09 3e 68 eb 9c 3d 82 29 b1 3c
       -0.17001867 0.13410099 0.07662088 0.021626238
000030 41 39 04 3d 79 ac 11 be 03 7e 4b bd 94 42 03 bc
       0.032281164 -0.1422595 -0.04968072 -0.008011479
000040 fc 89 2b 3d c0 d0 c5 bd db 97 9d 3c 70 1d 61 bd
       0.04187964 -0.096589565 0.01923745 -0.054959714
000050 89 8f 03 3e fe 59 1b be 92 76 99 3c e6 43 f4 3d
       0.12847723 -0.15171048 0.018733297 0.11927013
000060 1b 77 0c be c9 4b ab bb bd df a6 3d 92 c7 91 3d
       -0.1371731 -0.00522754 0.081481434 0.07118143
000070 5d 5b aa 3c d5 e9 90 3d 01 de fb bd 7c ac 16 3e
       0.020795519 0.0707585 -0.12298203 0.14714235

emb_net.v_lins1.4.weight f4 [32, 32]
000000 8b 5a b0 3b ee ed fe 3d 01 14 5f 3d 5c 69 d3 bc
       0.0053818873 0.12447725 0.054462437 -0.025807075
000010 24 75 96 3d 8f b7 29 3e 22 f6 2b 3e 2f 02 13 be
       0.073465616 0.16573928 0.16793111 -0.14356302
000020 c3 da df 3c e1 36 e7 bd 19 71 ec 3d f3 b2 08 3e
       0.027325993 -0.11289764 0.11545009 0.13349514
000030 b3 ac dc bd 9c 56 7e bc e8 69 fd 3d 5f 1a 12 3e
       -0.10775127 -0.015523579 0.12373716 0.14267872
000040 bf 7c fc bd c4 9f fa 3d f4 0f 02 bd 51 5d 15 be
       -0.12328481 0.12237504 -0.031753495 -0.14586379
000050 21 e5 29 3d 5a 83 ae 3d be 66 db 3d 71 ae e6 bd
       0.04147828 0.08521147 0.10712956 -0.11263741
000060 cb 35 14 be de 4c c5 bd 67 a4 cc 3d c3 51 1d be
       -0.14473645 -0.09633802 0.09992295 -0.15363221
000070 20 c6 a9 bb 51 12 4b bd b5 03 b1 3d 25 40 3d 3d
       -0.005181089 -0.049578015 0.08643285 0.04620375
000080 87 16 97 bd 86 cd 37 3d 58 0c 28 3e b0 da 19 3c
       -0.073773436 0.044873737 0.16410959 0.009390518
000090 2b 12 c4 bd df 01 03 bd 1f 97 13 be 0d 9b 02 be
       -0.09573778 -0.031984206 -0.14413117 -0.1275446
0000a0 83 c8 bb bc 8c 21 cd bd d9 58 12 3e b3 82 24 3d
       -0.02292276 -0.10016164 0.14291705 0.040163707
0000b0 b0 82 10 3e 68 26 12 bd bf 94 00 bd bc 0d 31 3d
       0.14112353 -0.03568116 -0.031391855 0.04322599
0000c0 5e f1 71 bd b7 26 93 bd c2 ed 3e be 2b e3 09 3e
       -0.059068076 -0.07185119 -0.18645385 0.13465564
0000d0 cd 34 20 3e c3 60 32 be 44 95 6e bd 47 48 14 be
       0.15645142 -0.17419724 -0.05824782 -0.14480697
0000e0 d0 a6 4a bd 12 f6 fa 3d 0d 7e a3 3d 97 ab 9d bc
       -0.04947549 0.122539654 0.07983027 -0.01924686
0000f0 ae bb c1 3d c9 09 5f 3d 7c 00 b7 3d 97 f9 02 be
       0.09459625 0.05445269 0.08935639 -0.12790523
000100 75 88 85 3d 88 3e 3f be 55 d6 d9 bd 20 de 61 bd
       0.06520168 -0.18676198 -0.10636584 -0.055143476
000110 41 b9 c4 bc be 7a 15 be d6 83 83 bc 0a b0 0c 3d
       -0.024014117 -0.14597604 -0.016054075 0.03434757
000120 d2 90 84 bd ef 90 44 3d 7f 9d 1c 3e 8b ef 87 bc
       -0.06472935 0.047989782 0.15294455 -0.016593715
000130 6a 90 a6 bd 64 bb 3d be 16 84 fb bd 80 8c c2 bd
       -0.081330135 -0.18528515 -0.12281053 -0.094994545
000140 2f 68 1c be f5 1e 7c bd 6b 6f ce 3d 04 c6 50 3d
       -0.15274118 -0.06155296 0.10079845 0.050970092
000150 41 b2 2d 3e 36 1b 32 3e 90 dd 3b bd e8 03 5e bd
       0.1696253 0.17393193 -0.045865595 -0.054202944
000160 b0 1c fa 3c 4d ca ff bd 0d 76 c0 3d 2b 75 f5 bc
       0.030531257 -0.12489758 0.093975164 -0.029963097
000170 a9 b2 2e be ec 11 fa bd 95 38 dc bd da ea dc 3c
       -0.17060341 -0.122104496 -0.1075298 0.026967455
000180 e5 f4 e9 3d a9 7c 13 3e 84 46 77 bd e6 e8 e4 bd
       0.11423663 0.14403023 -0.060369983 -0.11177234
000190 64 d9 d4 bd 71 d3 da bd 63 a4 fb bc 45 e8 21 be
       -0.103930265 -0.106848605 -0.030718034 -0.1581126
0001a0 eb 5b a4 3d 35 5a 21 be fe be d1 bd a2 7e 0b 3e
       0.080253445 -0.15757068 -0.10241507 0.13622525
0001b0 a2 61 19 be bb 34 49 3d ae 71 05 3e 90 03 1e 3e
       -0.1497865 0.049122553 0.13031647 0.15431046
0001c0 89 e4 b9 3d 36 45 3e bd b1 94 b1 3d 76 8f 02 bd
       0.09076793 -0.046452723 0.08670939 -0.031875096
0001d0 0c 81 af bd 74 08 ff bb 7b b2 69 3c c9 3d e3 3d
       -0.085695356 -0.00778299 0.0142637445 0.11095769
0001e0 e2 9f ad 3d 1a c5 7b 3d 59 1e 9e 3c 27 9a 7b bc
       0.08477761 0.061467268 0.01930158 -0.015356577
0001f0 dd 51 9d 3d 4b 85 02 3d be 62 36 be 20 5d f8 3c
       0.0768163 0.0318654 -0.17811105 0.030317843
000200 8f 48 8b bd b8 51 e0 bd 85 ee 66 3d 33 28 17 3d
       -0.06800949 -0.109530866 0.056379814 0.03690357
000210 4d 18 18 3c 30 ac e2 bd d2 21 80 3d 08 38 1c 3e
       0.0092831375 -0.110679984 0.06256451 0.15255749
000220 6a 8f a0 3b 44 b9 56 3d 19 8e 0d be b9 f8 d2 3d
       0.004899909 0.052422777 -0.13823737 0.10301346
000230 4a 95 8c 3d 12 b7 90 3d bd 13 67 3d ae 1d 86 bd
       0.06864412 0.07066168 0.05641531 -0.0654863
000240 5f 99 00 bd 3b 2a 1d 3e 3f 59 0f 3e 28 70 f6 bd
       -0.031396266 0.15348141 0.13998888 -0.12033111
000250 a5 56 02 3e 4a 44 3f 3e 0c 3b 1c 3c d3 a1 21 be
       0.12728365 0.18678394 0.009535562 -0.15784387
000260 79 09 50 3d 01 24 78 bd 47 26 01 3e 19 85 20 be
       0.050790284 -0.06058121 0.12612258 -0.15675773
000270 f8 94 0b 3d 4a 9a 1d 3c fe 92 e7 3a 90 cd de 3d
       0.034077615 0.009619305 0.0017667708 0.10879052
000280 d2 be c9 ba e4 4e 22 be 22 1d f6 bd b3 91 20 bd
       -0.0015391952 -0.15850407 -0.120172754 -0.03920145
000290 92 a1 0d 3d 6d 5b de 3d cf 3a 1e bd 56 ac 88 bd
       0.034577914 0.10857282 -0.038630303 -0.066734955
0002a0 fc 16 46 3d 4d ae 46 be 51 80 be 3d 41 ea 6c bd
       0.048361763 -0.19402428 0.09301818 -0.05784059
0002b0 5d 0a c5 3d a1 04 08 3e 10 36 9a bb fa 87 4b 3d
       0.09621117 0.13283016 -0.004706152 0.049690224
0002c0 bb 43 d5 bd 70 43 07 3e 20 db ba 3d 8f 20 fb bc
       -0.10413309 0.13209319 0.09123826 -0.030655174
0002d0 dd 2f b1 3d 66 bd 4b bd 62 15 2b 3e 1f ff b8 3d
       0.08651707 -0.04974117 0.16707376 0.090330355
0002e0 f2 37 d1 3d 1c 3a 25 be 35 4f 41 3e 82 a2 84 3d
       0.10215749 -0.16135448 0.18877871 0.064763084
0002f0 44 09 7a 3d bd d9 4e 3d fc 66 e8 3d 20 5b 0a 3e
       0.061043993 0.05050062 0.11347768 0.13511324
000300 83 44 8a bb 1e 41 02 be 63 bf 1a 3e b1 19 7a bd
       -0.004219593 -0.12720153 0.1511207 -0.061059657
000310 ce 19 c7 bd d1 78 97 3d d0 1d e4 3d 8f 19 52 b8
       -0.09721719 0.07396091 0.11138499 -5.0091705e-05
000320 17 11 6a bc 83 ce ff bc 6b bc 0c 3e 53 2a d1 3d
       -0.014286301 -0.031226402 0.13743751 0.10213151
000330 17 b4 c3 3d 7b 9b f6 3d 45 9c e9 bd 50 f7 07 3d
       0.09555834 0.12041374 -0.11406759 0.03319484
000340 f3 a5 24 be 17 93 a5 3d 93 fa 44 be c6 4b 34 be
       -0.1607893 0.08084696 -0.19236211 -0.1760703
000350 a8 0b 42 be 86 5b bd 3d 65 eb 91 3b 9b a8 a8 bc
       -0.18949759 0.09245972 0.00445311 -0.02058821
000360 fb c5 4b 3d 31 80 b5 bd 66 2e aa bd b7 b4 f9 bd
       0.049749356 -0.08862341 -0.08309631 -0.12192672
000370 c2 c9 a3 bc 01 2f ed bd 75 5f 61 bc 26 19 1a 3e
       -0.019993667 -0.11581231 -0.013755669 0.15048656
000380 2a ea fe bd be 03 4a 3d 97 a5 15 be 71 e0 16 bd
       -0.12447007 0.049319975 -0.14613949 -0.036835138
000390 56 63 42 3d 57 eb 30 3d f8 d6 e5 3d 2c 99 a5 3c
       0.047458015 0.043193188 0.11222643 0.02021464
0003a0 d5 6d d0 bd 8d 53 ba bd 1b a2 17 3d 39 3d 04 be
       -0.10177199 -0.09097967 0.03701983 -0.1291398
0003b0 48 51 d8 bd 6b 97 c4 bd 65 1c cf 3c 90 e6 15 be
       -0.10562378 -0.09599193 0.025282094 -0.14638734
0003c0 9d 2e 09 be 1a 0f 11 3e 86 ad 4e 3e 64 e7 e7 bc
       -0.13396688 0.14165917 0.20183381 -0.028308578
0003d0 a9 5a 08 be eb 17 3f bd 1d 7f c2 3d 7a 93 9a 3d
       -0.13315834 -0.04665367 0.09496901 0.0754766
0003e0 85 8d 08 bd 66 77 25 be e8 e3 8d bc 15 58 da bb
       -0.03333809 -0.16158828 -0.017320588 -0.006663332
0003f0 9c b5 9a 3d 9c 68 70 bd 97 f4 ee 3d 8f 44 81 3b
       0.075541705 -0.058693513 0.116677456 0.0039449404

emb_net.v_lins1.4.bias f4 [32]
000000 a4 a3 62 3d 2b 41 e2 bb 84 c1 54 bd 17 95 81 ba
       0.05533184 -0.0069047413 -0.051942363 -0.0009886351
000010 d5 3e 2f be e7 a9 fe bd 07 6d c1 3c 69 c0 2e 3e
       -0.17113812 -0.1243475 0.023611559 0.17065586
000020 01 6d d6 bd d1 ab e7 3d 7b 32 83 3c e9 9b 9b bd
       -0.104700096 0.11312068 0.016015282 -0.07598097
000030 3f a6 0e 38 54 b8 ad 3d f4 18 b0 3c de 45 20 3e
       3.4010267e-05 0.084824234 0.021496274 0.15651652
000040 89 5c 09 bd b1 6f f1 bd 62 aa 23 3e e4 d7 4e bd
       -0.033535514 -0.117888816 0.15982965 -0.050498858
000050 6c 9f e5 3d f3 fb ee 3d cc 02 ff 3c 92 e0 13 be
       0.11212048 0.11669149 0.031129263 -0.14441136
000060 ca b4 31 be 96 9c ab 3d 32 a7 31 3d 94 a8 d2 3d
       -0.17354122 0.08379476 0.04337234 0.1028606
000070 a3 fc 1e be 96 24 ca bc 9a 51 1c 3e 57 fe bd 3d
       -0.15526061 -0.024675649 0.15265504 0.09277027

emb_net.v_lins1.5.weight f4 [32, 32]
000000 d1 c1 14 3e 41 88 f9 3d 42 c5 c9 bc fe 0e c4 bd
       0.1452706 0.121841915 -0.024630193 -0.09573172
000010 95 31 b8 bd ce a8 9a 3d 93 4c b3 bd dd f9 a3 3c
       -0.08993832 0.07551728 -0.0875484 0.020016605
000020 9a ee 82 3c fb 8a d2 3d 2b 97 e4 3d 90 7b d9 3d
       0.015982915 0.10280415 0.111616455 0.10619271
000030 54 76 e9 3c d9 2f a7 3d 58 84 78 bd 1b aa 83 bd
       0.028498806 0.08163423 -0.060673088 -0.064289294
000040 3c 61 d4 bc 3a 7c a3 bd b0 fb 36 3e ec 7b 77 bc
       -0.025925271 -0.07982679 0.17869449 -0.015105229
000050 40 db a2 3d 04 af 00 3d 49 27 a3 3c 2a 0d ad bd
       0.07951975 0.031416908 0.019916194 -0.084497765
000060 d6 ad 20 3c 85 45 06 be c7 8b 7e bd e4 63 1e 3e
       0.009807071 -0.13112457 -0.06214502 0.15467793
000070 88 74 49 be 24 de 43 3d a8 23 29 3d 45 70 3a be
       -0.1967336 0.04781927 0.04129377 -0.1820689
000080 d1 d4 3b 3d 3b 0d d8 3d 54 f1 14 3e f8 d3 87 3c
       0.045857254 0.105493985 0.14545184 0.016580567
000090 2d 2b 11 3e 66 e3 88 bc 44 0d c5 3d 24 e1 1f 3d
       0.14176627 -0.016709995 0.09621671 0.03903307
0000a0 ba 50 d3 bd 3c 7e a2 bc 91 a2 e5 bd 2f e1 31 3e
       -0.10318132 -0.019835584 -0.11212648 0.17371057
0000b0 89 3c ca 3d 6b bf 47 bd 21 4e f6 bc 6c 87 85 3d
       0.098748274 -0.048766535 -0.030066552 0.0651997
0000c0 09 77 07 be ac 10 d8 3b 5a 4e 8f 3d aa bd cb 3c
       -0.13229002 0.0065937843 0.06997366 0.024870712
0000d0 a8 8e 60 bc 43 89 f8 3d 59 87 60 3d 72 4a 28 be
       -0.013705887 0.121355556 0.054816578 -0.16434649
0000e0 d0 25 ed 3d f5 72 ff bd a2 96 c3 3d 42 98 12 3e
       0.11579478 -0.12473098 0.09550215 0.14315894
0000f0 6a 2c 2a 3d 58 dc 59 bd ed 48 96 bd bc dc 5e bd
       0.041546263 -0.05318865 -0.07338128 -0.054409727
000100 b9 08 f4 bc 0d 3d 49 bd d8 7c 38 3e 63 4e ae bd
       -0.029789316 -0.04913049 0.18016374 -0.08511045
000110 82 c8 86 3d 47 75 33 be 4d 46 ba 3d fb be 07 3e
       0.065812126 -0.17525207 0.0909544 0.13256447
000120 ee 2d db bd 5a 98 26 bd 36 1c f7 3c 7e 35 25 be
       -0.1070212 -0.040672638 0.03016482 -0.16133687
000130 55 1a d1 bd ca 10 70 3d 0d 95 22 3e 7f 5a 27 bc
       -0.102101006 0.05860976 0.15877171 -0.010214447
000140 85 6b 4f bb 37 93 30 be 52 fc 3e be fa 53 24 3e
       -0.003164978 -0.17243658 -0.1865094 0.1604766
000150 7e b1 1f 3e 2f c4 8a bd 60 c3 88 bd cc 64 92 bc
       0.15595052 -0.067757 -0.0667789 -0.01787033
000160 19 e0 93 3d 48 b4 26 be 20 75 dc bd ac 27 84 bd
       0.072204776 -0.1627971 -0.10764527 -0.06452879
000170 96 09 ad bd 0d 9f 1a bb e9 63 05 3e 5a c0 77 3d
       -0.08449094 -0.0023593337 0.13026394 0.060486175
000180 86 c1 31 be ca 94 f9 3d 13 b0 0b 3e f5 7e 83 3d
       -0.1735898 0.121865824 0.13641386 0.064206995
000190 ee b2 a0 3d 09 f2 8b 3d 2d 2f d7 3d f2 eb 23 be
       0.07846628 0.06833274 0.10507045 -0.16007975
0001a0 8c 7e 14 be fb a4 74 bd f1 15 13 bd 00 e1 13 be
       -0.14501399 -0.05972765 -0.035909597 -0.144413
0001b0 b0 8b 1d be 68 b4 2b be 15 bc f7 bc f1 70 f0 3d
       -0.15385318 -0.16768038 -0.030241052 0.11740292
0001c0 30 7b a9 3d cc 15 f4 3c a8 a6 94 bd 07 53 a8 bd
       0.08275449 0.02979555 -0.0725835 -0.08218961
0001d0 81 db dd 3c 1e 9a 12 be 61 be 5c 3c dc e6 7a 3c
       0.027082207 -0.14316604 0.013473124 0.01531383
0001e0 4b ac 27 3e 8e 0d 6a bd ec b5 46 3e 12 e7 dd 3c
       0.16374318 -0.057141833 0.19405335 0.027087722
0001f0 ac df 1d be 80 72 2e 3e c1 30 04 3e ce 79 33 be
       -0.15417355 0.17035866 0.12909223 -0.17526934
000200 6a a6 cf bd 66 b8 97 3d e6 a2 c7 bd ba b0 eb 3d
       -0.10139163 0.07408218 -0.09747867 0.11508317
000210 c7 6f c1 bd ff 24 86 bd 8d 29 92 bd 7e 2e 26 3e
       -0.09445148 -0.06550025 -0.071368314 0.16228673
000220 d1 ec 80 bd 9f ef f8 bc fe 07 fa 3d 75 a4 fb bd
       -0.06295169 -0.030387698 0.12208556 -0.12287227
000230 4d e4 b5 3b e2 b4 27 be 98 9e 27 be c6 4e 38 bd
       0.005550897 -0.16377595 -0.16369092 -0.044997
000240 b6 e5 94 3c 00 58 15 3e 2d 09 30 be 7d 14 67 bd
       0.018175941 0.1458435 -0.17191 -0.056416024
000250 46 61 32 3d d0 af 97 3d 49 62 c8 3d 7f ae 14 be
       0.0435498 0.074065804 0.097843714 -0.1451969
000260 69 25 3b bd ba b8 2f 3d 7a c6 11 be 4c 32 b4 3d
       -0.045689974 0.04290078 -0.14235869 0.08798656
000270 25 4b 36 be b2 fc e1 3d e8 b8 65 3d 39 41 63 bd
       -0.17802103 0.11034526 0.056084543 -0.055482123
000280 a9 5d 3c 3d f7 0f 09 3e c2 6f e6 3d e0 01 d7 3d
       0.04598776 0.13384996 0.11251785 0.104984045
000290 f4 7d eb bd 24 c6 32 3d eb 90 f5 3d 1f bb 87 3c
       -0.11498633 0.043645993 0.119905315 0.016568718
0002a0 9e 40 de 3d 57 cd 01 be d9 54 e1 3d fb ca ae bc
       0.108521685 -0.12675987 0.110025115 -0.021337023
0002b0 e3 5e 34 be 35 8c 4f bd 02 66 0f 3e b7 9f 90 bd
       -0.17614321 -0.05067082 0.14003757 -0.07061713
0002c0 9f b9 43 bd 43 f3 9c bd f2 f2 d7 bd 54 5a bc 3c
       -0.047784444 -0.07663586 -0.10544385 0.02299229
0002d0 d4 c6 cd 3d d7 76 6a 3c 52 21 45 bc a8 22 40 bb
       0.10047689 0.01431056 -0.01203187 -0.0029317532
0002e0 9d 44 1e be f0 4a cd bd 3b f9 24 3a be e3 1c be
       -0.15455861 -0.10024059 0.0006293242 -0.15321252
0002f0 07 b6 ad 3d 2e 4c d9 3c 0d 88 71 bc d4 df d3 bc
       0.084819846 0.026525583 -0.01474191 -0.025863566
000300 11 f5 04 3e 5a 59 31 3e 09 e6 bc 3d 77 5c 8a 3d
       0.1298411 0.17319241 0.09223563 0.067559175
000310 1a 10 db bd e0 e9 49 3d 44 b7 06 be a4 34 57 3d
       -0.106964305 0.049295306 -0.13155848 0.052540436
000320 3d 11 ee bd 30 bf ff 3a 29 49 07 3e a2 f2 ce 3d
       -0.11624382 0.0019511934 0.13211502 0.10104872
000330 d3 d2 21 3e 53 20 0a 3d 48 7f 2f 3d 3c e1 60 3d
       0.1580308 0.033722233 0.042845994 0.0549023
000340 cf b5 ef 3d 2f 34 97 3d a4 4c 06 3d f6 66 aa bd
       0.11704599 0.07383 0.032787934 -0.083204195
000350 28 3d d1 bd e8 77 84 bd 19 63 87 3d c6 43 e7 bd
       -0.10216743 -0.06468183 0.06610698 -0.11292224
000360 30 c6 06 3d 60 30 0e 3e c8 c6 03 3e 55 62 17 be
       0.03290385 0.13885641 0.12868798 -0.14783604
000370 f0 c4 64 3d 91 fd d8 3d d2 19 39 be 00 4c f9 3d
       0.055851877 0.10595239 -0.18076256 0.12172699
000380 f0 cd 08 be df ba 21 be de 5e ae bd 94 83 9b bd
       -0.13359809 -0.15793942 -0.08514188 -0.07593456
000390 9a a0 af bd 91 6d f8 3c 37 29 3b 3d 45 c0 51 3d
       -0.08575554 0.030325683 0.045693602 0.051208753
0003a0 6a dc ba 3d 06 a2 0d be 77 6a 2c be da 07 28 be
       0.09124072 -0.13831338 -0.16837488 -0.16409245
0003b0 08 6f d6 bd 2c cc c6 bd 25 bf 71 3d 45 24 1b be
       -0.10470396 -0.097069114 0.05902018 -0.15150554
0003c0 37 4f 1a be 19 3c 8e 3d 4d d9 f0 bd 38 b0 32 3c
       -0.1506928 0.069450565 -0.11760197 0.010906272
0003d0 5d ee 13 be 64 1a 6d 3d c2 bf d0 3d af a0 31 be
       -0.14446397 0.057886496 0.10192825 -0.17346452
0003e0 47 9e 37 3d 42 45 e3 bd de d3 d3 3d c0 19 12 3e
       0.04482868 -0.11097194 0.10343145 0.14267635
0003f0 4d 56 09 be 83 f1 3f 3d 3e bd d8 3d f7 cf 13 3e
       -0.13411827 0.046861183 0.1058297 0.14434801

emb_net.v_lins1.5.bias f4 [32]
000000 8b 15 55 3d 1e 9c 92 bd da e2 53 bd b8 d9 f5 3c
       0.052022498 -0.07158683 -0.051730014 0.030011043
000010 0f 2b 1a 3d aa dc 19 3e b1 49 2d 3e 4c 56 26 3c
       0.03763872 0.15025583 0.16922642 0.010152411
000020 a3 ee 29 3e 3e ed d5 bd 1f 9e c2 3a 79 2d 15 be
       0.16594939 -0.10445641 0.0014848149 -0.14568128
000030 7f 4d ad 3d 30 73 12 3d 61 25 db bd 97 58 09 be
       0.08462047 0.035754383 -0.10700489 -0.134127
000040 c5 06 10 bd c0 42 88 bd 23 48 93 bd 92 78 1d be
       -0.035162706 -0.066533566 -0.07191493 -0.15378025
000050 94 86 e6 bd 3b 4a 16 3e c1 ec b1 bd c3 22 93 3d
       -0.112561375 0.14676754 -0.08687735 0.07184365
000060 b8 85 47 3c a7 c4 c3 bc 1c 75 6d 3d ad 2f 08 3e
       0.012177877 -0.023897482 0.057973012 0.13299437
000070 b1 e3 62 3d 3e 92 9d 3c 10 e3 12 3e 60 65 70 3c
       0.055392925 0.019234773 0.1434443 0.014672607
