pretrained/tsp_nls/200/tsp200_sd0/50.pt (torch, 348837 bytes, 229 tensors)

emb_net.v_lin0.weight f4 [32, 2]
000000 7a 54 9f bc 81 00 c7 3e 61 49 0f bf b0 a7 06 bf
       -0.019449461 0.38867572 -0.5597134 -0.5259962
000010 27 b0 6c be 6d 42 3d 3e 2f 02 bf 3c e2 27 05 3f
       -0.23114072 0.1848237 0.02331647 0.5201398
000020 86 5f 0e bd ad 24 34 3e f4 91 63 be d4 dd 11 be
       -0.034759067 0.17592116 -0.22223645 -0.14244777
000030 38 28 2d bf 1a 64 f8 be 7a 64 96 be 61 47 40 3c
       -0.67639494 -0.4851387 -0.29373533 0.011735768
000040 14 38 83 3e 62 0c cb 3e d9 1f eb be 20 b4 94 be
       0.25628722 0.39657885 -0.45922735 -0.29043674
000050 56 ab 73 3e cf 15 13 3f 28 44 fe bd 55 10 09 3f
       0.23795828 0.5745515 -0.124153435 0.53540546
000060 27 56 c1 bd 26 13 53 3d cc f1 1b 3f 36 c1 24 bf
       -0.094402604 0.051531933 0.6091583 -0.64357316
000070 63 5f ec be 00 cb 1f be 9f b1 95 be 4c 0c 1a 3f
       -0.46166524 -0.15604782 -0.29237077 0.60175014
000080 44 7c e4 be b4 3b 9c be 59 d9 ef be 84 a7 20 bf
       -0.44626057 -0.305143 -0.4684551 -0.6275561
000090 03 15 c6 be 10 d9 18 3f 05 79 a1 3e c6 7a 9e 3e
       -0.38687906 0.5970621 0.31537643 0.30953044
0000a0 01 62 61 3c 67 7f a4 be a9 04 c8 3d c5 c1 22 bf
       0.013756276 -0.3212845 0.09766514 -0.6357692
0000b0 06 eb 06 bf fb ab a6 be ef a0 e5 3e 90 5a cc 3e
       -0.5270237 -0.32553086 0.44849345 0.39912844
0000c0 24 b9 98 be 6b ad 0a bd ba 57 e6 3e 73 dd 2f 3f
       -0.2982875 -0.03385679 0.44988805 0.6869728
0000d0 ff ad 94 3e 21 16 c2 3d f3 c0 e3 3e 9f b1 c0 be
       0.29038998 0.09476877 0.44483146 -0.37635514
0000e0 e7 34 16 3e 5a fa 05 bf 1f 4c 04 bf ff aa ae be
       0.14668618 -0.5233513 -0.5167865 -0.34114835
0000f0 f4 f5 a7 3e 33 eb 90 3e 85 70 d2 be 6e 33 61 3e
       0.32804835 0.28304443 -0.4110147 0.21992275

emb_net.v_lin0.bias f4 [32]
000000 ec c4 f9 3e b8 51 a9 bd 40 da 6f 3d bb b3 12 3e
       0.48783052 -0.0826754 0.05855775 0.14326374
000010 b7 78 d4 3e dd e7 4c 3f 82 13 0b bf 11 55 92 be
       0.41498348 0.80041295 -0.5432664 -0.28580526
000020 d8 84 87 3e d6 89 13 3f 2b e8 23 3f 39 4b 35 3f
       0.2646854 0.57632196 0.64026135 0.70817906
000030 1d f6 71 3e 7a ba 22 bf 8f 08 af 3d 59 9f dc be
       0.23629041 -0.6356579 0.08546554 -0.43090323
000040 c1 ba 26 bf 48 e3 1d 3f be 3c 11 3f 16 80 39 bf
       -0.65128714 0.6167493 0.5673331 -0.7246107
000050 c4 30 01 3e 9e 70 07 be 63 86 dc bd 37 73 97 be
       0.12616259 -0.13226554 -0.1076782 -0.2958009
000060 2a 82 a0 3e a4 a5 d6 be b0 81 a7 3e 72 bd a1 3e
       0.31349307 -0.4192325 0.3271613 0.31589848
000070 97 78 09 3f 94 af 87 3e 5a e2 33 bf 68 a1 df be
       0.5369963 0.26501143 -0.7026726 -0.4367783

emb_net.v_lins1.0.weight f4 [32, 32]
000000 9b aa cc 3d 94 39 2f 3c af 36 00 be ef d1 bb bd
       0.09993478 0.01069488 -0.1252086 -0.09170901
000010 ab 2a 37 3e b5 06 04 3e 7c 82 dc bd 79 a5 10 bd
       0.1788737 0.12893184 -0.107670754 -0.035314057
000020 ec 9b 29 be 78 ba 96 bb 8d 46 fc bd bb 8c fc bd
       -0.16563386 -0.0045998655 -0.12318144 -0.1233153
000030 4e 33 8e 3b 31 96 5a 3b 64 3e 93 bd 30 bf e6 3d
       0.004339612 0.0033353681 -0.071896344 0.11266935
000040 85 3c 07 be 81 c4 05 3e 4c c6 07 3e 33 cb 5b be
       -0.1320668 0.13063242 0.13259238 -0.21464233
000050 d0 19 82 bd ef f3 90 bc bb be 45 3c a8 60 9a bc
       -0.063525796 -0.017694442 0.0120693995 -0.018844917
000060 bb 18 a0 3d 46 7d f1 bc b6 2d d5 bd fd 08 89 3d
       0.07817217 -0.02947868 -0.10409109 0.066911675
000070 bc 2a 40 be 0d 11 e9 bd 85 16 ec bd 14 4e 9b bd
       -0.18766302 -0.11380205 -0.11527733 -0.075832516
000080 4d 45 1a bc ab c0 1d be b4 24 21 bd ae b1 c6 3d
       -0.009415937 -0.15405528 -0.039341643 0.097018585
000090 51 3d c7 bd ba 4e af bc 31 aa fc 3d a1 97 c2 bc
       -0.09728492 -0.021399844 0.12337149 -0.023753943
0000a0 97 19 d2 3c 7f be d4 bc f9 fb 7e 3d 9f a4 fd 3d
       0.025646968 -0.025969742 0.06225202 0.123849146
0000b0 c6 4c 25 3e 52 79 f2 3d 34 d3 22 3e fe e1 0f bc
       0.16142568 0.11839546 0.1590088 -0.008781908
0000c0 12 19 26 be 0e 57 cb bd ff 83 f8 3d 56 39 86 3c
       -0.16220501 -0.09928714 0.12134551 0.016384762
0000d0 47 3e 22 be 09 fd 29 be ef 60 31 be 31 13 07 be
       -0.1584407 -0.16600432 -0.17322133 -0.13190915
0000e0 5c 71 31 bd 52 e3 ef 3d 95 d0 d9 3d 97 a0 29 be
       -0.043321 0.1171328 0.10635487 -0.16565166
0000f0 36 4f b0 3d 4b 78 17 be e2 87 a3 bc e7 3c 94 bd
       0.08608858 -0.14791982 -0.019962255 -0.07238179
000100 01 bd 24 bd 54 4d 81 bd d9 c4 1a be 3f c2 24 be
       -0.04021931 -0.06313577 -0.15114154 -0.16089724
000110 f0 62 da bc 04 e1 15 3c 3c 4b 18 be f0 05 94 3d
       -0.026658505 0.009147886 -0.1487245 0.07227695
000120 28 27 31 be 38 76 17 bc 53 00 10 3e cd a4 90 bd
       -0.17300093 -0.009244494 0.14062624 -0.07062683
000130 84 89 28 3e 93 bd 92 3d d5 31 20 be af 2d f3 3d
       0.16458708 0.07165065 -0.1564401 0.11873948
000140 7e 81 86 bd 7f 5f b6 bd 01 c1 15 3e 9f bc 24 be
       -0.065676674 -0.08904933 0.14624406 -0.16087578
000150 e0 e8 a4 3c a1 80 10 bd 9f ea ec 3d bd e2 01 3d
       0.020130575 -0.03527892 0.11568188 0.031710375
000160 2b c9 b9 3d 94 73 23 3d 92 4c 55 bd 34 23 20 bd
       0.09071573 0.039905146 -0.052074976 -0.039096072
000170 de 43 13 be c4 f3 bc 3d 9c ea f7 3d 9f 68 04 3e
       -0.14381358 0.09226182 0.12105295 0.12930535
000180 0d e6 ed bd 44 43 89 3c 2f 7a da bd ac a4 c0 bd
       -0.11616144 0.016755708 -0.10667836 -0.09406409
000190 7a c6 bd bd be da 9d 3d 43 ec bf bd 00 84 7a 3c
       -0.09266372 0.077077374 -0.09371235 0.01529026
0001a0 42 2d b9 bc 29 68 04 3e f0 04 29 be db c6 de bd
       -0.022604588 0.12930359 -0.1650579 -0.108777724
0001b0 24 70 b3 bd 4d 4d fd 3d 6a 43 39 bd d3 93 29 3e
       -0.087616235 0.123682596 -0.045230307 0.16560297
0001c0 a3 01 9a 3d b1 18 fc 3c a9 ed 6e 3c 27 e7 78 bd
       0.075198434 0.030773493 0.01458303 -0.06076732
0001d0 d4 55 40 3c 85 36 51 bd 20 9e 64 3c e3 cc c5 b9
       0.011739213 -0.051077385 0.013953716 -0.0003772742
0001e0 03 0b f6 bd 5c fb 03 be 25 09 01 3e f9 48 1b be
       -0.12013819 -0.12888855 0.12601145 -0.15164556
0001f0 fd 94 c2 bc f8 2b 41 3e 23 de 23 3d 13 a9 f0 3c
       -0.023752684 0.18864429 0.040006768 0.029377496
000200 b2 c8 62 be 45 6c 8f 3d 2b 12 11 be a2 e9 09 be
       -0.22146872 0.07003073 -0.14167087 -0.1346803
000210 da 6d c4 bd 22 dd 18 bd 9c 0f a1 bc 42 63 06 3e
       -0.09591265 -0.037320264 -0.019660763 0.13123801
000220 08 cd 91 3c d4 f7 14 3e 11 7c c1 3d 1b 7f 14 be
       0.017797962 0.14547664 0.09447492 -0.14501612
000230 5f 45 7e 3d 3c ab cc bd ec 32 b4 bd 42 5e d7 3c
       0.062077876 -0.09993598 -0.08798775 0.026290063
000240 53 86 1f 3d 72 eb f3 3d 90 70 9e bd 16 6e 57 bb
       0.03894646 0.11910142 -0.07736313 -0.0032872013
000250 da 8e 0e 3e 1a b8 0d be c6 24 e4 3d 4c 8d 14 be
       0.13921681 -0.1383976 0.111398265 -0.14507025
000260 fe e2 2b bc e3 ba 4a bd a8 f5 a6 bd 86 a4 2e 3d
       -0.010491131 -0.049494635 -0.08152324 0.04263737
000270 96 eb 34 3e 03 d7 84 bd 2a 1b d6 bd a8 8c a2 bd
       0.17667994 -0.06486323 -0.104544 -0.07936984
000280 0e 72 40 be 58 38 74 3d bd 42 bb bd 73 a9 0d be
       -0.18793508 0.059624046 -0.09143589 -0.13834171
000290 44 c2 e1 bd 38 27 c6 3d 12 27 80 3d 9c c6 01 3e
       -0.11023381 0.09675449 0.06257452 0.1267342
0002a0 2d 33 62 3d 25 74 86 bd b7 ec 84 bd bc 3d 2b 3d
       0.055224586 -0.065651216 -0.06490462 0.04180692
0002b0 90 6e 0d 3e f2 85 43 3d 8f 46 c0 bd 20 29 c3 bd
       0.13811707 0.047735162 -0.09388458 -0.09529328
0002c0 24 40 43 be 8f c2 c6 3c b1 ca db bd ad ec 2a be
       -0.19067436 0.024262695 -0.1073202 -0.16691847
0002d0 9d 89 20 3e 8d 55 ee bd c4 fc 0c bd 2b ce 31 3d
       0.15677495 -0.11637411 -0.034420744 0.043409508
0002e0 f6 82 b3 ba 59 ba 0e be 82 a9 0e be 8d 8e 13 3e
       -0.0013695646 -0.13938273 -0.1393185 0.14409848
0002f0 c3 2a 02 3d 4e b4 0a 3e d4 9c 88 bd 04 d7 33 3d
       0.031779062 0.13545343 -0.066705376 0.043906227
000300 de 75 82 bd 58 dd 26 bd b6 ac 0d be d5 db 16 3d
       -0.06370138 -0.040738434 -0.13835415 0.036830742
000310 54 ed 00 3d 0c 08 85 bd 4a c3 55 bd 85 31 16 be
       0.031476334 -0.064956754 -0.052188195 -0.14667328
000320 3a b9 f3 3d df 8c 49 be 46 48 6c 3d 12 be ac bd
       0.119005635 -0.19682644 0.057686113 -0.084346905
000330 e8 a3 ec bd 30 04 44 3d e3 09 16 be 73 07 2f 3c
       -0.115547 0.047855556 -0.14652209 0.010682928
000340 86 8a 3f 3c 14 37 22 be 16 de 15 3a 8e 6b b0 3d
       0.011690741 -0.15841323 0.00057169923 0.086142644
000350 d0 93 b7 3d 44 f2 a4 bb 23 31 46 be 2e 03 1c bc
       0.0896374 -0.005033763 -0.19354682 -0.0095222425
000360 88 e4 96 3c 93 84 8d bd d1 8b f3 3d c8 d3 12 3e
       0.018419519 -0.06910052 0.11891902 0.143386
000370 11 d9 8f bd 52 d6 79 bd 39 e6 b8 3d 43 5f ab bc
       -0.07023824 -0.060995407 0.090282865 -0.020919448
000380 1f 01 4e ba 2f 58 06 3d 56 64 0b be 51 de 2a bb
       -0.00078584434 0.032798942 -0.13612494 -0.0026072452
000390 73 d1 e0 3d da 8f 49 3e c1 71 bd 3d 93 a2 35 3d
       0.10977449 0.19683781 0.092502125 0.044344496
0003a0 48 b9 45 3d 2d 9f 53 bd 30 c7 30 be 42 2a 26 be
       0.0482724 -0.051665474 -0.17263484 -0.16227058
0003b0 79 d3 34 3e c0 1a 03 3e a5 e8 be bd 00 7a 81 3d
       0.17658795 0.12803173 -0.09321717 0.06322098
0003c0 6f 38 07 3e 6f cf 48 3e a7 41 18 3e bd 12 b7 3d
       0.13205121 0.1961038 0.14868794 0.08939121
0003d0 45 f9 d2 bc ea ab 41 bd b4 d6 26 3e aa 44 4b 3d
       -0.025753627 -0.04728309 0.1629284 0.04962603
0003e0 5f 9a 92 bd f4 05 f0 3d 6f ab 36 3d 39 c3 ce 3d
       -0.0715835 0.117198855 0.044597086 0.100958295
0003f0 61 d8 c6 bd 4e 4e a0 3d 28 35 e6 bd 7e 34 13 3e
       -0.0970924 0.078274354 -0.112406075 0.14375493

emb_net.v_lins1.0.bias f4 [32]
000000 fa d8 e3 bc 72 42 20 be e2 3b de bd d3 46 c3 3c
       -0.027813423 -0.15650347 -0.108512655 0.023837483
000010 01 ed 3c be bc c4 cc bc 29 b2 ff bd 38 b2 1e be
       -0.18449785 -0.024996154 -0.12485153 -0.15497673
000020 bc 07 e2 3d 29 a0 19 be e3 55 0a be 4b bb d4 3d
       0.110366315 -0.15002503 -0.13509326 0.10387286
000030 79 ce 27 3d 3b 0c ff 3d e3 10 65 bd 5a 9a 55 bd
       0.040968392 0.12453505 -0.055924308 -0.052149154
000040 b1 66 ae 3b 0e b0 bb bc 1d 48 f7 3d 96 c0 35 be
       0.0053223004 -0.022911098 0.120743014 -0.17749247
000050 79 8e 1d bd de c9 94 3d 73 54 fe bd 70 d5 02 be
       -0.03846595 0.072650656 -0.12418451 -0.12776732
000060 c1 be e4 3d 96 02 4e be 4d 25 eb 3c 49 75 06 be
       0.11169196 -0.20118174 0.02870431 -0.13130678
000070 7b da 6c 3d 56 31 35 be c6 ba f4 3d 48 f2 2d be
       0.057825547 -0.17694601 0.11949687 -0.16986954

emb_net.v_lins1.1.weight f4 [32, 32]
000000 d6 8a 41 be c3 b3 85 3c 4d 1a 1d 3e 56 0f 35 be
       -0.18900618 0.016321069 0.15342064 -0.17681631
000010 fd 05 be bd 07 3a 09 3e e9 00 d7 bc 35 cf 36 3d
       -0.09278486 0.13401042 -0.026245551 0.0446312
000020 9d bf 11 be be e5 86 bd d1 60 45 bd 4d 89 02 3e
       -0.14233251 -0.065867886 -0.048188034 0.12747689
000030 05 8f 8f 3d 96 c8 18 be 93 7e ec 3c 52 fc 88 3a
       0.07009701 -0.14920267 0.028868949 0.0010451174
000040 b7 c8 84 bd 91 0e d6 bd 81 fb be bd 57 03 e7 3d
       -0.06483596 -0.10451997 -0.09325314 0.11279934
000050 44 8c d1 bd 00 0d fd bd 6f e2 cb bd 76 ed 95 bc
       -0.10231832 -0.12355995 -0.09955298 -0.018301707
000060 31 05 65 3d 34 56 a6 bc 15 03 4a bd 5a 13 0c be
       0.055913154 -0.020304777 -0.049319346 -0.13679257
000070 e9 ec da bc 0d 3a b8 bd 36 0b eb 3d 1c b4 45 be
       -0.026724296 -0.08995447 0.11476748 -0.19306988
000080 b0 0b 25 be 0a 85 0a be b1 a6 83 bc 9d 55 d0 3d
       -0.1611774 -0.13527313 -0.016070696 0.101725794
000090 af af 05 3e 02 5f 39 be bd 60 1d 3c d5 5e 52 3d
       0.13055299 -0.18102649 0.009605584 0.05135997
0000a0 84 e3 a9 3d dd d1 1e 3e 55 e1 82 bc 4d c0 e3 bd
       0.08295348 0.15509744 -0.015976587 -0.11120663
0000b0 99 29 fe 3d 62 c2 aa bd 37 ce c8 3d a4 3f ba bc
       0.12410278 -0.08337857 0.09804957 -0.022735424
0000c0 b4 44 a7 3d 7f d1 09 3e 47 bd e0 3d 85 d2 57 be
       0.08167401 0.13458823 0.10973602 -0.210764
0000d0 fe 0c f9 bd b1 1c 86 bd 20 56 1a be 7c 2d 18 3e
       -0.12160681 -0.06548441 -0.15071917 0.14861101
0000e0 f9 e1 0a bd 45 14 0c be 85 0e e9 bd e7 89 fd bd
       -0.03390691 -0.13679607 -0.113797225 -0.123798184
0000f0 f9 31 5d 3d e0 06 36 be 8c 8f 5b be 0c d4 65 be
       0.054002736 -0.1777606 -0.21441478 -0.2244417
000100 f5 43 4a 3d e0 6a e8 3d 59 86 e5 bd 10 63 33 3d
       0.049381215 0.1134851 -0.112072654 0.043795645
000110 1b a2 0d 3e 81 62 93 3c ff 2f 9f bc 04 a7 03 3a
       0.1383137 0.017991306 -0.019432066 0.00050221407
000120 1d 10 9f bb 58 69 da 3d fc bd a8 bd c7 2f df 3d
       -0.004854216 0.10664624 -0.08239362 0.10897785
000130 46 ff 04 3e 4d 50 bb bd 0e 86 20 3e 51 6b 3b 3e
       0.12988004 -0.091461755 0.15676138 0.18302657
000140 6b 6e 16 bd 99 f7 12 bd 18 53 97 3d 4b e3 13 be
       -0.036726397 -0.03588066 0.07388896 -0.14442174
000150 d5 48 a6 3d d1 2f 53 3d 30 f4 a3 3d 06 03 00 be
       0.0811936 0.051559273 0.080055594 -0.12501153
000160 e9 9e 01 be bc 9a ba 3d 6c 55 74 3d cc 2b 35 be
       -0.12658276 0.091115445 0.059651777 -0.17692488
000170 cb c1 89 bd 11 61 2c be 27 66 11 be b6 c4 c4 bd
       -0.06726416 -0.16833903 -0.14199124 -0.09607832
000180 3f be 0c 3e a9 ef 9a bc 77 d0 d7 3d 2c eb 1e 3e
       0.13744448 -0.018913107 0.105378084 0.15519398
000190 a1 25 92 3d 89 97 2c be 12 45 a8 3d de 62 7d 3d
       0.071360834 -0.16854681 0.08216299 0.061861865
0001a0 f8 12 0f 3e 70 ce 2c be 22 e9 f8 3d aa 7f 38 3e
       0.1397208 -0.16875625 0.121538416 0.1801745
0001b0 6a fa f2 bd 87 19 40 3d 72 38 14 3e e3 20 fc bd
       -0.11864169 0.046899345 0.14474657 -0.1231096
0001c0 00 2b 7a 3d 5c 3d 9c 3d 7c f5 40 3d 31 ce 4a 3e
       0.061076164 0.07628891 0.047109112 0.19805218
0001d0 6c 90 1a 3e 2c a7 13 3e e8 11 d4 bc f0 b4 41 3e
       0.15094155 0.1441924 -0.025887445 0.18916678
0001e0 23 9f 23 be f8 28 c4 bd 84 5f 8d bd 55 13 84 bd
       -0.15978675 -0.09578127 -0.06902984 -0.06449
0001f0 57 69 23 3e 7b ae 97 3d a3 7a 0d 3e 21 76 03 3e
       0.15958153 0.074063264 0.13816313 0.12838031
000200 38 b5 04 be ca ea 5c bd 79 59 40 3b 10 d5 22 3d
       -0.12959754 -0.05393485 0.0029350205 0.039753973
000210 6a 50 ad 3d 4e 0f 93 bd e0 92 c5 bd a6 bd 0a 3e
       0.084626034 -0.071806535 -0.09647155 0.13548908
000220 09 7c bf bd d2 ca 31 be 96 07 b2 3d 3f 6c db 3d
       -0.0934983 -0.17362526 0.08692853 0.10714006
000230 a9 b3 8a bd 24 7b 62 bd 31 01 2e be 82 ec 42 be
       -0.06772549 -0.055293217 -0.16992642 -0.19035533
000240 24 c3 08 3d c6 f1 a1 bd 28 8d 09 3e 40 ea 10 be
       0.033389226 -0.07907443 0.13432753 -0.1415186
000250 87 9a 6e bd 26 4b 34 bd ff 70 c9 3d d0 17 fd 3d
       -0.058252838 -0.04401698 0.098360054 0.123580575
000260 d1 37 fc 3d 01 44 86 3d 71 3e b6 bd bf c5 02 be
       0.12315334 0.065559395 -0.088986285 -0.12770747
000270 e7 13 35 be a1 24 62 3b c2 da 3c 3e 97 27 e3 bc
       -0.17683373 0.0034506696 0.18442824 -0.027728839
000280 c8 49 05 bd cc 96 b2 bd 49 49 bd 3d 4e 08 d0 3d
       -0.032541066 -0.087201685 0.09242494 0.10157834
000290 85 6d 3f be b3 14 19 be fa 4e 25 3e 71 d7 10 3c
       -0.18694122 -0.14949302 0.16143408 0.008840428
0002a0 cb cb e2 bc 42 f7 f9 3c 8f ce 16 bd 2f 0a d9 bd
       -0.027685067 0.03051341 -0.036818083 -0.105976455
0002b0 79 0a 06 be a1 99 d3 3d 44 79 e4 3b 99 51 06 bd
       -0.13089933 0.10332037 0.006972464 -0.03279266
0002c0 74 eb 1b bc ef 82 ee bd 77 49 8b bd 91 6a 3d be
       -0.009516586 -0.11646067 -0.06801122 -0.18497683
0002d0 ce bb 00 3e 37 7b a8 3d 9a cd 0f be 0b d3 83 bd
       0.12571642 0.08226626 -0.14043275 -0.064367376
0002e0 02 50 71 3d 1d 82 9b bd d9 a2 c3 3c 46 3a ae 3c
       0.058914192 -0.075931765 0.023881363 0.021268021
0002f0 ab 83 06 be b6 c0 b5 3c 2f de 1a bd cc a4 e8 3d
       -0.13136165 0.022186618 -0.037809547 0.113595575
000300 b4 93 d0 bd 0a 1a 1f bd 8b 77 14 3e 9a 0c 2b be
       -0.10184422 -0.038843192 0.14498727 -0.16704026
000310 40 73 f6 b9 f5 5f 1b 3e 36 48 dd bd ed 88 1a 3e
       -0.00047006644 0.15173323 -0.10804789 0.15091296
000320 ed 32 0e 3e 49 85 f7 3d 1b e7 14 bc bd fe 33 3e
       0.13886614 0.12085969 -0.009088303 0.17577644
000330 c7 f8 73 bd e1 3f 1f bd 34 dd 0f 3d c5 d7 cf 3c
       -0.059563424 -0.03887928 0.035123065 0.025371442
000340 3d f1 94 3d 66 c1 22 3e 38 7e 06 be 96 92 62 3d
       0.07272575 0.15894088 -0.13134086 0.055315576
000350 90 82 15 3d 72 f9 83 3d 69 17 69 3d 6a 17 58 bd
       0.036501467 0.06444062 0.05690709 -0.052756704
000360 aa f1 0d be d3 aa e9 3d 43 68 ec bd 6f be b6 3d
       -0.13861719 0.11409535 -0.11543324 0.08923041
000370 6e 05 1a be 1d f3 33 bd 1d 9b c3 bb e0 72 d8 3c
       -0.15041134 -0.043933023 -0.0059694187 0.026421964
000380 a8 fc 50 3c 99 5b 29 3d 6f aa 50 bd 0a 2f 3d 3d
       0.01275555 0.04134712 -0.05094379 0.046187438
000390 8a 93 2f 3e ae c7 e2 bd 57 a7 02 bc c1 37 a5 bd
       0.17146125 -0.11073242 -0.007974467 -0.08067275
0003a0 d7 3a 36 3e 8f 4c 27 3e 82 e0 0a 3c 2f ea af bd
       0.17795883 0.16337799 0.008476378 -0.08589589
0003b0 ee d8 0b be 58 0b de 3d cf 4b 4d bc 73 5b 22 3e
       -0.13656971 0.108420074 -0.012530281 0.15855198
0003c0 a9 87 c9 3d 70 7b 28 3e 69 99 0c 3e f6 29 ee bd
       0.09840328 0.16453338 0.13730396 -0.11629097
0003d0 8c 68 91 3d c5 eb 66 bd 14 f6 ac 3d 64 fe 10 bd
       0.07100019 -0.05637719 0.08445373 -0.035398856
0003e0 e3 57 1f 3d 63 dc fc bd 9a 01 06 be ea 14 99 3d
       0.038902175 -0.12346723 -0.13086548 0.07474692
0003f0 6e 15 97 3d 65 4b 5e 3c 70 9d ea 3d fb fa a0 bd
       0.07377134 0.01356778 0.1145581 -0.07860371

emb_net.v_lins1.1.bias f4 [32]
000000 91 17 c5 3d 0c b4 20 bd 9e a1 a9 bd c0 c9 54 bc
       0.096236356 -0.039234206 -0.08282779 -0.012987554
000010 c6 ec 42 3d d3 53 61 bc b9 15 ef 3d 2d c2 23 be
       0.047589086 -0.013752895 0.11674065 -0.15992041
000020 0a 91 a3 bd e1 50 07 3e aa 3e a6 3c c8 72 27 3d
       -0.079866484 0.13214447 0.020293552 0.04088095
000030 9a 35 94 3d f1 d2 30 bd 41 00 bb bd 6c d4 82 3d
       0.07236786 -0.04316992 -0.09130908 0.063881725
000040 f7 59 47 bd ac ff 52 bd 13 ff d7 3c 35 71 30 3d
       -0.04866978 -0.05151336 0.026366746 0.043076713
000050 6b 75 97 bc 12 e9 17 be 62 34 a4 bc 5c 1c de bd
       -0.018488606 -0.14835003 -0.02004451 -0.10845253
000060 37 96 76 3d 6d 8d ed bd 62 18 15 3e 7c fc 7a 3d
       0.06020185 -0.115992405 0.14560083 0.061275944
000070 42 59 18 be a9 7e 0c 3e 10 c4 32 be 83 72 62 bc
       -0.14877799 0.13720192 -0.17457604 -0.013821247

emb_net.v_lins1.2.weight f4 [32, 32]
000000 2c 98 2d be 41 80 18 be 30 ef 31 3c 76 14 f0 bd
       -0.1695258 -0.14892675 0.010860249 -0.117226526
000010 d4 e5 c5 3d 30 6e f8 bd 63 02 26 3e f4 22 03 3e
       0.09662977 -0.121303916 0.16211848 0.12806302
000020 2b bc 20 3e 24 35 a9 bd 30 9d d0 bd 35 03 0a be
       0.1569678 -0.08262089 -0.10186231 -0.13477786
000030 fb f3 ef 3d 9c 80 06 be bf e3 e0 bc d4 6f 74 bd
       0.117164575 -0.13134998 -0.027452348 -0.05967696
000040 b4 d9 8f 3d fc 57 13 be 5c 2a 03 3e cb 10 20 be
       0.070239455 -0.14389032 0.12809128 -0.15631406
000050 6b a6 30 3e bf 21 67 bd 22 95 e3 bd a1 7a b5 bd
       0.17250983 -0.056428667 -0.11112429 -0.0886128
000060 07 07 84 3d 4d b9 60 bd aa 01 5a be 00 70 d6 3d
       0.06446653 -0.054864217 -0.21289697 0.10470581
000070 2e b8 3c 3e 8a e9 8f 3d a0 65 17 3e 85 a3 41 3c
       0.18429634 0.07026966 0.1478486 0.011818771
000080 59 d8 fe 3c 67 c3 49 be e7 a3 3d be 05 60 e8 bd
       0.031109022 -0.19703446 -0.18519555 -0.11346439
000090 3c ea 98 bb f6 9b df 3d 19 7a d4 bd 8c e1 01 3c
       -0.004666595 0.10918419 -0.10374851 0.00792731
0000a0 0c ad ce bc 93 00 dc bd 55 96 5d bd 13 a2 09 3e
       -0.025229 -0.10742297 -0.054098446 0.13440733
0000b0 17 8d c0 3d ec 5e 16 3e 0c db 8d bd 28 10 93 bb
       0.09401911 0.14684647 -0.069265455 -0.00448801
0000c0 dd 5b c5 3c e8 5e 91 bd e2 1a 13 bd c3 a5 3f 3e
       0.024091655 -0.0709818 -0.03591431 0.18715577
0000d0 47 55 37 3b 00 c7 03 be 2a 63 3c 3e c0 d9 ab 3d
       0.0027974413 -0.12868881 0.18397203 0.08391142
0000e0 79 a4 a0 3d 95 4f d5 bd c5 55 62 3d f5 7c 0e 3e
       0.07843871 -0.1041557 0.055257577 0.13914855
0000f0 73 71 a2 bd cd d3 72 bd d0 c4 0b 3e 65 b7 9a 3d
       -0.07931795 -0.05928402 0.13649297 0.07554511
000100 90 7f e3 3b b2 c0 ba 3c e3 ae 21 bd 9d 9f 62 3d
       0.006942697 0.022796962 -0.039473426 0.055328
000110 c4 53 6c bd 0e a9 e4 bd 83 6a 23 3d c7 aa 15 3d
       -0.057697073 -0.11165057 0.0398965 0.03653982
000120 75 90 67 3d 6c 43 06 bd af 40 14 bd d3 16 25 bd
       0.05653425 -0.032779142 -0.0361945 -0.04030497
000130 d6 de 35 3d f6 75 27 be 09 37 3d be 77 1b 33 3d
       0.044401966 -0.16353592 -0.18478025 0.043727364
000140 7a 2e c1 bd 1b a5 8f bc e8 30 19 3d 85 ae 1d 3c
       -0.09432693 -0.017534783 0.037400156 0.009624128
000150 17 f4 c4 3d e6 b2 77 3b 54 22 8c 3c 49 d2 58 bd
       0.09616869 0.003779584 0.017106213 -0.05293492
000160 63 fd 5c 3d fe 8c 36 3d b6 df ba 3d bc 5a 28 be
       0.053952586 0.044568054 0.09124701 -0.16440862
000170 38 d2 28 bd 04 41 24 be 9a a3 e1 bd 1a 5d b2 3d
       -0.041216105 -0.16040426 -0.11017533 0.08709164
000180 e1 17 0c be 32 13 2f be df 2e b1 3d c5 bb ea bd
       -0.13680984 -0.17097166 0.08651518 -0.114615954
000190 cf 44 f8 3d 7d 7c 43 3d a1 87 3b 3d ab d7 0f 3e
       0.12122499 0.047726143 0.045783643 0.14047115
0001a0 4c 5f 29 be 72 c9 11 3e 01 7a 5f 3d 1e 4b f2 bd
       -0.16540259 0.14237002 0.05455971 -0.11830734
0001b0 fe 2a 35 3d ce a1 18 bd f4 07 c8 bd 49 35 42 bd
       0.044230454 -0.037263684 -0.09767142 -0.047414098
0001c0 37 5f 30 bd 4a e6 0b 3e 55 07 27 3e 87 2c 1d bc
       -0.043059554 0.13662067 0.1631139 -0.009593136
0001d0 d7 79 26 be 66 c1 e0 bc f7 85 d9 3c ea 6e ef 3d
       -0.16257416 -0.02743597 0.026553137 0.11691077
0001e0 8f f8 8c bc 0e 66 cc 3d 36 70 36 3d 38 0e e2 bd
       -0.017208366 0.09980403 0.044540606 -0.11037868
0001f0 b8 7f 0b be 00 14 16 be 85 68 3b bc 08 42 06 3d
       -0.1362294 -0.14656067 -0.011438494 0.032777816
000200 29 00 25 3c 01 4f 0f 3e 15 a8 b4 bc 34 27 f1 bd
       0.010070839 0.13994981 -0.022052804 -0.117750555
000210 88 c8 d7 3c 27 2a 90 bd c7 e5 41 bd b8 63 24 3e
       0.026340738 -0.0703929 -0.047338273 0.16053665
000220 c9 87 ca bc d8 87 c4 3d 3a eb 03 bc 90 70 92 bd
       -0.02472295 0.09596223 -0.008051688 -0.07150376
000230 18 f6 ed 3d 2b 7d b3 bd cf 7a a4 bc 56 5a 21 3d
       0.11619204 -0.08764108 -0.020078091 0.03939279
000240 c3 d8 e7 3c 88 89 42 be be 44 da bb 78 37 56 bd
       0.028301602 -0.18997777 -0.0066610267 -0.052298993
000250 72 ae 9c 3d 12 2d 2d 3d c1 6c 9e 3d e1 f6 f8 3d
       0.0765046 0.04227931 0.07735587 0.121564634
000260 75 f5 96 bd 63 32 3d 3d ce d4 08 3e 82 d8 1d be
       -0.07371036 0.04619063 0.13362429 -0.15414622
000270 13 e7 2e be 88 70 9d 3b 59 59 85 bd 74 b4 22 3c
       -0.17080335 0.0048046745 -0.06511182 0.009930719
000280 6f 29 0a 3e 48 48 80 bc b2 6a 13 be 9d d3 12 be
       0.13492368 -0.015659466 -0.1439617 -0.14338537
000290 68 91 e1 3d 33 06 39 bd 71 ed d9 bd 63 69 49 3d
       0.11014062 -0.045171928 -0.106409915 0.04917277
0002a0 54 0e 93 3c 90 35 43 be aa 77 0f 3e a1 2f a0 3d
       0.017951168 -0.19063401 0.14010492 0.078215845
0002b0 13 76 07 3e 89 c8 19 3d 02 14 6a bd 46 56 a6 bd
       0.13228635 0.03754476 -0.057147987 -0.08121924
0002c0 9d 4a b3 3c f4 5c fe bc 62 c4 b0 ba 1b b4 5d be
       0.021886164 -0.031050183 -0.0013486261 -0.21650736
0002d0 89 cf e9 bd 9e 5a 60 3d e6 77 9e bd 1a 96 0b be
       -0.11416537 0.05477392 -0.077377126 -0.13631478
0002e0 91 c9 1a be 06 25 d9 3d 0d fe 8b bd c8 a1 33 be
       -0.15115954 0.10602765 -0.06835566 -0.17542183
0002f0 05 f0 2d 3e ce a5 88 3d 2b 6b 29 be d8 dd 2a be
       0.16986091 0.0667225 -0.16544788 -0.16686189
000300 ea 66 35 3e 04 d6 c0 3c 0e 57 7c bd 32 57 95 3d
       0.1771504 0.02353955 -0.06160646 0.07292022
000310 e2 69 79 bd 17 18 0b 3d f3 17 13 bd 67 ae 36 be
       -0.060891993 0.03395852 -0.03591151 -0.17839967
000320 dc 3e 10 be e5 7d 90 bc f1 ff f1 bd d8 22 22 3e
       -0.14086479 -0.017638156 -0.11816395 0.15833604
000330 40 cf e6 3b 3e 89 d6 bd 68 14 a8 3d ad a0 1b be
       0.007043749 -0.104753956 0.08207017 -0.15198012
000340 ba 3c 87 bd fe 8c 6b 3d 25 53 20 be 1e e8 6f 3d
       -0.066033795 0.057507508 -0.15656717 0.058570974
000350 6b f3 57 3b b3 d5 22 be 1b a6 4a be cc cf 74 3c
       0.0032951485 -0.15901832 -0.19789927 0.014942121
000360 9e 71 ba 3d fb e6 8b bd 46 f2 40 be 1f f8 fc bd
       0.09103702 -0.068311654 -0.1884242 -0.12352013
000370 c2 e4 99 3c 47 4b 85 bc 1c 25 81 3d 68 08 25 3d
       0.018785838 -0.016271247 0.06305906 0.04029122
000380 e3 76 6d bc 3f 1a ec 3d a6 09 46 3e ef 68 12 3e
       -0.014493677 0.115284435 0.19339618 0.14297841
000390 de ba 06 3e 52 d1 bb bd 31 03 3d bd f4 bc 83 bd
       0.13157222 -0.09170784 -0.04614562 -0.06432524
0003a0 55 90 9c 3d e2 71 c7 3d 7e 59 db 3c 70 77 8f bd
       0.07644717 0.09738518 0.026776072 -0.07005203
0003b0 72 8e ba bd fd 7f 3e 3e 7d cb af bc 52 c5 97 bc
       -0.091092005 0.18603511 -0.021459335 -0.018526707
0003c0 cf f8 c7 bd 39 c7 d8 bd 93 25 b2 39 41 a4 4f 3d
       -0.09764253 -0.10584874 0.000339788 0.050693754
0003d0 89 e3 cb bd 30 20 25 bd f0 2f e6 3d 0f 2c 01 be
       -0.09955508 -0.0403139 0.11239612 -0.12614463
0003e0 49 10 23 be 21 94 10 bd fd 38 1b 3e 23 aa 92 3a
       -0.15924181 -0.035297517 0.15158458 0.0011189621
0003f0 fc 26 15 3d 2a fb 62 bd 83 5a 0a 3e 7e 87 bc bd
       0.03641413 -0.05541531 0.1351109 -0.092055306

emb_net.v_lins1.2.bias f4 [32]
000000 db 0a 13 3e 34 72 8d bd 3f 31 85 3d a1 53 cc bd
       0.1435961 -0.06906548 0.065035336 -0.099768884
000010 27 88 4b 3b f1 cd cf 3d 3f a1 5c 3d c6 10 28 bd
       0.0031056495 0.10146702 0.053864714 -0.04103162
000020 4f 14 0c bb da 8e d0 bd c7 ff a5 3d d6 80 ed 3d
       -0.002137441 -0.10183497 0.08105426 0.11596839
000030 ae 67 86 3d f5 93 2d be d4 3a 08 be 68 c8 00 3e
       0.06562744 -0.16950972 -0.13303691 0.12576449
000040 0b c4 c2 bc af d4 c9 3d 22 64 09 3e 04 31 44 bd
       -0.023775121 0.09855019 0.13417104 -0.047898307
000050 78 1a d1 bd 3f e2 2a be e1 4b 95 3d 1a 19 b9 3d
       -0.10210127 -0.16687869 0.072898634 0.09037991
000060 f2 e4 06 bd 30 c6 20 be 7c e0 fc bd c5 20 cd 3b
       -0.032933183 -0.15700603 -0.123475045 0.00626001
000070 c0 e2 9d 3d b1 74 74 bd e4 22 eb bd a8 6b f6 bd
       0.07709265 -0.059681598 -0.11481264 -0.120322526

emb_net.v_lins1.3.weight f4 [32, 32]
000000 a0 94 a6 3d 75 b1 91 3d 05 a9 00 be ed 2a 06 be
       0.08133817 0.07113925 -0.12564476 -0.13102312
000010 17 b2 3c be 4a 66 79 bc 33 cd 23 bd b1 4c fc bc
       -0.18427311 -0.0152221415 -0.039990615 -0.030798288
000020 e1 75 d2 3a 50 2f 16 be cc 64 40 be bc 14 24 be
       0.0016056859 -0.14666486 -0.18788451 -0.16023535
000030 47 9e d2 bd 55 0d 2a 3c 42 9a ce bd c4 22 ab bc
       -0.10284095 0.010379155 -0.10088016 -0.020890601
000040 25 34 2b 3b 5b 65 f9 3d 9b 47 f8 bd c6 c1 fb 3d
       0.002612361 0.12177535 -0.12123033 0.12292819
000050 08 6d e9 bd 34 8b 21 be 7d 9f 30 3c 3d dd 00 be
       -0.11397749 -0.15775758 0.0107802125 -0.12584396
000060 43 9e af 3d e1 02 f9 bd bb 40 da 3d 20 ce ed 3d
       0.08575108 -0.12158752 0.106568776 0.11611581
000070 67 e3 a4 3c 46 65 9d 3c 65 9b ec 3d 6e ee d2 3d
       0.020127965 0.01921333 0.11553077 0.10299383
000080 8c e3 14 be f9 22 98 bd 23 0a 45 be e3 69 1d 3e
       -0.14539927 -0.074285455 -0.19242148 0.15372424
000090 79 31 c3 bc 85 1c a4 bb 4d a3 07 be df 4b a7 bd
       -0.023827301 -0.0050082826 -0.13245888 -0.08168768
0000a0 a0 b8 65 3c d8 8b d3 3d a6 9a f8 bd 1d ab 3f 3c
       0.014021069 0.103294075 -0.12138872 0.011698511
0000b0 1d c0 0c 3e da 41 12 3e 64 76 8e bd 96 07 34 3e
       0.1374516 0.14282933 -0.06956175 0.17581019
0000c0 d7 a0 06 3c 28 5e 2b 3e ee b8 0b 3d 79 0b 1f be
       0.008217058 0.16735137 0.03411191 -0.1553172
0000d0 50 6b 67 bd 92 5d 46 3d 71 8a ef 3d 94 5b 24 be
       -0.056498826 0.04842908 0.116963275 -0.1605056
0000e0 92 0a 05 3e 34 c5 22 be c4 cd 86 3d 56 11 40 3e
       0.12992314 -0.1589554 0.065822154 0.18756613
0000f0 b3 c9 bc 3b 41 b6 97 3a 27 63 9c 3d c1 8c 85 bd
       0.005761349 0.0011574702 0.07636099 -0.06520987
000100 28 77 10 be 7c 6b 18 be 7d ba 10 3b 20 82 20 3e
       -0.14107955 -0.14884752 0.0022083812 0.15674639
000110 3e f5 ac bb ac 81 1c be a7 06 4d be 0b 00 ba bc
       -0.0052782586 -0.15283841 -0.20022069 -0.022705099
000120 a9 f4 6b 3d 44 52 08 be b8 64 aa bc 3d 9f 21 be
       0.057606373 -0.13312632 -0.02079998 -0.15783401
000130 08 59 45 3d 7e ff 97 bd b8 42 57 bd 83 4e 43 be
       0.04818061 -0.07421778 -0.052553862 -0.19072919
000140 c8 ae ba bd e5 b3 fd 3c 82 26 c2 3d 0a 91 20 3e
       -0.09115368 0.03096957 0.09480001 0.15680328
000150 20 8c db bd ba d1 86 3d 32 4b 45 bc 17 ed c4 3d
       -0.10720086 0.06582971 -0.012041854 0.09615534
000160 cf bd d9 bd 2d 6d 3a 3d 8d 4a 3a 3d 0c ad ed 3d
       -0.10631906 0.045514274 0.045481253 0.11605272
000170 ec 71 9b bd 08 a6 aa 3d 3c 42 ac bc 0d 94 ff 3c
       -0.07590088 0.08332449 -0.021027677 0.031198526
000180 e0 4e 04 be d7 ba 0c be 9b c1 0d be b3 22 01 be
       -0.12920713 -0.13743149 -0.13843386 -0.12610893
000190 bf 86 a9 bd 92 61 d7 3c bb 9a 9c bd 92 e9 ce bd
       -0.08277654 0.026291642 -0.076467 -0.10103144
0001a0 01 1f f3 3a f4 fa d8 bc 14 68 c1 3d 4b 27 25 be
       0.0018548669 -0.026486851 0.094436795 -0.1612827
0001b0 c5 33 8d bd f4 d5 02 be 80 5b fb bb 4e 55 62 bc
       -0.0689464 -0.12776929 -0.0076708198 -0.013814284
0001c0 23 7c 9b 3b 78 af 40 3e 6c ad 81 bd 5a e5 9f bc
       0.004745023 0.18816936 -0.06331906 -0.019518543
0001d0 4c a0 49 3d b5 25 0b 3e a0 9f 07 3e 6b 00 b8 bb
       0.049225137 0.13588603 0.13244486 -0.005615284
0001e0 1b 26 6a bd fe be 28 3d 8b 2f c3 3d 2e b9 3e bc
       -0.057165246 0.04119777 0.095305525 -0.01164083
0001f0 b0 ac e8 3d c3 f1 09 3e 92 55 bc bd 73 8e 37 bd
       0.113610625 0.13471131 -0.09196009 -0.044813585
000200 ff 12 46 be 83 11 9f 3d 36 5e 2b 3e 35 00 74 bd
       -0.19343184 0.07767012 0.16735157 -0.05957051
000210 4c ca 9b bc cf 72 20 3d 37 ed 72 3c 08 19 ce 3d
       -0.019017361 0.03917199 0.014827064 0.10063368
000220 b7 9c 15 3d 59 bb ff bd 9c 6f e6 bd f0 98 35 be
       0.036526408 -0.124869056 -0.112517565 -0.17734122
000230 01 49 e9 bb 8c 26 b9 3d 24 a0 3d 3c dc de 49 3e
       -0.0071192984 0.09040555 0.011573825 0.1971392
000240 14 bf 2f 3b f4 d9 c2 3b ef fe ac 3d f3 7d 89 3c
       0.0026816772 0.005946392 0.08447062 0.01678369
000250 77 c5 5a bd 02 f1 1f 3e 92 c7 0c be 74 32 9b 3d
       -0.053410973 0.15619281 -0.13748005 0.075779825
000260 ba 17 0c 3e dc 6f b7 bd a6 9e 29 be 6d 1a bf 3b
       0.13680926 -0.08956882 -0.16564426 0.0058320076
000270 ab 54 49 bd 64 36 05 be df fd 06 3d 36 05 cf bd
       -0.04915301 -0.1300903 0.032956954 -0.10108416
000280 83 66 e2 3d 29 3e 3b bd ab 27 d9 bd 0e 46 13 3e
       0.11054709 -0.045713577 -0.10603269 0.14382192
000290 9e 65 2a 3c fb fc bb bc 1a 0b eb bd 2f 81 14 3e
       0.010400204 -0.022947779 -0.11476727 0.14502405
0002a0 01 33 15 bd 0e 18 00 3e 8c d7 a2 bc ef 7a 98 3d
       -0.036425594 0.12509176 -0.019878171 0.07445323
0002b0 1e 92 03 3e c3 fc f0 bd 81 5d 23 be cd c1 15 be
       0.12848708 -0.117669605 -0.15953638 -0.1462471
0002c0 18 70 81 3d 49 e1 04 3e 78 29 90 bd 06 0d d7 bd
       0.06320208 0.12976564 -0.070391595 -0.10500531
0002d0 80 f6 ae ba cd e3 97 3d a2 f9 8b bc bc e2 a7 bd
       -0.0013348609 0.074164964 -0.017086808 -0.08197543
0002e0 7d 01 1d be be 85 ff 3d cf ba 1f be 4f 30 36 be
       -0.15332599 0.12476681 -0.15598606 -0.17791866
0002f0 16 73 e3 bd 52 85 84 3c 9a b2 a2 3c cc 26 48 3d
       -0.11105935 0.016176853 0.019860554 0.048865125
000300 ea 26 71 bd bc bf ae bd 66 45 7a bd af 85 09 be
       -0.058875002 -0.08532664 -0.06110134 -0.13429902
000310 a5 79 37 be 1f 3d 64 3d 2d 9a 04 bd 6d 11 4a be
       -0.17917497 0.055722352 -0.032373596 -0.1973321
000320 fa 40 c4 bd cf 9b ef bd ca b4 c0 bd d4 04 ef bd
       -0.09582706 -0.1169964 -0.09409483 -0.11670843
000330 a2 18 a5 bd 9d 66 05 3d 42 ef 13 be 92 5c 01 bd
       -0.08061339 0.032568563 -0.14446738 -0.031582423
000340 9c 07 39 bd 84 54 b7 bd 99 39 07 bd f7 b5 c3 bd
       -0.045173272 -0.08951667 -0.033013914 -0.095561914
000350 7e 7b 5d 3d ec 3f 1c be 69 5a 45 3c d5 51 16 3e
       0.05407285 -0.1525876 0.012045481 0.14679654
000360 d9 21 2a 3e f8 fe ec bd d8 5b 3b 3d 25 87 37 be
       0.16614474 -0.11572069 0.045741886 -0.17922647
000370 32 54 2d 3e e7 26 0d be de 7c 2c be 2e d0 31 be
       0.16926649 -0.13784371 -0.16844508 -0.1736457
000380 d2 c4 43 be 8c 92 ce 3b c1 86 d2 bd d9 75 7f 3c
       -0.1911805 0.006304091 -0.102796085 0.015592062
000390 06 ed db bc b5 1a e0 bc 33 4c eb bd f4 5b 14 be
       -0.02684642 -0.027356485 -0.11489143 -0.14488202
0003a0 45 b5 0b be 2b 5b dd 3d 00 29 f4 bd 62 a9 6b bd
       -0.13643368 0.108084045 -0.11921883 -0.057534583
0003b0 da 52 9c 3d ce e7 64 bc 93 d3 e0 bd 34 fb 14 be
       0.0763299 -0.013971282 -0.109778546 -0.14548951
0003c0 c1 fc 10 be 2e d2 47 3d 5a 62 55 bd ab 36 d6 3d
       -0.14158918 0.048784427 -0.05209575 0.10459646
0003d0 cf 7d f0 bc c0 f7 4a bd a5 03 22 be 8d c2 2c 3c
       -0.029356865 -0.04955268 -0.15821703 0.010544431
0003e0 ab 5a 70 bd e2 30 96 bd 81 e9 ca bd fa 04 55 3b
       -0.058680218 -0.073335424 -0.099078186 0.0032504187
0003f0 8e ce 1e be e8 89 fd bb 03 e0 d2 3d ec 03 ad bc
       -0.15508482 -0.007737387 0.10296633 -0.021120034

emb_net.v_lins1.3.bias f4 [32]
000000 47 cb 13 be ff a9 de 3c 40 10 f3 3d 54 bf 0d bd
       -0.14433013 0.02718067 0.11868334 -0.034606293
000010 c7 51 9b 3c d4 dc cb 3c 40 8c 1e 3c 5f b3 63 3d
       0.018959893 0.024885572 0.009676993 0.055590983
000020 45 59 28 be 29 4c 0a 3e a5 41 b8 3d 91 c8 8f 3c
       -0.16440304 0.13505615 0.08996896 0.017551692
000030 08 48 c1 3c b0 3a 08 be 39 d1 3a bd b9 c2 7c bc
       0.023593917 -0.13303638 -0.045609687 -0.015427285
000040 ec 23 55 3d 91 ac bb bd b5 9c 9d 3c ea 34 86 bd
       0.05203621 -0.09163774 0.019239763 -0.06553061
000050 ac 17 fc 3d 15 6a 18 be a6 d1 4e 3c bc 55 03 3e
       0.123092026 -0.14884217 0.012623226 0.12825674
000060 a9 64 fc bd 1d 27 99 bc 1c 85 8c 3d 59 4a 87 3d
       -0.12323887 -0.018695408 0.06861326 0.066059776
000070 a2 78 96 3c 5a 77 9a 3d 42 1f 00 be d6 c4 10 3e
       0.01836807 0.07542296 -0.12511924 0.14137587

emb_net.v_lins1.4.weight f4 [32, 32]
000000 45 d2 01 bc 6a fc a8 3d a1 0d fc 3c 98 0b 11 bc
       -0.007923667 0.08251269 0.030768218 -0.008852862
000010 84 bb c6 3d 92 eb 30 3e 4e 00 e5 3d c2 8b 01 be
       0.097037345 0.17277363 0.11181699 -0.1265097
000020 5e d4 89 3c c5 a9 e3 bd 13 6b 94 3d 85 ba 8d 3d
       0.016824897 -0.11116365 0.07246985 0.069203414
000030 6f cc f3 bd f6 5a 3d bd 0c 7c b4 3d 05 8c ef 3d
       -0.11904227 -0.046229325 0.088127226 0.116966285
000040 fb 8a 00 be e6 7a 01 3e c2 27 2f bd 24 d9 e4 bd
       -0.12553017 0.12644538 -0.042762525 -0.11174229
000050 61 bd 82 3c 2f e7 c4 3d 7a c1 ad 3d ba 5f f7 bd
       0.015959444 0.09614407 0.08484168 -0.12078805
000060 2c 68 de bd 76 82 ac bd 0f e1 98 3d d2 6f d6 bd
       -0.10859713 -0.08423321 0.074648015 -0.10470547
000070 a4 8c 03 3c e0 9f 58 bd cf 3f 3b 3d 9c b3 ba bc
       0.008029137 -0.052886844 0.04571515 -0.022790723
000080 87 ca d0 bd 59 05 6f bc 3e 5c 0b 3e 93 bf bd 3b
       -0.10194879 -0.014588677 0.13609406 0.0057906597
000090 09 5c 07 be f2 03 05 bd ab 43 33 be 89 c1 0e be
       -0.13218702 -0.032474466 -0.17506282 -0.13941015
0000a0 04 81 db bc 79 2d fe bd d5 f8 17 3e a2 20 43 3c
       -0.026794918 -0.12411017 0.14841016 0.011909636
0000b0 c5 93 e4 3d 8b c1 85 bd 46 54 64 bd 3f 98 23 3d
       0.11160997 -0.06531056 -0.055744432 0.039940115
0000c0 22 a4 52 bd ba ee 79 bd 0a a0 3b be 3a b6 e3 3d
       -0.05142606 -0.061018683 -0.18322769 0.11118741
0000d0 ec f1 04 3e df 0f 4d be 67 84 ac bd 06 2f 1a be
       0.12982911 -0.20025586 -0.08423691 -0.15057
0000e0 35 53 8f bd 14 a7 d5 3d 05 75 b5 3d 5b 78 c6 bc
       -0.06998292 0.10432258 0.0886021 -0.024227312
0000f0 81 4a 9e 3d 9a 13 34 3d 6f b0 4f 3d 31 07 17 be
       0.07729054 0.043964006 0.05070537 -0.14748837
000100 18 45 80 bc 56 9c 32 be f2 a5 d9 bd a6 76 dc bd
       -0.015657946 -0.1744245 -0.10627355 -0.10764818
000110 57 3c 9c bd 55 20 3b be 12 41 7b 3d 9d ed 5a bc
       -0.076286964 -0.18274052 0.061341353 -0.0133623155
000120 68 28 5d bd 99 72 b2 3c 84 a6 29 3e 5c 74 24 bd
       -0.053993613 0.02178316 0.16567427 -0.04015003
000130 1a 81 16 be 03 b7 61 be 69 3a c2 bd 90 56 07 be
       -0.14697686 -0.2204247 -0.09483797 -0.13216615
000140 57 e4 61 bd fe 41 dc bd 05 11 71 3d 13 c3 9e 3c
       -0.055149402 -0.107547745 0.05885412 0.019380128
000150 91 cb 3e 3e 87 b7 0d 3e 4f 93 c9 bd 4b d2 c6 bd
       0.18632342 0.13839541 -0.0984255 -0.09708079
000160 2a 4b fe 3c 4c 9a 25 be 86 92 86 3d 2f 3b e4 bd
       0.0310417 -0.16172141 0.06570916 -0.11144101
000170 a6 6e c3 bd 68 dc 10 be 0f 56 1b be 83 da b9 3d
       -0.09542589 -0.14146578 -0.15169547 0.09074881
000180 02 42 06 3e fd f8 13 3e 8e 9d 80 bd 5c 5d 33 be
       0.13111117 0.1445045 -0.06280051 -0.17516083
000190 f1 4a cf bd 82 57 0b be 9e 1c 08 bd 79 27 31 be
       -0.10121716 -0.136076 -0.033230416 -0.17300214
0001a0 de 90 ea 3d 55 f7 1a be 45 12 a1 bd 33 f8 ca 3d
       0.114534125 -0.15133412 -0.07864813 0.099106215
0001b0 de e3 32 be b9 e5 f1 3c 98 40 f6 3d f8 81 38 3e
       -0.17469737 0.029528486 0.12024039 0.18018329
0001c0 fc 9b a2 3d 25 e8 3e bd 78 35 bb 3d 2e c0 32 bd
       0.07939908 -0.04660811 0.09141058 -0.043640308
0001d0 6f eb ff bc 8c 00 4e bc 7f 8f e1 bb 92 96 ab 3d
       -0.031240193 -0.012573373 -0.006883561 0.083783284
0001e0 cb f5 eb 3d 2c 61 5a 3d 26 1a a6 3c ba 4f 2e bc
       0.11521491 0.053315327 0.02027614 -0.0106391255
0001f0 7c b3 88 3d af 00 f3 3c f2 97 39 be 41 c3 05 3d
       0.06674859 0.029663412 -0.18124369 0.03265691
000200 2b f4 a8 bd 33 2b dc bd 84 0e e0 3d 76 28 8c 3b
       -0.08249696 -0.10750427 0.10940269 0.0042772843
000210 4a e9 f4 bc c4 3a de bd 15 d8 c8 3d a9 fe 07 3e
       -0.029896397 -0.108510524 0.098068394 0.13280739
000220 b1 77 74 3d 8c 69 81 3d fe ea d1 bd b2 46 08 3e
       0.05968446 0.063189596 -0.10249899 0.13308218
000230 22 af ae 3c 82 f5 31 3d 67 ad c4 3d 2b 88 4a bd
       0.021323744 0.043447025 0.09603386 -0.049446266
000240 54 2d 34 bd 5f 4f 26 3e 5d 1c dc 3d bf 52 2c be
       -0.04398854 0.16241215 0.10747597 -0.1682844
000250 33 88 2e 3e e4 84 29 3e 28 17 10 bd cd 4d 2f be
       0.17044143 0.165546 -0.035178334 -0.17119522
000260 40 d1 e2 3c d9 f0 c6 bc cd 43 42 3e 78 70 2b be
       0.027687669 -0.024284767 0.18971176 -0.16742122
000270 3b f4 7c 3d 74 aa 28 3c 7c 4c 4a 3b a1 1c 14 3e
       0.061756354 0.010294545 0.0030868342 0.14464046
000280 6a c2 12 bc 91 df 04 be 36 d9 58 bd 80 55 dc bd
       -0.008957485 -0.12975909 -0.052941523 -0.10758495
000290 a1 72 f2 3b 45 24 26 bd 4e 35 b6 bb 58 38 fc bd
       0.0073989187 -0.040561933 -0.0055605536 -0.12315434
0002a0 7d df 25 3d 53 04 65 be df fc e7 3d 3e f0 85 bc
       0.04049634 -0.22364931 0.11327528 -0.016349908
0002b0 39 5a d6 3d d7 e9 17 3e cf b7 9d 3c 80 ae 17 3e
       0.10466427 0.14835297 0.019252686 0.1481266
0002c0 bb 11 93 bd f7 61 7a 3d 8d d0 6e 3d e7 e3 89 bd
       -0.07181116 0.061128583 0.05830436 -0.06732922
0002d0 b0 ba 45 3d 69 76 91 bd 52 d6 da 3d 0c b8 b6 3d
       0.048273742 -0.07102663 0.106854096 0.08921823
0002e0 13 d0 b6 3d 66 49 1b be 3b 0c 06 3e fd e6 46 ba
       0.08926406 -0.15164718 0.13090603 -0.00075875205
0002f0 fd 3e 7c 3d 98 a5 25 bd d3 60 dd 3d 4f db 60 3e
       0.061583508 -0.040441126 0.108094834 0.2195866
000300 3a ee e1 bd 02 80 26 be 98 6b 11 3e b9 ce 4a bd
       -0.11031766 -0.16259769 0.142012 -0.049513552
000310 0c 5d ef bd f3 16 ef 3d 34 2a bf 3d 12 0b 8a 3b
       -0.11687669 0.11674299 0.093342215 0.0042127455
000320 16 51 b2 bb 93 c3 76 bd 48 6f 07 3e 27 51 b0 3d
       -0.005441795 -0.060245108 0.13226044 0.086092286
000330 ee f4 89 3d 32 f9 91 3d c2 f6 e8 bd 1b 5a 91 bb
       0.0673617 0.07127608 -0.1137519 -0.0044357902
000340 d2 23 28 be 51 5d 0d 3e 29 2b 3c be 4c be 42 be
       -0.16419914 0.13805129 -0.1837584 -0.19017905
000350 fb 75 3a be 40 17 a0 3d 09 46 20 bc 3f 75 7a bc
       -0.18209068 0.078169346 -0.009782323 -0.015286743
000360 46 ee 2a 3d de 4d c4 bd 4c fc 77 bd 76 1d 01 be
       0.04173114 -0.095851645 -0.060543343 -0.12608895
000370 65 14 0b bd 57 79 b7 bd 1f f8 11 bc 51 e0 ba 3d
       -0.033954997 -0.089586906 -0.008909254 0.09124816
000380 a6 29 b6 bd b5 44 83 3d 26 62 10 be d1 98 8c bd
       -0.088946626 0.06409589 -0.1409994 -0.06865085
000390 f6 39 d8 3b 36 cc 45 3d 53 d5 d4 3d 24 f4 14 3b
       0.0065987064 0.048290454 0.10392251 0.0022728527
0003a0 fb 42 b2 bd c6 46 8d bd 7e 82 f8 3c e2 a2 20 be
       -0.08704182 -0.068982646 0.030335661 -0.15687135
0003b0 72 34 eb bd c3 06 99 bd bf 67 9b bc 63 51 04 be
       -0.114846125 -0.07471993 -0.018970368 -0.12921672
0003c0 de 79 fd bd 20 f0 e5 3d c3 ea 2b 3e 38 6b 84 bd
       -0.1237676 0.11227441 0.16788773 -0.06465763
0003d0 11 23 4d be 5a 55 ae bd 4b 80 49 3d 10 12 31 3d
       -0.20032908 -0.08512373 0.049194615 0.043230116
0003e0 45 78 2a bd 74 3d 24 be 48 6a 40 bd ad 81 ab bb
       -0.041618604 -0.16039068 -0.046976358 -0.0052339644
0003f0 f3 43 a6 3d b0 6b 80 bd b2 e4 c3 3d 27 98 9d bb
       0.08118429 -0.0627054 0.095651045 -0.0048093977

emb_net.v_lins1.4.bias f4 [32]
000000 16 a4 60 3d 69 f0 45 bc 56 85 7c bd 33 41 2b 3b
       0.054843985 -0.012081244 -0.061650597 0.002613139
000010 d5 72 29 be 31 2a f6 bd e7 37 c1 3c 45 1d 2e 3e
       -0.16547711 -0.12019766 0.023586227 0.17003353
000020 1a f2 d4 bd 0e 95 e9 3d 00 5a 55 3c 43 c7 a0 bd
       -0.1039774 0.11405383 0.013021946 -0.07850506
000030 26 e8 44 bb 74 c2 ab 3d a4 35 ba 3c 45 c4 19 3e
       -0.0030045598 0.08386698 0.022730656 0.15016277
000040 33 ed 34 bd 8a 13 f9 bd 4f 63 1f 3e d9 a1 6b bd
       -0.044171523 -0.1216193 0.15565227 -0.057527397
000050 e7 5f e3 3d 2d c7 e5 3d 03 a6 ec 3c 4b cf 12 be
       0.11102276 0.112196304 0.028887754 -0.14336888
000060 ca 2a 2c be 15 74 af 3d 4e a0 47 3d 91 e6 c9 3d
       -0.16813198 0.08567063 0.048736863 0.0985843
000070 5f ee 17 be 68 57 14 bd 1b 7e 1d 3e f9 71 b9 3d
       -0.14837025 -0.03621617 0.15380137 0.09054942

emb_net.v_lins1.5.weight f4 [32, 32]
000000 11 39 eb 3d f3 63 03 3e a6 a6 83 bc 2f 40 b5 bd
       0.11485494 0.12831096 -0.016070675 -0.08850133
000010 94 d1 9c bd 48 b6 18 3d a1 20 04 bd a5 42 3e bd
       -0.07657161 0.037283212 -0.03225768 -0.046450276
000020 50 d8 6b 3d 91 4a ed 3d c6 56 12 3e 6f 96 d7 3d
       0.05757934 0.11586488 0.14290914 0.1052674
000030 94 5b 95 bc f6 f9 b9 3d 66 a5 39 bd ae 64 b8 bc
       -0.018232144 0.090808794 -0.045323752 -0.022508945
000040 76 7f 2b 3b e9 45 bc bd 79 6a d6 3d 2e 36 37 bd
       0.0026168502 -0.09193022 0.10469527 -0.044729404
000050 97 4c c8 3d 1d be a9 bc 8a ed 97 3a ba a6 87 bd
       0.09780233 -0.020720536 0.0011591178 -0.066235974
000060 34 4a c5 bc 76 b2 01 be 76 0a f6 bd f9 f8 d2 3d
       -0.024083234 -0.12665734 -0.12013714 0.10301394
000070 71 74 2f be 4f 57 03 3c ad 6f 98 3c 45 c9 f0 bd
       -0.17134263 0.008016421 0.018607939 -0.11757139
000080 cf d2 6d 3d 6c 0e 48 3d e1 b4 05 3e e9 0b af 3d
       0.05806237 0.04884188 0.13057281 0.085471936
000090 f7 eb 13 3e 61 45 1f 3c 3e 32 40 3d c4 0a d3 3d
       0.14445482 0.009721131 0.046922915 0.10304788
0000a0 a7 2e 2a be 42 39 fa bc 68 7a 0b be 52 f1 01 3e
       -0.16619359 -0.03054488 -0.13620913 0.12689713
0000b0 f5 48 de 3d a9 aa 9b bd 0d a0 39 bd 2c 09 22 3d
       0.10853759 -0.0760091 -0.045318652 0.03955953
0000c0 aa 02 43 be 94 6e 9d 3c 40 fa 19 3e 8f 80 12 3d
       -0.19043985 0.019217767 0.15036869 0.035767134
0000d0 84 a8 59 bd 05 ee f7 3d 39 4c a4 3d f5 7a 1d be
       -0.053139225 0.121059455 0.08022351 -0.15378936
0000e0 62 b6 c6 3d a0 a1 ed bd 11 c7 ff 3d e2 6d 32 3e
       0.097027555 -0.11603093 0.12489141 0.1742473
0000f0 68 55 4b bc fd 86 ef bc d5 44 b8 bd d8 67 e1 bd
       -0.012410499 -0.029239172 -0.08997504 -0.11006135
000100 e2 aa f1 bd 4e e6 35 bd 28 6d 1b 3e c8 81 9c bd
       -0.118001714 -0.04440909 0.15178359 -0.07641941
000110 17 df 80 3d 00 27 2a be 33 c0 2d 3e 96 86 e5 3d
       0.06292551 -0.1661644 0.1696785 0.11207311
000120 9f b8 0d be 5b 9f 9f bd 24 db 35 3d 53 41 0e be
       -0.13839959 -0.077940665 0.044398442 -0.13892107
000130 3a 98 18 be 0d 0c 85 3d c9 2b 40 3e e8 a5 80 bd
       -0.1490182 0.06496439 0.18766703 -0.06281644
000140 1d df 8e 3d 4c 21 23 be 4d 92 3a be 0a aa 25 3e
       0.06976149 -0.1593067 -0.18219872 0.16178146
000150 f7 8c 0b 3e 77 f5 64 bc c3 6d cd bd 86 98 8d ba
       0.13627993 -0.013974539 -0.10030701 -0.0010802902
000160 ee 8f 91 3d 3e 06 2d be f4 bf e9 bd a9 21 ec bd
       0.071075305 -0.16896912 -0.11413565 -0.11529858
000170 6a 8b 14 bd c2 83 55 3c 8c 46 06 3e cf b3 39 3d
       -0.036265768 0.013031902 0.13112849 0.045337494
000180 22 04 98 be 41 74 59 3e e2 88 12 3e 13 b1 19 3b
       -0.29690653 0.21235754 0.14310029 0.0023451492
000190 b7 b8 bf 3d c9 d0 ea 3c 6f 03 36 3e 10 5f 17 be
       0.093614034 0.02866401 0.17774747 -0.14782357
0001a0 1d d9 da bd d2 ec 2b bd b0 be bd bc be d4 c9 bd
       -0.10685942 -0.041973896 -0.023162216 -0.098550305
0001b0 f9 0c 25 be b2 85 e9 bd 33 3b d5 bc e6 b7 11 3e
       -0.1611823 -0.114024535 -0.026029205 0.14230308
0001c0 82 72 bb 3d f6 39 8b 3d 0c 31 f8 bd aa 0a a1 bd
       0.091527 0.067981645 -0.1211873 -0.07863362
0001d0 6f 75 d5 3c 39 c8 1b be ba e0 2c bd 57 9a 9b 3c
       0.026056973 -0.15213098 -0.042206503 0.018994493
0001e0 ce 35 19 3e 7f 49 00 bd 87 d4 27 3e 77 91 a9 bb
       0.14961931 -0.03132009 0.16389666 -0.0051748115
0001f0 e6 cb ef bd 31 cc 19 3e 57 44 1e 3e 52 4d 13 be
       -0.117088124 0.15019299 0.15455757 -0.14384964
000200 54 d6 18 be cb 1a f9 3c 7c 03 da bd 31 2a 56 3d
       -0.1492551 0.030408284 -0.10645196 0.05228633
000210 9a 4a 35 be 02 8a 8b bd 4d 39 32 bd 38 1a e6 3d
       -0.1770424 -0.06813432 -0.043511678 0.112354696
000220 d1 f2 9e bd eb 40 7a bd 08 77 33 3e c4 4a 02 be
       -0.07761157 -0.061097067 0.17525876 -0.12723833
000230 c0 f4 cb bc 4d 52 e7 bd 25 02 72 be 52 6b 17 bc
       -0.02489698 -0.112949945 -0.2363363 -0.009241896
000240 c8 d3 e2 3c ce a5 c7 3d 6b d5 46 be 03 b4 b4 bd
       0.027688876 0.097484216 -0.1941735 -0.08823397
000250 da 74 f3 3c d0 f3 42 3d 16 c9 56 3d d2 d8 1a be
       0.029718805 0.0475958 0.052437864 -0.15121773
000260 bb b6 9f bd 6e 67 08 ba c9 f6 39 be c2 a2 dd 3c
       -0.07798525 -0.00052034005 -0.18160547 0.027055148
000270 b6 7b 27 be 53 cc 7e 3d c6 87 05 3d 85 83 02 bb
       -0.16355786 0.062206578 0.032600187 -0.0019914818
000280 59 15 06 3e fa b7 33 3e 62 0b 06 3e 08 dc 9b 3d
       0.13094081 0.1755065 0.1309028 0.07610327
000290 5b a5 0a be 81 11 80 3c a2 4a ef 3d 51 35 b1 3c
       -0.1353964 0.015633347 0.11684157 0.021631869
0002a0 76 9c e2 3d 38 ed bf bd 63 46 da 3d fa 3a 3e bd
       0.11064999 -0.09371418 0.106579565 -0.046442963
0002b0 39 ce 35 be 92 91 12 be f6 9a 11 3e 44 bb 8a bd
       -0.17754449 -0.14313343 0.14219269 -0.06773999
0002c0 1e af 8f bc 82 a4 7d bd a4 86 e6 bd 07 1f 6a 3b
       -0.017539557 -0.061924465 -0.112561494 0.003572406
0002d0 da 16 bc 3d e2 2b a7 bc ba f7 5e bd 26 87 2d bd
       0.09184046 -0.020406667 -0.05443547 -0.042365216
0002e0 3d b1 ec bd 23 8d 14 be 4f 69 27 3c 1e d4 f3 bd
       -0.11557243 -0.14506964 0.010217979 -0.119056925
0002f0 4c 87 9c 3d 43 6d 4c 3d 30 03 1e bd 1f 13 8c bc
       0.07642993 0.049908888 -0.03857726 -0.017098961
000300 09 6d 0f 3e ab 77 f2 3d cb 90 ff 3d e1 46 bd 3d
       0.14006437 0.11839231 0.12478789 0.09242035
000310 48 6a 98 bd d7 26 b3 3d 83 6c e3 bd 86 62 9c 3d
       -0.074421465 0.087476425 -0.11104681 0.07635979
000320 e6 d0 13 be 6c 76 b1 3b c5 e6 98 3d 37 f1 bb 3d
       -0.14435157 0.0054157283 0.07465891 0.091768675
000330 3a 77 f7 3d 83 7f 36 3d d3 58 97 3d 17 cb 2f 3d
       0.120832875 0.0445552 0.07389989 0.04291829
000340 26 23 18 3e f8 9d 94 3d 46 5f 73 3d ff 37 86 bd
       0.14857158 0.07256693 0.05941703 -0.06553649
000350 d6 04 7c bd 7e c7 8e 3c f3 1b c1 3d e3 6b ad bd
       -0.06152805 0.01742911 0.09429159 -0.084678434
000360 11 62 67 3d fb ca 16 3e 2c e3 b3 3d 52 2d 1c be
       0.056490008 0.14725868 0.08783564 -0.15251663
000370 3e 8d 56 3d f1 4b d9 3d 1d b8 03 be 85 30 d9 3d
       0.052380793 0.10610188 -0.12863202 0.106049575
000380 8f 18 14 be 69 f4 d6 bd f2 25 66 bd 0f e0 02 be
       -0.14462493 -0.10495836 -0.05618853 -0.12780784
000390 87 9c ff bd 55 06 09 3c e8 74 d0 3d 60 f9 81 b9
       -0.12481027 0.008363326 0.10178548 -0.00024790596
0003a0 15 95 44 3e a0 12 e6 bd 8a 92 ab bd 54 47 cb bd
       0.19197495 -0.11234021 -0.083775595 -0.09925714
0003b0 af 43 e1 bd cb 02 11 be e8 5f 3b 3d dc cb c6 bd
       -0.10999238 -0.14161222 0.04574576 -0.09706852
0003c0 73 ae 08 be ff 30 9e 3d 6d 2f 30 be aa 99 8a bd
       -0.13347797 0.07724189 -0.17205591 -0.0676759
0003d0 86 b4 c7 bd 5e 8b 26 3d e5 12 1e 3d 38 af 27 be
       -0.09751229 0.040660255 0.038592238 -0.16375434
0003e0 72 e1 6d 3d 81 86 1a be 50 fd 6d 3d 29 83 c7 3d
       0.05807633 -0.15090372 0.058102906 0.09741814
0003f0 d8 1a f1 bd cf 69 14 3d bb e2 af 3d b7 67 3e 3e
       -0.11772698 0.03623372 0.08588167 0.18594252

emb_net.v_lins1.5.bias f4 [32]
000000 cb 97 1a 3d 72 dd 84 bd 7a 9d 87 bd 5d fe f1 3c
       0.037742417 -0.0648755 -0.06621833 0.029540235
000010 3f 76 0c 3d 78 e1 18 3e 8f a1 2d 3e cf c4 d9 3b
       0.034292456 0.1492976 0.16956161 0.006645776
000020 83 b6 29 3e a6 05 dc bd 9c 24 a2 ba ed f0 14 be
       0.16573529 -0.10743265 -0.001237053 -0.14545031
000030 04 d9 ac 3d b9 d2 fd 3c 97 3f de bd 51 8a 06 be
       0.0843983 0.03098427 -0.108519726 -0.13138701
000040 a6 3e dd bc b7 ad 77 bd 8b 2e 8f bd 9c cd 23 be
       -0.027007412 -0.0604684 -0.06991299 -0.15996403
000050 23 8f e5 bd 9b c8 21 3e ed df ca bd 03 c8 92 3d
       -0.11208942 0.15799181 -0.09905992 0.071670555
000060 9b 57 11 3c 3b 52 c1 bc 74 cd 7c 3d a2 f1 11 3e
       0.008870984 -0.02359878 0.061719373 0.14252332
000070 12 14 65 3d 30 cf 9f 3c 58 a8 0d 3e 08 7c 54 3c
       0.055927344 0.019507974 0.1383375 0.0129690245
