pretrained/cvrp_nls/1000/cvrp1000_sd0_fromckpt-500_cvrp500_sd0_50/20.pt (torch, 348709 bytes, 229 tensors)

emb_net.v_lin0.weight f4 [32, 1]
0	0xbc762865	-0.015024279
1	0x3f071d39	0.52778965
2	0xbf58cc3f	-0.84686655
3	0xbf3ce16b	-0.7378146
4	0xbec3f5b2	-0.38273388
5	0x3e80999e	0.251172
6	0xbced6dd5	-0.028983036
7	0x3f4c393b	0.79774827
8	0xbda03158	-0.078219116
9	0x3e8f3a27	0.27974054
10	0xbe953b56	-0.29146832
11	0xbe58ff35	-0.21191104
12	0xbf712a58	-0.94205236
13	0xbf2928fd	-0.6607817
14	0xbed48e25	-0.41514698
15	0x3d147a64	0.036249533
16	0x3ebfd4c8	0.37467027
17	0x3f1c17ef	0.6097402
18	0xbf294f6e	-0.66136825
19	0xbee52dc0	-0.44761467
20	0x3eb98ba2	0.36239344
21	0x3f53b9dd	0.8270548
22	0xbe3f9074	-0.18707448
23	0x3f3f37e3	0.7469465
24	0xbe1c79b1	-0.15280797
25	0x3df589f4	0.11989203
26	0x3f64fd5b	0.8944909
27	0xbf6a4478	-0.91510725
28	0xbf261631	-0.6487761
29	0xbe8343f6	-0.25637788
30	0xbeca592f	-0.39521167
31	0x3f619675	0.88120204

emb_net.v_lin0.bias f4 [32]
0	0xbf2b8faa	-0.6701609
1	0xbeec30f9	-0.46131113
2	0xbf2a221a	-0.66458285
3	0xbf6fba44	-0.93643594
4	0xbf142f0a	-0.57884276
5	0x3f5e9818	0.86950827
6	0x3ef2450c	0.47318304
7	0x3f01693a	0.5055119
8	0x3d415b0d	0.047205973
9	0xbefcaf88	-0.4935267
10	0x3e2335db	0.15938513
11	0xbf6a9771	-0.9163733
12	0xbf38835b	-0.7207543
13	0xbf002d64	-0.5006926
14	0x3f236a0b	0.63833684
15	0x3f17e779	0.59337574
16	0xbeebffda	-0.46093637
17	0xbca0037d	-0.019532913
18	0x3f1f140a	0.6213995
19	0x3f7ba858	0.9830375
20	0x3ec990d0	0.39368296
21	0x3e100671	0.14064957
22	0x3f2fc045	0.68652755
23	0xbf148485	-0.5801471
24	0x3e45c7bc	0.19314474
25	0xbf408c32	-0.7521392
26	0xbf33374c	-0.7000625
27	0xbf05f153	-0.52321357
28	0x3ef443a9	0.4770787
29	0x3ed41391	0.41421178
30	0xbf14e1a7	-0.5815682
31	0x3ea4f22b	0.3221601

emb_net.v_lins1.0.weight f4 [32, 32]
0	0x3dd93042	0.106049076
1	0xbcfcb7b6	-0.030849319
2	0x3c50cfbf	0.012744843
3	0x3d3aecfd	0.045636166
4	0x3deecdd5	0.11660353
5	0x3e251dfd	0.16124721
6	0xbe00f413	-0.12593107
7	0xbd9535ec	-0.072856754
8	0x3d9da147	0.07696777
9	0x3e0c9636	0.13729176
10	0x3e24b608	0.16085064
11	0x3e269718	0.16268575
12	0x3d25c6db	0.040472846
13	0xbe15cb57	-0.14628349
14	0x3cc4553e	0.023966428
15	0xbdefad9a	-0.11703034
16	0xbe306a74	-0.17228109
17	0x3e178542	0.14796928
18	0x3e10d202	0.14142612
19	0xbe2be73b	-0.16787426
20	0x3ccc1997	0.024914546
21	0xbd1ba263	-0.03799666
22	0xbcad9636	-0.02118979
23	0xbdb67ac6	-0.08910136
24	0x3d9aadaa	0.07552655
25	0xbde690f3	-0.112581156
26	0x3d672207	0.056428935
27	0x3dc2f892	0.09520067
28	0x3e08d766	0.13363418
29	0x3d969ce6	0.07354145
30	0xbe2ae88a	-0.16690269
31	0xbdfb4a42	-0.12270023
32	0x3db48250	0.08813918
33	0x3d0d1c88	0.034451038
34	0xbe10dc75	-0.14146598
35	0xbddeb244	-0.10873845
36	0x3e28c781	0.16482355
37	0x3df07b00	0.117422104
38	0xbd9ca731	-0.07649077
39	0xbd3c6259	-0.04599223
40	0xbe2aab3a	-0.1666688
41	0xbb9df1a0	-0.0048200637
42	0xbe074dd1	-0.13213278
43	0xbe0c0599	-0.1367401
44	0xbc76dd40	-0.015067399
45	0x3cc90d91	0.024542602
46	0xbd92ceb5	-0.071683325
47	0x3dd22e70	0.102627635
48	0xbddfb212	-0.10922636
49	0x3e219017	0.15777622
50	0x3df77380	0.12082577
51	0xbe176912	-0.14786175
52	0xbd393559	-0.045216892
53	0x3bbd5813	0.0057783215
54	0x3cd7e02a	0.026352007
55	0x3d1dcd12	0.03852565
56	0x3d8eba9b	0.06969186
57	0x3c1606a4	0.009156857
58	0xbdb83c57	-0.08995884
59	0x3da3f7c0	0.08006239
60	0xbe2cf44e	-0.1689007
61	0xbdd47f82	-0.10375883
62	0xbd381f3d	-0.044951666
63	0xbdb3a659	-0.08771963
64	0xbd7a01fe	-0.061037056
65	0xbe1aba35	-0.15110095
66	0xbd44f251	-0.048082653
67	0x3cc56c4f	0.024099497
68	0xbdf546ff	-0.11976432
69	0xbc297b91	-0.010344402
70	0x3e0282af	0.12745164
71	0xbcb3aded	-0.02193352
72	0x3ba84249	0.005134855
73	0xbc9cd5d7	-0.019144936
74	0x3d099c6c	0.03359644
75	0x3ddb195a	0.10698195
76	0x3e1e7b09	0.15476622
77	0x3dd5d250	0.104405046
78	0x3e294be4	0.16532856
79	0xbc629767	-0.013830042
80	0xbe2724d6	-0.16322646
81	0xbdb560f9	-0.08856387
82	0x3defcb88	0.117087424
83	0xbad68e3d	-0.0016369295
84	0xbdb7e564	-0.089793
85	0xbe0feb77	-0.14054666
86	0xbe28c290	-0.1648047
87	0xbe222a6a	-0.15836492
88	0xbd130770	-0.035895765
89	0x3dc0fd70	0.09423339
90	0x3da6583d	0.08122299
91	0xbe37d84c	-0.17953604
92	0x3dda6c2b	0.10665163
93	0xbe0dc7c6	-0.13845739
94	0xbd2e4378	-0.042544812
95	0xbd9c7b75	-0.07640735
96	0xbd35c181	-0.044373993
97	0xbcfdf14a	-0.030998845
98	0xbe4152e9	-0.18879284
99	0xbe4927a6	-0.19644031
100	0xbd324ea3	-0.043532025
101	0x3c2ecac0	0.010668457
102	0xbdb7545b	-0.089516364
103	0x3d94080e	0.07228099
104	0xbe2c2f33	-0.1681488
105	0xbbc5a6bd	-0.0060318396
106	0x3e131575	0.14363654
107	0xbdb3630d	-0.08759127
108	0x3dfa7a83	0.122303985
109	0x3d2fbc1f	0.042904016
110	0xbe2dee9c	-0.16985554
111	0x3df69e3d	0.120419
112	0xbc7d133d	-0.015446481
113	0xbd96aad1	-0.073567994
114	0x3e03a9fb	0.12857811
115	0xbe1c4e50	-0.15264249
116	0x3cd759dd	0.026287967
117	0xbd04c875	-0.032417733
118	0x3ded5f6e	0.115904674
119	0x3d4c6249	0.04989842
120	0x3d98774b	0.07444628
121	0x3d8d588a	0.06901653
122	0xbd337713	-0.04381473
123	0xbd839b1c	-0.06426069
124	0xbe2190f5	-0.15777953
125	0x3dae34a2	0.08506133
126	0x3dfd1826	0.123581216
127	0x3e0089dd	0.1255259
128	0xbdf25f25	-0.11834554
129	0xbb7a9b65	-0.0038239595
130	0xbe13ae71	-0.14422013
131	0xbe07ea74	-0.1327303
132	0xbdd5cf9e	-0.104399905
133	0x3d5b6031	0.053558532
134	0xbdcc1bbe	-0.09966229
135	0xbc5515ac	-0.013005655
136	0x3c4d1e8d	0.012519491
137	0x3dd56368	0.10419351
138	0xbe04c56f	-0.1296594
139	0xbdfa71ae	-0.12228714
140	0xbe04cebf	-0.12969492
141	0x3dec73ae	0.11545502
142	0xbd73e499	-0.05954418
143	0x3e119a11	0.14218928
144	0x3d5acd86	0.05341866
145	0x3c458c7b	0.012057419
146	0x3a827de5	0.0009955732
147	0xbcf8d541	-0.030375125
148	0x3c6cef3e	0.014461337
149	0xbd508e6d	-0.050917078
150	0x3b68d3c0	0.0035526603
151	0x3c03c8cb	0.008043478
152	0xbe085886	-0.13315019
153	0xbdcd4d9f	-0.10024571
154	0x3e009ea6	0.1256052
155	0xbe229f66	-0.15881118
156	0xbc313983	-0.0108169345
157	0x3e36b927	0.17844068
158	0x3d7bdb94	0.061488703
159	0xbbab01c2	-0.0052187154
160	0xbe1dfca1	-0.15428402
161	0x3db6194f	0.08891546
162	0xbe04b0c1	-0.12958051
163	0xbd61a554	-0.05508931
164	0xbd7ea37f	-0.06216764
165	0xbcc32f0e	-0.023826148
166	0xb957cde6	-0.00020580701
167	0x3e16be4b	0.14721029
168	0x3ca14941	0.01968825
169	0x3e2373ff	0.15962218
170	0x3dd76664	0.10517576
171	0xbdea38ce	-0.11436616
172	0x3d984346	0.074347064
173	0xbe02f7b8	-0.1278981
174	0xbd9e007c	-0.07714936
175	0x3d5b00a5	0.05346741
176	0x3d75738f	0.05992466
177	0x3e092079	0.13391294
178	0xbd732247	-0.05935886
179	0xbb0d096a	-0.0021520504
180	0x3dbe004b	0.092774
181	0xbe2c88e7	-0.16849099
182	0x3dff8545	0.12476591
183	0xbe12cef5	-0.1433676
184	0xb89555a6	-7.120827e-05
185	0xbce4640d	-0.02787974
186	0xbdba2a25	-0.0909007
187	0x3c9ecc1c	0.019384436
188	0x3e1251ba	0.14288989
189	0xbd5c9a9d	-0.05385839
190	0xbddc64ed	-0.107614376
191	0xbd818a76	-0.063252375
192	0xbe495db5	-0.19664653
193	0x3dc267ae	0.094924316
194	0xbdb8ab37	-0.09017032
195	0xbde78607	-0.113048606
196	0xbdfca5ba	-0.12336297
197	0x3df1f504	0.11814311
198	0x3d985758	0.074385345
199	0x3e1b1b28	0.15147078
200	0x3d3e9940	0.04653287
201	0xbd2cff11	-0.042235438
202	0xbd8a8cb3	-0.067651175
203	0x3cf0b894	0.029384889
204	0x3e14b8d2	0.14523628
205	0x3cf65ff7	0.030075056
206	0xbdd0c908	-0.10194594
207	0xbd89b10c	-0.06723222
208	0xbe1a96c8	-0.15096581
209	0x3d5d195e	0.05397927
210	0xbdf1ac57	-0.11800449
211	0xbe338223	-0.17530112
212	0x3e2f24e1	0.17103912
213	0xbdca473a	-0.09876867
214	0xbd1ab3c5	-0.037769098
215	0x3d85165a	0.06498404
216	0xbc484bb3	-0.012225079
217	0xbdcfec8a	-0.10152538
218	0xbe039b0d	-0.12852116
219	0x3e061f74	0.13097936
220	0x3c14300f	0.009044661
221	0x3e02e6fc	0.12783426
222	0xbda5ed8f	-0.08101951
223	0x3d8afad1	0.06786121
224	0xbd13d0ef	-0.036087926
225	0xbc426ec6	-0.011867231
226	0xbddd2fae	-0.1080011
227	0x3d68f1c3	0.056871187
228	0x3d6915a2	0.056905396
229	0xbbc5c412	-0.0060353363
230	0xbd14e789	-0.03635362
231	0xbde4fd15	-0.11181084
232	0x3dfd3db7	0.12365287
233	0xbe09c8fc	-0.13455576
234	0x3d976162	0.07391621
235	0xbd6c9fb4	-0.057769492
236	0xbdb18b5b	-0.08669158
237	0x3d02e8d1	0.031960312
238	0xbdb70821	-0.08937097
239	0x3d1da724	0.038489476
240	0x3cfeaa90	0.03108719
241	0xbe09adf1	-0.1344526
242	0x3cfd9648	0.030955449
243	0x3d9df7f2	0.077133074
244	0x3d8902b0	0.06689966
245	0xbcd356cf	-0.02579823
246	0xbe11bf7f	-0.14233206
247	0xbd038b69	-0.032115374
248	0x3d811ca1	0.06304289
249	0xbd8a210d	-0.06744585
250	0x3d79e324	0.061007634
251	0x3deeac7e	0.11653994
252	0xbdb8e72f	-0.0902847
253	0x3b70c9ff	0.0036741493
254	0x3d978c65	0.07399825
255	0x3c264f7a	0.010150785

emb_net.v_lins1.0.bias f4 [32]
0	0xbc1ff6fc	-0.0097634755
1	0xbdbb2810	-0.09138501
2	0xbda3d5bd	-0.07999752
3	0x3e123dc8	0.1428138
4	0xbdaf0e32	-0.085476294
5	0x3de95ed1	0.11395038
6	0xbd0c76f1	-0.03429312
7	0xbcb24d69	-0.021765428
8	0x382e5b5c	4.1569918e-05
9	0xbe2188ae	-0.15774795
10	0x3aac08fd	0.0013125237
11	0x3b11e95a	0.0022264333
12	0xbcbaa395	-0.02278308
13	0xbd59c5c7	-0.05316713
14	0x3e0189fb	0.12650292
15	0x3e188bf1	0.14897133
16	0xbddf34ff	-0.1089878
17	0x3d909d8a	0.07061298
18	0xbdf82c8e	-0.12117873
19	0xbe0de7a4	-0.13857895
20	0x3d0639dc	0.032770023
21	0xbc52c841	-0.012865127
22	0xbdcd8d0a	-0.10036667
23	0xbe2a6696	-0.16640696
24	0xbdb3209c	-0.08746454
25	0x3d8df14d	0.0693079
26	0xbe1bafc4	-0.15203768
27	0xbe39b77e	-0.18136403
28	0x3cc24f3e	0.023719426
29	0xbdecf1b6	-0.1156954
30	0xbe11bba1	-0.14231731
31	0xbdae5766	-0.08512764

emb_net.v_lins1.1.weight f4 [32, 32]
0	0xbcd5e742	-0.026111249
1	0xbe24610b	-0.16052644
2	0xbdec9ce1	-0.1155336
3	0x3c06481e	0.008195905
4	0xbe2b8586	-0.16750154
5	0xbcaee2be	-0.021348353
6	0xbded37a2	-0.11582877
7	0xbdf1f68d	-0.11814604
8	0x3d860019	0.065429874
9	0xbe083349	-0.13300814
10	0xbe0fadc7	-0.14031135
11	0x3dc08368	0.09400064
12	0x3d0726cc	0.032995984
13	0x3e27812e	0.16357872
14	0xbd38e2de	-0.045138232
15	0xbdb67085	-0.0890818
16	0xbc823966	-0.01589651
17	0x39368ae2	0.0001740861
18	0x3e056413	0.13026457
19	0xbe370697	-0.17873608
20	0xbc1e04e6	-0.009644723
21	0x3d9d2b26	0.076742455
22	0xbdcd1a2c	-0.100147575
23	0xbdb36d5d	-0.08761094
24	0x3dae2a35	0.08504144
25	0xbe2c9c7f	-0.16856574
26	0x3d3e3996	0.046441637
27	0xbe0ced3b	-0.13762371
28	0x3db2cd10	0.08730519
29	0xbe1d93f9	-0.15388478
30	0x3dd622f8	0.104558885
31	0xbe31d5aa	-0.17366663
32	0xbe1bec90	-0.1522696
33	0xbb2fabee	-0.002680536
34	0x3e08c445	0.13356121
35	0xbe239000	-0.159729
36	0xbdad2fa4	-0.08456352
37	0x3e18b18e	0.14911482
38	0xbd16c413	-0.036808085
39	0x3d952bf9	0.07283778
40	0xbe341587	-0.17586337
41	0xbd69681c	-0.056984052
42	0xbdccd711	-0.10001958
43	0x3e0f7798	0.14010465
44	0x3d859e76	0.06524365
45	0xbe001a9d	-0.12510152
46	0x3cc852b1	0.024453493
47	0xbc3ce91a	-0.011530185
48	0xbd96cbd3	-0.07363095
49	0xbdbfd8fd	-0.09367559
50	0xbd84cf2b	-0.06484827
51	0x3e09e2cd	0.13465424
52	0xbdf6eed9	-0.12057275
53	0xbe082d4a	-0.13298526
54	0xbd850f24	-0.064970285
55	0x3a01fa31	0.0004958241
56	0x3d36a55e	0.0445913
57	0x3b3f742e	0.0029213536
58	0xbd3c1a39	-0.045923445
59	0xbdec6564	-0.11542776
60	0xbd0c1110	-0.03419596
61	0xbd9b0f80	-0.07571316
62	0x3e09b933	0.13449554
63	0xbe326330	-0.1742065
64	0xbe0bdc69	-0.13658299
65	0xbe1581d8	-0.14600313
66	0xbd84725d	-0.064671256
67	0x3e12cb8a	0.14335456
68	0x3e1f121c	0.15534252
69	0xbe19ac3f	-0.15007113
70	0xbbbcac9f	-0.0057578827
71	0x3da82e07	0.08211904
72	0x3d94e72d	0.07270656
73	0x3df1baf1	0.11803234
74	0xbd0683f9	-0.032840703
75	0xbde3e192	-0.111270085
76	0x3deeb13c	0.116548985
77	0xbd8f297b	-0.06990334
78	0x3d78b311	0.060717646
79	0xbd177d4a	-0.03698472
80	0x3d54dba7	0.05196729
81	0x3e279b27	0.1636778
82	0x3e299ded	0.1656415
83	0xbe27ba38	-0.1637963
84	0xbe1c79ae	-0.15280792
85	0xbd917e6e	-0.07104193
86	0xbdeb0ecc	-0.11477432
87	0x3e0f3831	0.13986279
88	0xbd23a528	-0.039952427
89	0xbe137e86	-0.14403734
90	0xbdd5433a	-0.10413213
91	0xbdc149ea	-0.09437926
92	0x3d3e9d72	0.04653687
93	0xbe3385fc	-0.1753158
94	0xbe239886	-0.15976152
95	0xbe48902a	-0.19586244
96	0x3d889e8b	0.06670865
97	0x3d96687e	0.07344149
98	0xbe0e26e1	-0.13882019
99	0x3c0b1999	0.00848999
100	0x3ddf1ed8	0.10894555
101	0x3b511881	0.0031905475
102	0xbd8a65eb	-0.067577206
103	0xbc05e599	-0.008172416
104	0xbd2e62b8	-0.042574614
105	0x3da0b8be	0.07847737
106	0xbe03a70f	-0.12856697
107	0x3d55c010	0.05218512
108	0x3d9092b8	0.070592344
109	0xbdc8a5cd	-0.09797249
110	0x3decc019	0.11560077
111	0x3e09e83e	0.134675
112	0xbd9d71a2	-0.07687689
113	0xbd8987d4	-0.0671536
114	0x3d815add	0.06316159
115	0xbe1c125b	-0.15241377
116	0x3d52b8e6	0.051445864
117	0x3c0b4bba	0.008501941
118	0x3dc5bd62	0.096552625
119	0xbe3dd58e	-0.18538496
120	0xbe25ec0e	-0.16203329
121	0x3d46a966	0.048501395
122	0x3d5261f2	0.05136294
123	0xbe4b2385	-0.19837768
124	0xbe04261c	-0.12905163
125	0xbe33e4e6	-0.17567787
126	0xbe1c2054	-0.15246707
127	0xbdd1b7f4	-0.102401644
128	0x3e1fb160	0.15595007
129	0xbd586af2	-0.052836366
130	0x3dff97b6	0.124801084
131	0x3e147958	0.14499414
132	0x3d769d7b	0.06020878
133	0xbe354a1d	-0.17704053
134	0x3d8b5005	0.06802372
135	0x3d90cd6e	0.070704326
136	0x3df531e7	0.11972409
137	0xbe2118f4	-0.15732175
138	0x3e04f72b	0.12984912
139	0x3dfb81f5	0.12280647
140	0xbe3c9826	-0.18417415
141	0x3c9389e0	0.01801008
142	0x3e30ea4d	0.17276879
143	0xbe1accef	-0.15117238
144	0x3da12f36	0.07870333
145	0x3d8851f2	0.06656255
146	0x3cd5db09	0.02610542
147	0x3e209875	0.15683158
148	0x3e2c65da	0.16835728
149	0x3e053699	0.13009109
150	0xbc9678ef	-0.018368213
151	0x3e285e26	0.16442165
152	0xbe16c8bb	-0.1472501
153	0xbd91d08e	-0.07119857
154	0xbcdaa0f0	-0.02668807
155	0xbd9afc45	-0.07567648
156	0x3e39d4a9	0.1814753
157	0x3dd52cc5	0.1040893
158	0x3dbd7ce2	0.09252335
159	0x3e136db8	0.14397323
160	0xbe05b841	-0.13058569
161	0xbd2aa004	-0.04165651
162	0x3cda409c	0.026642136
163	0x3cb73f05	0.022368917
164	0x3d854d0e	0.06508838
165	0xbda18f95	-0.07888714
166	0xbd947953	-0.07249703
167	0x3e138a31	0.14408185
168	0xbd825ed0	-0.0636574
169	0xbdf8a3f4	-0.121406466
170	0x3deeeafc	0.116659135
171	0x3dce8cd5	0.10085455
172	0xbd9eca6e	-0.07753454
173	0xbd1efa48	-0.038812906
174	0xbe02d3cc	-0.12776107
175	0xbe2c745a	-0.1684126
176	0x3d82c677	0.063855104
177	0xbdae6853	-0.08515992
178	0x3df397b0	0.118941665
179	0xbe25e0c7	-0.16199027
180	0xbc4b4639	-0.012406879
181	0xbc760bfb	-0.015017505
182	0x3dbae64d	0.09125958
183	0x3e13407e	0.1438007
184	0x3df37011	0.11886609
185	0x3da4fb50	0.080557466
186	0xbda56f29	-0.08077843
187	0xbe12f0f2	-0.14349726
188	0xbe1c09ec	-0.1523816
189	0x3be7eb7a	0.0070776315
190	0x3e1833c9	0.14863504
191	0xbd0cdf78	-0.034392804
192	0xb96bfba3	-0.00022505088
193	0xbde31b85	-0.11089233
194	0x3d41ebc8	0.047344
195	0x3dec46c7	0.11536937
196	0xbe28e18e	-0.16492292
197	0xbdebde84	-0.11517051
198	0x3e0cb32b	0.13740222
199	0x3d829c74	0.06377497
200	0x3b70b48b	0.0036728706
201	0x3d1a8a69	0.037729654
202	0xbd508fe2	-0.050918467
203	0xbdf34914	-0.11879173
204	0xbe1f66bf	-0.15566538
205	0x3e0ed825	0.1394964
206	0xbca2189e	-0.019787129
207	0xbd7ca7a6	-0.06168332
208	0xbd4ba0a9	-0.049713764
209	0xbdb99df3	-0.090633295
210	0xbd3acd0d	-0.045605708
211	0xbe0dbcf3	-0.1384161
212	0x3de914fc	0.113809556
213	0x3da19dd1	0.07891429
214	0xbd4f6418	-0.050632566
215	0xbd337bc2	-0.043819197
216	0x3daf514b	0.08560427
217	0xbdade420	-0.08490777
218	0x3d78dce3	0.06075753
219	0x3d5b6c76	0.053570233
220	0xbdde0a29	-0.10841782
221	0x3cd3283c	0.025776021
222	0x3c6c21e9	0.014412382
223	0x3e076737	0.13222967
224	0xbd399365	-0.045306582
225	0xbd73ea16	-0.059549414
226	0x3e2e636b	0.17030112
227	0xbe1eddc3	-0.15514283
228	0x3a34fa4b	0.00069037516
229	0x3e21a390	0.1578505
230	0xbdb54198	-0.08850402
231	0x3e2fb171	0.17157532
232	0x3e17829a	0.14795914
233	0x3e340faf	0.17584108
234	0xbb426484	-0.0029661963
235	0x3e17ee28	0.14836943
236	0xbdb4ed48	-0.0883432
237	0xbd75b570	-0.059987485
238	0x3daabe31	0.083370574
239	0x3cd63162	0.026146594
240	0x3dd75b30	0.105154395
241	0x3e3271d3	0.17426233
242	0xbdf33e42	-0.11877109
243	0x3daf1b4d	0.08550129
244	0x3d9817f0	0.07426441
245	0x3da6d4c8	0.081460536
246	0x3d98298f	0.07429802
247	0xbd58d669	-0.052938852
248	0xbdf95961	-0.12175251
249	0x3e1d9478	0.15388668
250	0xbdac5e22	-0.08416392
251	0x3dd19ed8	0.10235375
252	0xbe1a4c14	-0.15068084
253	0xbc66f41a	-0.014096284
254	0xbc08aad2	-0.008341508
255	0x3d1b5a79	0.03792808

emb_net.v_lins1.1.bias f4 [32]
0	0xbdc3c082	-0.09558202
1	0xbc48388a	-0.012220511
2	0x3d07e05f	0.03317296
3	0xbd4ebccc	-0.05047302
4	0xbe2efc47	-0.17088424
5	0x3a59f564	0.0008314459
6	0x3e155731	0.14584042
7	0x3dd7e97a	0.10542579
8	0x3da42584	0.08014968
9	0x3cd708ca	0.026249308
10	0x3d2b3756	0.04180082
11	0xbe048c82	-0.12944224
12	0x3d78f04b	0.060776036
13	0xbe297324	-0.16547829
14	0xbd7bea0b	-0.061502498
15	0xbd5e4dc7	-0.054273393
16	0x3dffb832	0.12486304
17	0xbc1cb617	-0.009564898
18	0xbd92c91c	-0.07167265
19	0x3cc6e855	0.024280706
20	0xbe1374a4	-0.14399964
21	0xbd2f4720	-0.04279244
22	0x3d55288f	0.052040633
23	0x3b618f4a	0.0034417682
24	0xbca6fd8d	-0.020384574
25	0x3dda8870	0.10670555
26	0xbe0a48fc	-0.13504404
27	0xbd8ca4a1	-0.06867338
28	0x3e2d3742	0.1691561
29	0x3c971c9f	0.018446265
30	0xbbee522f	-0.0072729806
31	0x3dc5010b	0.096193396

emb_net.v_lins1.2.weight f4 [32, 32]
0	0x3dc408fd	0.09572027
1	0x3b8d176f	0.004305772
2	0xbd86c1dd	-0.06579945
3	0x3aaa4989	0.0012991886
4	0x3d9f8d54	0.07790628
5	0xbd62a683	-0.05533458
6	0x3de1c79b	0.110244
7	0xbe29d80e	-0.16586325
8	0xbd6f64a8	-0.058445603
9	0x3e157c85	0.14598282
10	0x3cfa0c51	0.030523451
11	0x3d1f34e8	0.038868815
12	0x3d605687	0.05477002
13	0xbda3fc3c	-0.08007094
14	0xbd4bd66d	-0.04976504
15	0x3d5fd813	0.054649424
16	0xbcf74044	-0.030182011
17	0xbd365e65	-0.044523615
18	0x3d56f43c	0.052479014
19	0x3d52ebcc	0.051494405
20	0x3c4e6c64	0.0125990845
21	0xbde9e72d	-0.114210464
22	0xbd7291cd	-0.059221078
23	0xbdbe3904	-0.092882186
24	0x3dc80d17	0.09768122
25	0xbe154298	-0.14576185
26	0x3dff6ae3	0.12471559
27	0x3dca27ff	0.0987091
28	0xbe01eef5	-0.12688811
29	0x3e070b21	0.13187839
30	0xbe0d7381	-0.13813592
31	0xbd1b9ecc	-0.037993237
32	0xbdd92ca5	-0.106042184
33	0xbdfa59ef	-0.12224185
34	0x3c20313f	0.009777366
35	0xbd732092	-0.059357233
36	0x3def376b	0.11680492
37	0xbe2e1127	-0.1699873
38	0x3dfff7b0	0.124984145
39	0x3dc30170	0.095217586
40	0x3e47f229	0.1952597
41	0x3c87611d	0.0165258
42	0xbe00b1d1	-0.12567832
43	0xbe058910	-0.13040566
44	0x3e01f240	0.12690067
45	0xbdfa0892	-0.12208666
46	0xbd192eff	-0.037398335
47	0xbd54d197	-0.051957693
48	0x3ce1a09f	0.02754241
49	0xbe020e31	-0.12700726
50	0x3e4e18ab	0.20126598
51	0xbe1252fb	-0.14289467
52	0x3e4d74d1	0.20064093
53	0xbda620b5	-0.08111707
54	0xbde246af	-0.11048638
55	0xbd24f67b	-0.040274125
56	0x3cd30a68	0.025761798
57	0xbd70679a	-0.058692552
58	0xbe4c107a	-0.1992816
59	0x3e1cd3ce	0.15315172
60	0x3e0b62cc	0.13611907
61	0x3d68e827	0.056862023
62	0x3e1d1466	0.15339813
63	0x3cbbd924	0.02293069
64	0x39ea5419	0.00044694616
65	0xbe0bd49c	-0.13655323
66	0xbe17c0a0	-0.14819574
67	0xbe0379ab	-0.12839381
68	0xbd52a47c	-0.051426396
69	0x3dc484ee	0.09595667
70	0xbdb31612	-0.08744444
71	0xbc391b17	-0.011297963
72	0xbca0a209	-0.019608514
73	0xbdfe20f4	-0.12408629
74	0xbce660a8	-0.028122261
75	0x3e21c426	0.15797481
76	0x3e1e2507	0.15443812
77	0x3df68f41	0.12039042
78	0xbc9da7ac	-0.019244991
79	0xbbae0afd	-0.0053113685
80	0x3d98e6ef	0.07465922
81	0xbda675d2	-0.08127941
82	0xbdae11df	-0.084995024
83	0x3e04d349	0.12971224
84	0x3c00f9f9	0.007872098
85	0xbe0d34d6	-0.13789687
86	0x3e20de3c	0.15709776
87	0xbba7f6ac	-0.005125841
88	0x3da1c7f5	0.07899467
89	0xbe1202d2	-0.14258888
90	0x3d5db58b	0.05412821
91	0x3dbce645	0.09223608
92	0xbd969375	-0.07352344
93	0xbde4d077	-0.11172574
94	0x3e39762f	0.1811149
95	0x3d93f391	0.07224191
96	0x3d5826ef	0.052771505
97	0x3ca6ce81	0.02036214
98	0xbbc741e1	-0.0060808514
99	0x3dafb811	0.0858003
100	0xbd1dd7f5	-0.03853603
101	0xbda8a19f	-0.08233952
102	0x3d9d3bad	0.07677398
103	0x3d4a617f	0.049409386
104	0x3d538b4e	0.051646523
105	0xbcac1d61	-0.021010103
106	0xbbabb171	-0.0052396585
107	0xbc8058c3	-0.015667325
108	0x3d0d90c7	0.0345619
109	0xbdf5ee7e	-0.120083794
110	0xbe244cbf	-0.16044901
111	0x3d915a68	0.07097322
112	0xbdc4e2bd	-0.096135594
113	0xbcb57a4b	-0.02215304
114	0x3d17af98	0.037032694
115	0x3d120e21	0.035658006
116	0x3db7791b	0.08958646
117	0x3c8d54a5	0.017252276
118	0x3d8ab443	0.067726634
119	0xbcea8750	-0.028628975
120	0x3d1b8f75	0.03797861
121	0x3d7f3843	0.062309515
122	0x3dde9c83	0.10869696
123	0xbe35496a	-0.17703786
124	0xbd9b7ff9	-0.07592768
125	0xbe3a1ec6	-0.18175802
126	0xbdbfcabd	-0.09364841
127	0x3df976da	0.12180872
128	0xbe482c4b	-0.19548146
129	0xbe377ba2	-0.17918256
130	0x3d9b258e	0.07575522
131	0xbe07839c	-0.13233799
132	0x3dc4e828	0.09614593
133	0x3d9c0cdf	0.076196425
134	0x3c8aa03e	0.016922113
135	0x3de458db	0.1114976
136	0xbe427fa3	-0.18994002
137	0x3dc0c25f	0.09412073
138	0x3cd9e4b4	0.026598312
139	0xbe1435a9	-0.14473595
140	0x3db21217	0.086948566
141	0xbd334a36	-0.043771945
142	0xbdd617a1	-0.104537256
143	0xbd430ea4	-0.047621384
144	0xbdea6572	-0.114451304
145	0x3e0a5810	0.13510156
146	0x3df3b43a	0.1189961
147	0xbd4dadb8	-0.0502145
148	0xbe38fb06	-0.18064508
149	0xbd169204	-0.036760345
150	0x3b76d684	0.0037664482
151	0x3dd2b92e	0.102892265
152	0xbca90ed7	-0.020636959
153	0x3d19b9a3	0.037530553
154	0x3d582825	0.05277266
155	0xbdfdd884	-0.12394813
156	0xbe039e4b	-0.12853353
157	0xbe2f5695	-0.17122872
158	0x3bbc5511	0.0057474454
159	0x3d0356d1	0.032065216
160	0xbccf466c	-0.025302134
161	0x3e1bab5a	0.15202084
162	0xbcd99031	-0.026558014
163	0xbe0babdb	-0.13639776
164	0x3b79bac6	0.003810571
165	0xbd38a702	-0.045081146
166	0xbd2f257e	-0.042760365
167	0x3e23c668	0.15993655
168	0xbca9404c	-0.020660542
169	0x3e059693	0.13045721
170	0x3c259f7d	0.010108826
171	0xbda86866	-0.082230374
172	0x3dfbf733	0.12303009
173	0xbde012e7	-0.10941105
174	0xbc676c3e	-0.014124928
175	0x3cd67f49	0.026183741
176	0x3d77f47f	0.060535904
177	0xbe383d31	-0.17992093
178	0xbc4764a0	-0.012169987
179	0xbd80ab3a	-0.06282659
180	0x3dc81654	0.09769884
181	0x3d346bfc	0.044048294
182	0x3df94c3e	0.12172745
183	0x3dced3db	0.10099002
184	0xbd5b5a03	-0.05355264
185	0xbc5f9174	-0.013645519
186	0x3e12c842	0.14334205
187	0xbe1e31e4	-0.1544872
188	0xbe0179d0	-0.12644124
189	0x3c905ff6	0.017623883
190	0xbd83d474	-0.064370066
191	0x3b157c9f	0.0022809876
192	0x3df01b59	0.11723966
193	0xbd32bad5	-0.04363521
194	0xbe388718	-0.18020284
195	0xbdd09a93	-0.10185733
196	0x3e15a3b4	0.14613229
197	0xbd3bf82a	-0.045890965
198	0xbdaf8e30	-0.08572042
199	0x3d771065	0.06031837
200	0x3bf0234c	0.0073284265
201	0xbe30f798	-0.1728195
202	0x3e1403ac	0.14454526
203	0x3db6e674	0.08930674
204	0x3e1be864	0.15225369
205	0x3da74a59	0.081684776
206	0xbd9bc232	-0.07605399
207	0xbd906264	-0.070500165
208	0x3d87cf60	0.066313505
209	0xbd0c4b05	-0.03425123
210	0x3c151668	0.00909958
211	0xbe390842	-0.18069556
212	0xbe0aec8c	-0.13566798
213	0x3d75e1ea	0.0600299
214	0xbc9e246f	-0.019304482
215	0xbda78cc2	-0.08181144
216	0xbe27c752	-0.16384628
217	0x3dde5d1c	0.10857603
218	0xbd7f68d8	-0.062355846
219	0xbe3cbaa0	-0.18430567
220	0x3e1f9476	0.15583977
221	0x3d89bd79	0.06725592
222	0xbe24c3af	-0.16090272
223	0xbe0a7414	-0.13520843
224	0x3de5d203	0.11221697
225	0x3c0ffb43	0.008787933
226	0xbe112682	-0.14174846
227	0x3deaccd3	0.11464848
228	0xbcea3344	-0.028588898
229	0xbc0a6a3c	-0.00844818
230	0xbdb94d5f	-0.090479605
231	0xbe47a54f	-0.19496654
232	0xbdbe6913	-0.09297385
233	0xbb176a5d	-0.002310417
234	0xbd9fdeb3	-0.078061484
235	0x3e23a77d	0.1598186
236	0xbca6e19b	-0.020371249
237	0xbdd29c35	-0.102837004
238	0x3d910aba	0.07082124
239	0xbe278a00	-0.16361237
240	0xbd73acde	-0.05949103
241	0x3db334f0	0.087503314
242	0xbde52602	-0.1118889
243	0x3dfff599	0.12498016
244	0x3c9f4cdf	0.019445835
245	0xbe20f806	-0.15719613
246	0xbe5311f5	-0.20612319
247	0x3d423339	0.04741213
248	0x3dbb395c	0.091418
249	0xbd9575f7	-0.07297891
250	0xbe400c72	-0.18754748
251	0xbd99adcd	-0.07503853
252	0x3d5978c2	0.05309368
253	0xbc2d9473	-0.010594475
254	0x3d1bbb5f	0.038020488
255	0xbc04f0ff	-0.008114099

emb_net.v_lins1.2.bias f4 [32]
0	0xbd77a04a	-0.060455598
1	0xbd86e45a	-0.06586523
2	0xbd4b2343	-0.049594175
3	0xbe1996f5	-0.14998992
4	0xbdfb4fe0	-0.12271094
5	0xbb9e0d78	-0.004823383
6	0xbc534833	-0.012895632
7	0xbe1e2841	-0.15445043
8	0x3d2bf35c	0.041980132
9	0x3dc08a66	0.094013974
10	0x3e12ccb0	0.14335895
11	0x3e1cadc7	0.15300666
12	0xbe0c41e7	-0.13697015
13	0xbd5ee183	-0.054414283
14	0xbdae424d	-0.085087396
15	0x3d030844	0.031990305
16	0x3d4ad70b	0.049521487
17	0x3d2cb14c	0.04216127
18	0x3dd5e6bc	0.104444
19	0x3db9ae8f	0.090664975
20	0xbdb623e4	-0.08893564
21	0x3dfa24a1	0.12214018
22	0x3de7f4a4	0.11325958
23	0x3cafc8b9	0.021458017
24	0xbe172ba5	-0.14762743
25	0xbdef2082	-0.11676122
26	0x3d4e02df	0.050295707
27	0x3d5ba9f7	0.053628888
28	0x3e2bb1e2	0.16767076
29	0x3db401b9	0.08789391
30	0x3d82ec53	0.063927315
31	0xbc33300d	-0.010936749

emb_net.v_lins1.3.weight f4 [32, 32]
0	0x3dd9073a	0.105970815
1	0xbcc37a10	-0.023861915
2	0x3d209de2	0.03921307
3	0xbd8cb0d3	-0.06869664
4	0xbc49d678	-0.0123192
5	0x3dabbb5b	0.083853446
6	0x3d7370d6	0.05943378
7	0xbd2de13f	-0.04245114
8	0x3d1b36bf	0.037894007
9	0xbe0dd7d8	-0.13851869
10	0x3d7b9f62	0.061431296
11	0x3dcf11ab	0.10110792
12	0x3d35d3b5	0.044391353
13	0xbe35c021	-0.17749073
14	0xbe0ea21b	-0.13929026
15	0x3dee4660	0.11634517
16	0xbd1009be	-0.03516554
17	0x3e1d3bf0	0.15354896
18	0x3e1038b5	0.14084132
19	0xbd5a7647	-0.053335454
20	0xbdafc115	-0.08581749
21	0xbe20ea67	-0.15714417
22	0x3d6b1868	0.057396322
23	0x3dca3ddb	0.09875079
24	0xbd0228ac	-0.03177707
25	0xbe550049	-0.2080089
26	0xbddc3f41	-0.10754252
27	0x3c2e9841	0.010656417
28	0x3e0153f9	0.1262969
29	0xbdab51f2	-0.08365239
30	0xbd99db1f	-0.07512497
31	0xbe03f535	-0.12886508
32	0x3e1de36c	0.15418786
33	0x3d53616d	0.051606584
34	0xbe0aba69	-0.13547672
35	0xbdf5cb40	-0.120016575
36	0xbe1966e6	-0.14980659
37	0x3d4a5624	0.049398556
38	0xbdab6af9	-0.08370013
39	0x3bea5f64	0.0071524847
40	0xbd3ab2c0	-0.045580626
41	0xbe0b43d3	-0.13600092
42	0xbe2740bd	-0.1633329
43	0xbe106f9e	-0.14105079
44	0xbd615b03	-0.055018436
45	0x3cd854a1	0.026407542
46	0xbd96fe52	-0.073727265
47	0xbc4c8ded	-0.01248501
48	0x3b6d9f12	0.0036258143
49	0x3e1b0761	0.15139534
50	0xbdc3571d	-0.095381
51	0x3e3542bc	0.17701238
52	0xbe00b2f5	-0.12568267
53	0xbe09e371	-0.13465668
54	0x3d643094	0.05571039
55	0xbde55f79	-0.111998506
56	0x3d9935d3	0.07480969
57	0xbd8d4e2c	-0.06899676
58	0x3e0e4031	0.13891675
59	0x3e2b6fcb	0.16741864
60	0x3b60068a	0.0034183585
61	0x3d09ad20	0.03361237
62	0x3e04b757	0.12960564
63	0x3da71f7f	0.08160304
64	0xbdfb1490	-0.12259781
65	0xbbc66b03	-0.0060552373
66	0xbe4109b7	-0.18851362
67	0x3df7908f	0.12088119
68	0xbd9317b7	-0.071822576
69	0xbd01f4d5	-0.03172763
70	0xbe173d48	-0.1476947
71	0xbde54e91	-0.11196626
72	0x3d8cac3b	0.06868788
73	0x3e016558	0.12636316
74	0xbe02dbe3	-0.12779193
75	0xbc97c638	-0.018527135
76	0x3e0bf11d	0.13666196
77	0x3e0863d3	0.1331933
78	0xbd61f4da	-0.05516515
79	0x3de08f37	0.10964816
80	0x3d93632d	0.07196651
81	0x3e2a6c12	0.16642788
82	0xbcfd1fa7	-0.030898882
83	0xbe3727a4	-0.17886215
84	0xbdddacb8	-0.10823959
85	0x3dc31b8a	0.09526737
86	0x3d83f6e0	0.06443572
87	0xbe323830	-0.17404246
88	0x3dd83813	0.1055757
89	0xbe278a8e	-0.16361448
90	0x3dde90aa	0.10867436
91	0x3e06a842	0.13150123
92	0x3c745b0d	0.014914286
93	0xbd492c7e	-0.049114697
94	0x3e217ccf	0.15770267
95	0xbdc46a95	-0.095906414
96	0xbe344997	-0.17606197
97	0xbe06bd8c	-0.13158244
98	0x3e004f07	0.12530147
99	0x3e087bd6	0.1332849
100	0x3c59b8fe	0.0132887345
101	0xbe2ae401	-0.16688539
102	0xbe1c2e96	-0.15252146
103	0xbd1ed0ec	-0.038773462
104	0x3d94224c	0.07233104
105	0xbdf3abd2	-0.118980065
106	0x3d83e872	0.0644082
107	0xbdcfe6a9	-0.10151417
108	0x3e14883f	0.14505099
109	0xbc7a45ba	-0.015275413
110	0xbd203ca7	-0.039120343
111	0xbe22d4e5	-0.15901525
112	0xbe20b55b	-0.15694182
113	0xbb3386ab	-0.00273935
114	0x3cbc4e50	0.022986561
115	0x3deb19ba	0.11479516
116	0xbe2422d8	-0.16028917
117	0x3cd317b7	0.025768144
118	0xbcfc6a9e	-0.030812558
119	0x3da7506e	0.081696376
120	0xbda47fb7	-0.08032172
121	0x3d783e65	0.06060638
122	0x3d66ec7b	0.05637787
123	0x3de13ea0	0.10998273
124	0xbd9947f1	-0.07484425
125	0x3ccbe713	0.024890458
126	0xbd27a0de	-0.0409249
127	0x3d86ca8f	0.06581604
128	0xbdb17607	-0.0866509
129	0xbe0fd28d	-0.14045162
130	0xbdfdc3ac	-0.12390837
131	0xbde7b797	-0.11314314
132	0xbddf74ba	-0.10910936
133	0x3d0f19c5	0.034936685
134	0xbd22d57c	-0.039754376
135	0xbde30772	-0.110854045
136	0xbc15564a	-0.009114811
137	0xbb9b8fab	-0.004747351
138	0x3dba31e7	0.09091549
139	0xbe12f8e3	-0.14352755
140	0xbcdb05b8	-0.026736125
141	0xbdfae681	-0.122509964
142	0x3b81dfdf	0.003963455
143	0xbc2745d7	-0.010209522
144	0x3d38734f	0.04503184
145	0x3e2f6c7c	0.17131227
146	0xbda589ab	-0.08082899
147	0xbd2b5a88	-0.041834384
148	0x3d19989c	0.037499055
149	0x3e45b6fd	0.19308086
150	0x3df70807	0.12062078
151	0x3b316e51	0.002707381
152	0xbde3cf7b	-0.11123558
153	0x3d93ff36	0.07226412
154	0x3debd082	0.11514379
155	0xbca04255	-0.01956288
156	0x3da867a0	0.0822289
157	0x3e0cd98f	0.13754867
158	0xbdc7a3b0	-0.09748018
159	0xbd5177cc	-0.051139638
160	0xbe20706d	-0.15667887
161	0x3d4fa7d4	0.050697163
162	0x3deaeccb	0.11470946
163	0xbd353c3a	-0.04424689
164	0x3c8ccaf9	0.017186629
165	0x3d340397	0.043948736
166	0xbc70afca	-0.014690349
167	0x3e02a32e	0.1275756
168	0x3d10ad59	0.035321567
169	0xbe33166d	-0.17489024
170	0xbe2599f0	-0.16172004
171	0xbe407eaa	-0.18798319
172	0xb9c6d757	-0.00037925944
173	0x3daa50ed	0.083162166
174	0xbccfbe1d	-0.025359208
175	0x3e1d3452	0.1535199
176	0xbc8426d7	-0.016131802
177	0x3d2f13af	0.04274338
178	0x3e202cd6	0.15642104
179	0x3db2a7e9	0.087234326
180	0x3c647bd0	0.013945535
181	0x3e2eefc4	0.17083651
182	0xbdd6ec4e	-0.1049429
183	0x3d4a46c9	0.049383912
184	0x3dc3b8a6	0.09556703
185	0xbde77ff3	-0.11303701
186	0xbe1cc361	-0.15308906
187	0x3d84e0a4	0.06488159
188	0xbd7f68e0	-0.062355876
189	0xbdda361a	-0.1065485
190	0x3ca0bf8a	0.019622583
191	0xbe185521	-0.14876224
192	0x3e22aa2d	0.1588523
193	0xb9a6f5c1	-0.00031845088
194	0xbd87adb7	-0.0662493
195	0x3df3ff29	0.11913902
196	0x3c55ec80	0.013056874
197	0x3bf53485	0.0074830675
198	0xbddb8bf6	-0.10720055
199	0x3dfbd2da	0.12296076
200	0xbd2bbd11	-0.041928355
201	0x3e55f5cf	0.2089455
202	0xbd4a67ed	-0.049415518
203	0x3d9d3f9f	0.076781504
204	0x3e069ab4	0.13144952
205	0xbdef1676	-0.11674206
206	0xbe08b36f	-0.13349698
207	0xbe3941de	-0.18091533
208	0x3ddf76f9	0.10911364
209	0x3e2e6ee7	0.17034493
210	0xbd7cb903	-0.06169988
211	0xbddeb9d5	-0.108752884
212	0x3cfb43d5	0.030671993
213	0x3dc40f43	0.095732234
214	0x3d10c858	0.035347313
215	0xbccc6162	-0.02494878
216	0xbe13ac9a	-0.14421311
217	0x3e035450	0.12825131
218	0xbe131327	-0.14362775
219	0xbe42bd9a	-0.1901764
220	0xbd687369	-0.05675069
221	0x3ccd89b5	0.025090078
222	0x3d8e7c71	0.06957329
223	0x3d3502db	0.044192176
224	0xbdff0277	-0.12451642
225	0xbdbd417e	-0.09241007
226	0xbdb7bb7d	-0.089713074
227	0xbdde026a	-0.10840304
228	0xbdeac982	-0.11464216
229	0x3d057ad8	0.032587856
230	0xbce1a2e3	-0.02754349
231	0xbe1bc359	-0.15211238
232	0xbdf821ad	-0.12115798
233	0xbda2efd3	-0.07955899
234	0xbcd4dc58	-0.025983974
235	0xbdd94312	-0.10608496
236	0xbda31f32	-0.079649344
237	0x3d1e3b15	0.038630564
238	0xbe011982	-0.12607387
239	0xbd0fe396	-0.035129152
240	0xbd47f470	-0.0488171
241	0xbddecc97	-0.10878866
242	0xbd6a95e5	-0.057271857
243	0xbd6033c7	-0.05473688
244	0x3c55978a	0.013036618
245	0xbe44aadd	-0.19205804
246	0x3d2906c6	0.041266225
247	0x3dc5deef	0.09661662
248	0x3df515c0	0.11967039
249	0xbd72d2b5	-0.059282977
250	0x3bc6f2fd	0.006071447
251	0xbe44abe1	-0.19206192
252	0x3e10d039	0.1414193
253	0xbe107363	-0.14106517
254	0xbe45bc56	-0.19310126
255	0xbe021bb0	-0.12705874

emb_net.v_lins1.3.bias f4 [32]
0	0x3e2a7424	0.16645867
1	0xbc148879	-0.009065741
2	0x3d8e9e58	0.069637954
3	0x3dae5044	0.08511403
4	0xbe0b0608	-0.1357652
5	0xbe148371	-0.14503266
6	0x3d7fde9e	0.062468164
7	0x3da4d10a	0.080476835
8	0xbda9bf40	-0.08288431
9	0x3cdc923f	0.026925204
10	0xbe30fd6f	-0.17284177
11	0x3aa1bbe0	0.0012339316
12	0x3d2c2e53	0.042036366
13	0x3a8c4251	0.0010700916
14	0xbd20d32d	-0.039263893
15	0x3d94941a	0.07254811
16	0xbd4c3a02	-0.049860008
17	0x3e09bf3f	0.13451861
18	0xbe1a8544	-0.150899
19	0xbdcab24a	-0.09897287
20	0xbe198ca0	-0.1499505
21	0xbe2824c4	-0.16420275
22	0x3e078df4	0.13237745
23	0xbd3110fd	-0.043229092
24	0xbe10ccb0	-0.14140582
25	0x3d0fe170	0.035127103
26	0xbe089455	-0.13337834
27	0x3b26b95c	0.0025440073
28	0x3dd53a6a	0.10411532
29	0xbd108f50	-0.035292923
30	0x3db1c8b9	0.08680863
31	0x3d17405d	0.036926616

emb_net.v_lins1.4.weight f4 [32, 32]
0	0xbdfe9352	-0.12430443
1	0x3d73bfa2	0.059508927
2	0x3d8d88c7	0.06910854
3	0xbd5b5ec6	-0.05355718
4	0xbbd0030d	-0.00634802
5	0xbaaa3db4	-0.001298836
6	0xbcaccab0	-0.021092743
7	0x3ca7d152	0.020485554
8	0xbe114c18	-0.14189184
9	0x3e1d8151	0.15381362
10	0x3d6c4e65	0.05769195
11	0xbc3f76da	-0.011686051
12	0x3d15508d	0.036453772
13	0xbe1beb28	-0.15226424
14	0xbd974772	-0.07386674
15	0xbc7159ca	-0.01473088
16	0x3d63f5f2	0.055654474
17	0xbd97d364	-0.074133664
18	0x3d20fa83	0.039301407
19	0xbda6712e	-0.08127056
20	0x3e19a185	0.15003021
21	0xbe1eaab1	-0.15494801
22	0x3bdd65f6	0.0067565395
23	0x3e042930	0.12906337
24	0xbe1053c2	-0.14094451
25	0xbd19f749	-0.037589345
26	0x3dbed815	0.09318558
27	0x3dc0b040	0.09408617
28	0x3d571491	0.052509848
29	0x3d9ca1b2	0.076480284
30	0xbdcc4d6b	-0.09975704
31	0x3e013218	0.12616765
32	0xbb6d5928	-0.0036216471
33	0x3e00c441	0.12574865
34	0x3d1398e1	0.03603447
35	0xbc79c302	-0.015244247
36	0x3d62cbac	0.055370018
37	0x3e292daa	0.16521326
38	0x3e1441c1	0.14478208
39	0xbe343e17	-0.1760181
40	0x3cc127c7	0.023578538
41	0xbde1551c	-0.110025615
42	0x3d976114	0.07391563
43	0x3da8f31b	0.08249494
44	0xbdeb69c6	-0.11494784
45	0xbcd42af0	-0.02589938
46	0x3d9e66fa	0.07734485
47	0x3dd19e25	0.10235242
48	0xbe05b548	-0.13057435
49	0x3e092121	0.13391544
50	0xbce78cec	-0.028265439
51	0xbe3065a6	-0.17226276
52	0x3cc89d3a	0.024489034
53	0x3db9f40e	0.09079753
54	0x3dcd386e	0.10020529
55	0xbde727e0	-0.112869024
56	0xbe03f6f4	-0.12887174
57	0xbe08405f	-0.13305806
58	0x3ddba6de	0.10725187
59	0xbe28891d	-0.16458555
60	0xbd41782a	-0.047233738
61	0xbd806dba	-0.06270929
62	0x3dc58cd7	0.09646004
63	0x3caf5681	0.021403553
64	0xbdeded22	-0.11617495
65	0x3c9eea7f	0.019398926
66	0x3df81be8	0.12114698
67	0x3ced2c70	0.028951854
68	0xbdd06f70	-0.10177505
69	0xbd4737a1	-0.048637036
70	0xbe1eb489	-0.15498556
71	0xbdffa528	-0.12482673
72	0xbcd2e3a7	-0.025743319
73	0xbd5ec463	-0.054386508
74	0x3e12730e	0.14301702
75	0x3c59cebe	0.01329392
76	0x3e04b39c	0.1295914
77	0xbdd9c4c9	-0.10633237
78	0xbd033129	-0.032029305
79	0xbc27efff	-0.010250091
80	0xbdc658ce	-0.09684907
81	0xbd7e8b20	-0.0621444
82	0xbe53531d	-0.20637174
83	0x3da20109	0.07910354
84	0x3df3cdac	0.11904463
85	0xbe545729	-0.20736374
86	0xbddff75f	-0.10935854
87	0xbe2997a9	-0.1656176
88	0xbde5901c	-0.11209127
89	0x3e149553	0.14510088
90	0x3d8b75d2	0.06809582
91	0xbd682b9c	-0.056682214
92	0x3d2ed387	0.042682197
93	0x3d553c6d	0.05205958
94	0x3dd2709e	0.10275386
95	0xbe1332f7	-0.1437491
96	0x3d01cc2a	0.031688847
97	0xbe580ce3	-0.21098666
98	0xbd856e28	-0.06515151
99	0xbde335c7	-0.110942416
100	0x3cce7f45	0.025207171
101	0xbe190fdc	-0.14947456
102	0x3ca9d63a	0.020732034
103	0x3d5fbd83	0.05462409
104	0xbdf75af5	-0.120778956
105	0x3d6019f3	0.054712247
106	0x3e2d3ba1	0.16917278
107	0xbbaffd46	-0.0053707687
108	0xbdb9a42f	-0.09064519
109	0xbe15aeb7	-0.1461743
110	0xbda68683	-0.08131125
111	0xbddbe348	-0.1073671
112	0xbdd0b549	-0.101908274
113	0xbd80eaf0	-0.06294811
114	0x3db2ae56	0.08724658
115	0x3da21e5b	0.07915946
116	0x3e19d5bb	0.15022938
117	0x3e1eb11f	0.15497254
118	0xbd777edc	-0.060423717
119	0xbdbcc23d	-0.092167355
120	0x3cd987db	0.026554039
121	0xbda81ac9	-0.08208234
122	0x3d4f32bc	0.050585493
123	0xbd3f903a	-0.046768405
124	0xbe0c0409	-0.13673414
125	0xbe12556e	-0.14290401
126	0xbe328f9b	-0.17437594
127	0x3ca631d5	0.020287434
128	0x3e183147	0.14862548
129	0x3dfb7a6f	0.12279212
130	0xbd8d8f15	-0.06912056
131	0xbe1c2f70	-0.15252471
132	0xbdd9db5a	-0.10637541
133	0xbe21f73c	-0.15816969
134	0xbd510338	-0.05102846
135	0xbe242b17	-0.16032062
136	0x3dc14b52	0.09438194
137	0xbe00fafb	-0.12595741
138	0xbdfd8975	-0.123797335
139	0x3de7dc20	0.113212824
140	0xbdef45b3	-0.11683216
141	0x3cb21ded	0.021742785
142	0x3e128f8e	0.14312574
143	0x3e146200	0.14490509
144	0x3d6be8e9	0.057595167
145	0xbd5101ae	-0.051026992
146	0x3d820c72	0.0635003
147	0xbcf3fb46	-0.029782902
148	0xbd43137f	-0.047626015
149	0x3c5e1374	0.013554443
150	0x3ba2ff99	0.0049743173
151	0x3e073901	0.13205339
152	0x3c8a9822	0.016918246
153	0x3dbc8604	0.09205249
154	0x3cd40bc2	0.025884513
155	0xbcc2d751	-0.023784311
156	0x3da9954a	0.08280428
157	0x3da5a522	0.08088137
158	0xbe2658d8	-0.16244829
159	0x3d292552	0.041295357
160	0xbd8bfe0c	-0.06835565
161	0xbdbb248c	-0.0913783
162	0x3d5a79a7	0.053338673
163	0x3cc533f1	0.02407262
164	0x3d1e2d2d	0.0386173
165	0xbdacc5b0	-0.084361434
166	0x3db10210	0.086429715
167	0x3e3a8177	0.1821345
168	0x3cbd5509	0.023111837
169	0x3da42e33	0.08016624
170	0xbe1e928f	-0.15485595
171	0x3df8c514	0.12146965
172	0x3da3ce55	0.07998339
173	0x3da6c2c5	0.08142618
174	0x3d87fffe	0.066406235
175	0xbd288e97	-0.04115161
176	0x3bd20c82	0.0064101825
177	0x3e38313c	0.17987531
178	0x3ded6b60	0.11592746
179	0xbddf534e	-0.10904561
180	0x3e144dfb	0.14482872
181	0x3e432d73	0.19060306
182	0x3cb8e679	0.022570835
183	0xbdf91687	-0.121625
184	0x3cd0fe1e	0.025511798
185	0xbd2d206b	-0.042267244
186	0x3e0c9ae8	0.13730967
187	0xbe2bbb30	-0.16770625
188	0x3ca0e981	0.019642593
189	0xbc72da24	-0.014822517
190	0x3c6bfc90	0.014403477
191	0x3e2e4c9e	0.17021415
192	0x3d03d3e7	0.032184508
193	0xbe2be85b	-0.16787855
194	0xbe2e5915	-0.1702617
195	0xbdd103f6	-0.102058336
196	0xbc1814e3	-0.0092823235
197	0x3d284dd4	0.041089848
198	0xbd7ba8d7	-0.061440315
199	0xbdb28ddb	-0.08718463
200	0x3dad6902	0.08467294
201	0xbe094106	-0.1340371
202	0x3d925f18	0.07147044
203	0xbd8cd106	-0.068758056
204	0x3d907f43	0.07055523
205	0x3d92daa7	0.07170611
206	0xbcb1ea16	-0.021718066
207	0x3dbee7a6	0.09321527
208	0xbdddb234	-0.10825005
209	0x3e0a00be	0.13476846
210	0x3dc34aab	0.09535726
211	0xbd889889	-0.06669719
212	0x3dd3b44e	0.10337125
213	0xbd426493	-0.047459196
214	0x3da11b2d	0.078665115
215	0x3cc23e75	0.023711422
216	0x3de700ae	0.112794265
217	0xbe39723f	-0.18109988
218	0x3e1c1661	0.15242912
219	0x3d7ca846	0.061683916
220	0x3d058e01	0.03260613
221	0x3cc20665	0.02368469
222	0x3e077bb2	0.1323078
223	0x3e19f04c	0.15033072
224	0xbd2a576c	-0.04158728
225	0xbe1daf00	-0.15398788
226	0x3df7ac9a	0.12093468
227	0xbd6689de	-0.056283824
228	0xbdb1fe44	-0.086910754
229	0x3d938c68	0.07204515
230	0x3d6dba5a	0.058039047
231	0x3bad0e7d	0.005281268
232	0xbc823ef3	-0.015899157
233	0xbc243a69	-0.010023692
234	0x3e41fb4a	0.18943515
235	0x3deba967	0.1150692
236	0x3d86a65f	0.065747015
237	0x3db039ac	0.0860475
238	0xbdb26417	-0.08710497
239	0xbc130e98	-0.008975647
240	0xbe338bf8	-0.17533863
241	0x3dc6c253	0.09705033
242	0xbe3f6d7e	-0.18694112
243	0xbe41b9c1	-0.18918516
244	0xbe2e8a7d	-0.17045017
245	0x3d548f6f	0.0518946
246	0x3cad61e0	0.021164834
247	0xbc5deea6	-0.013545668
248	0xbc759279	-0.014988535
249	0xbd7507d8	-0.059821934
250	0xbdc0d4e5	-0.094156064
251	0xbe1e6541	-0.15468313
252	0xbd4f7810	-0.05065161
253	0xbdc5123c	-0.096226186
254	0xbb98a6bd	-0.0046585486
255	0x3de74f3a	0.11294408

emb_net.v_lins1.4.bias f4 [32]
0	0xbe2b59a9	-0.16733421
1	0x3ccb5bb6	0.024824005
2	0xbd3d2e2a	-0.046186604
3	0xbdd0962b	-0.10184892
4	0x3d0a007f	0.03369188
5	0x3e0f5b13	0.13999586
6	0x3e158652	0.1460202
7	0x3dce0548	0.10059601
8	0xbe0fd95e	-0.14047763
9	0x3dce3091	0.10067857
10	0x3dac530e	0.08414279
11	0x3d6accfb	0.05732439
12	0xbd315132	-0.043290325
13	0xbb5c95b8	-0.0033658575
14	0xbdc53b53	-0.09630456
15	0xbd0b46fd	-0.034003247
16	0xbcf87819	-0.030330705
17	0xbcd222a4	-0.025651284
18	0xbe33829f	-0.17530297
19	0x3d808528	0.062753975
20	0xbe137570	-0.14400268
21	0xbe057c9e	-0.13035819
22	0x3d8ca67b	0.06867691
23	0xbe15aef8	-0.14617527
24	0x3e28a8e9	0.16470684
25	0x3e2bf4a3	0.1679254
26	0xbd661e0e	-0.056181006
27	0xbce85dc7	-0.028365029
28	0xbe08fc0c	-0.13377398
29	0x3bd379aa	0.0064537125
30	0x3d08ec38	0.0334284
31	0xbdccb962	-0.099962965

emb_net.v_lins1.5.weight f4 [32, 32]
0	0x3d3f287b	0.046669465
1	0x3b982396	0.004642914
2	0xbd91c044	-0.0711675
3	0xbd7f99f8	-0.062402695
4	0xbe32d702	-0.17464831
5	0xbdf4ed18	-0.119592845
6	0x3bd2c570	0.006432228
7	0x3e07ac13	0.13249235
8	0xbdb5e34f	-0.08881246
9	0x3df1d994	0.11809078
10	0xbd30dd42	-0.043179758
11	0xbdff3974	-0.1246213
12	0xbb768994	-0.0037618624
13	0x3dcbcf54	0.09951654
14	0xbc1e5753	-0.009664374
15	0x3e1ac698	0.1511482
16	0xbd7a8032	-0.061157413
17	0xbe096ef5	-0.13421233
18	0x3e2f04f8	0.17091739
19	0xbd9ca42b	-0.076485
20	0x3e1c2ae1	0.15250732
21	0x3e046686	0.12929735
22	0x3d1942ac	0.0374171
23	0xbe0cfb9f	-0.13767861
24	0xbe4461f4	-0.19177991
25	0x3d71c294	0.059023455
26	0x3cedd10c	0.029030345
27	0x3dce32ec	0.10068306
28	0xbe023e8f	-0.12719177
29	0xbc7f92b7	-0.015598944
30	0x3e196526	0.14979991
31	0x3d8e32f3	0.069433115
32	0x3decd4a6	0.11563997
33	0x3e0d5536	0.13802037
34	0xbd8fb166	-0.07016258
35	0xbe048cb5	-0.129443
36	0xbdd5772a	-0.10423119
37	0x3d627543	0.05528761
38	0xbda9265e	-0.08259271
39	0x3ca07c1e	0.019590434
40	0xbc36f2c1	-0.0111662755
41	0x3dd976dc	0.10618374
42	0x3da7271e	0.08161758
43	0x3da873b5	0.08225194
44	0x3b08e64a	0.0020889216
45	0x3db35c1a	0.08757801
46	0xbd9c20bb	-0.0762343
47	0xbd665554	-0.05623372
48	0xbd0a3e49	-0.033750806
49	0xbdd9d3bd	-0.10636089
50	0x3e208dca	0.15679088
51	0xbd38b1da	-0.045091487
52	0x3d6612d6	0.056170307
53	0xbbd96a17	-0.0066349613
54	0x3cb2c49d	0.021822268
55	0xbdbc103d	-0.09182785
56	0xbbe9267c	-0.0071151834
57	0xbe24ac38	-0.16081321
58	0xbd9d4379	-0.07678885
59	0x3e024850	0.12722898
60	0xbe366784	-0.17812926
61	0xbc805e8e	-0.015670087
62	0xbb9cf854	-0.004790345
63	0xbe37e1f4	-0.17957288
64	0x3c5acd87	0.013354666
65	0x3e04d030	0.12970042
66	0x3d8fe4a8	0.070260346
67	0x3d12fec1	0.035887484
68	0x3ddde26c	0.10834202
69	0xbd39c938	-0.045357913
70	0x3d2fcb8b	0.042918723
71	0x3cc93910	0.024563342
72	0xbda56174	-0.08075228
73	0xbd9b37e4	-0.0757902
74	0xbe130509	-0.1435739
75	0x3e043670	0.12911391
76	0x3dc1e090	0.0946666
77	0xbcc8f45d	-0.024530584
78	0xbd57e5f3	-0.05270953
79	0x3d8cd665	0.0687683
80	0xbe167ebe	-0.14696786
81	0xbc952a04	-0.018208511
82	0x3dbe9e70	0.09307563
83	0x3c5b611d	0.013389853
84	0xbc8a4339	-0.016877757
85	0x3e0c6723	0.13711219
86	0x3d9a3437	0.075294904
87	0xbe1339df	-0.14377545
88	0x3dde4385	0.10852722
89	0xbe263976	-0.16232857
90	0x3df965f4	0.12177649
91	0x3e25191f	0.16122864
92	0x3be4b766	0.0069798706
93	0xbc8e924b	-0.017403742
94	0xbd61293b	-0.05497096
95	0xbd6e7221	-0.05821431
96	0xbd084988	-0.03327325
97	0xbdb1eb63	-0.086874746
98	0x3e14b7c7	0.1452323
99	0xbe001b84	-0.12510496
100	0x3d8fc08b	0.070191465
101	0xbe1c26e1	-0.15249206
102	0x3da5265c	0.08063957
103	0x3e15a7c4	0.14614779
104	0xbd7a52ad	-0.061114002
105	0xbaa8bce5	-0.0012873678
106	0xbc30eb71	-0.010798321
107	0xbe4c62a1	-0.19959499
108	0xbe3581e1	-0.17725326
109	0x3c8f88b0	0.017521232
110	0x3e239ac4	0.15977007
111	0xbd5fd07d	-0.05464219
112	0x3c358d7e	0.011081098
113	0xbe341b03	-0.17588429
114	0xbe20bcb2	-0.15696982
115	0x3deca864	0.115555555
116	0x3e2489aa	0.1606814
117	0xbdcd0389	-0.1001044
118	0xbde8c507	-0.11365705
119	0xbd8b3f2f	-0.06799161
120	0x3cd6fe2f	0.026244251
121	0xbe2cddf0	-0.16881537
122	0xbe1a6936	-0.15079197
123	0xbdcac37d	-0.09900568
124	0xbdcde350	-0.10053122
125	0xbd119f43	-0.035552274
126	0x3e040354	0.12891895
127	0xbc402bd7	-0.011729202
128	0xbdd8d127	-0.10586768
129	0x3e27f07e	0.16400334
130	0x3de2e4ce	0.11078797
131	0x3ca36de2	0.019949857
132	0x3da18762	0.0788715
133	0x3d52d2c6	0.05147054
134	0x3e0e2313	0.13880567
135	0xbe419e1e	-0.18907973
136	0xbdd33e97	-0.103146724
137	0xbce37aa9	-0.02776845
138	0xbd83be0f	-0.06432735
139	0xbe2443ee	-0.16041538
140	0xbe2f527c	-0.17121309
141	0xbe0d1a99	-0.13779677
142	0xbd13bab8	-0.03606674
143	0x3e2cb4ff	0.1686592
144	0x3db565d4	0.08857313
145	0x3d84d1a9	0.06485302
146	0xbe08b9c4	-0.13352114
147	0xbd8a83db	-0.06763431
148	0x3d6a82d3	0.05725367
149	0xbe064aac	-0.13114423
150	0xbc085cca	-0.008322904
151	0x3dafc31e	0.085821375
152	0x3e0fb37f	0.14033316
153	0xbdc92d7a	-0.09823127
154	0x3e2a7f5c	0.16650146
155	0x3d079d1b	0.03310881
156	0xbde75458	-0.11295384
157	0x3e1f3feb	0.15551727
158	0x3e24d675	0.16097434
159	0xbe129974	-0.1431635
160	0xbe113799	-0.14181365
161	0x3dae2596	0.08503263
162	0xbdc15459	-0.09439916
163	0x3e0ef363	0.13960032
164	0xbd471cce	-0.048611455
165	0xbda83156	-0.08212535
166	0xbd630f1f	-0.055434342
167	0x3e2e9cce	0.17052004
168	0xbda5098d	-0.08058462
169	0xbd9011a2	-0.07034613
170	0x3decfd96	0.11571805
171	0xbdf7067d	-0.120617844
172	0xbc871f89	-0.01649453
173	0xbe06de6a	-0.13170782
174	0xbe184a78	-0.14872158
175	0xbd4dc348	-0.050235063
176	0x3d167d20	0.036740422
177	0x3df98ba2	0.12184836
178	0xbe2d0d02	-0.16899493
179	0xbcd0b978	-0.025479063
180	0x3d57feb8	0.052733153
181	0x3d358135	0.044312675
182	0x3dc87ba0	0.097892046
183	0xbdf11aa3	-0.11772659
184	0xbb686935	-0.00354631
185	0x3d449929	0.047997627
186	0xbe132d3e	-0.14372727
187	0x3dcd4725	0.10023335
188	0xbe2c7711	-0.16842295
189	0x3d52fa1a	0.051508047
190	0x3cafa6d2	0.02144185
191	0xbce219c5	-0.027600178
192	0x3d96eb28	0.07369071
193	0x3e0e8d98	0.13921201
194	0x3e02e3c6	0.12782201
195	0x3dd66a26	0.10469465
196	0xbdda6436	-0.10663645
197	0x3d860c91	0.065453656
198	0x3df29dbd	0.118464924
199	0x3d23b555	0.039967854
200	0x3dd43d1a	0.10363217
201	0xbdcc2896	-0.09968679
202	0x3e0d36bb	0.1379041
203	0xbc294f87	-0.010333902
204	0xbe249125	-0.16070993
205	0xbd3728a7	-0.044716503
206	0x3e2aadb2	0.16667822
207	0xbd701712	-0.05861575
208	0xbcc1e827	-0.02367027
209	0xbd70fa71	-0.05883259
210	0xbdda8055	-0.10669009
211	0x3cf5b83a	0.029995073
212	0x3de87e9d	0.113522746
213	0x3cc3189e	0.02381545
214	0xbc7db0bc	-0.015484031
215	0x3cc8e7d0	0.0245246
216	0xbe10e56d	-0.14150019
217	0xbdc43488	-0.09580332
218	0x3c0c7073	0.008571732
219	0xbe0d4068	-0.137941
220	0x3da9ba90	0.08287537
221	0x3ad81076	0.0016484398
222	0x3b893d59	0.0041882214
223	0xbcb1548a	-0.021646757
224	0x3e034132	0.12817839
225	0x3e2572b9	0.16157044
226	0x3dda395b	0.10655471
227	0x3dd3c828	0.10340911
228	0xbe06c551	-0.13161208
229	0x3d647f35	0.055785377
230	0xbe1ab117	-0.15106617
231	0x3d15ed06	0.036602996
232	0xbdbf5f41	-0.0934434
233	0xbca318b0	-0.019909233
234	0x3e0a5789	0.13509955
235	0x3e08deda	0.13366261
236	0x3e2958d6	0.16537794
237	0x3d86e0ef	0.065858714
238	0x3bb841ed	0.0056230933
239	0x3ccbcfa6	0.024879288
240	0x3df8e9e5	0.12153987
241	0x3dac543b	0.08414503
242	0x3d547911	0.05187327
243	0xbd2182e2	-0.03943146
244	0xbde27204	-0.11056903
245	0xbd4afc7a	-0.049557187
246	0x3daaf9b6	0.0834841
247	0xbdb9215e	-0.090395674
248	0x3d07e1f7	0.03317448
249	0x3e0da05b	0.13830702
250	0x3e122c42	0.14274696
251	0xbdfae0a5	-0.12249879
252	0x3d9bd767	0.07609444
253	0x3e0e4d1a	0.138966
254	0xbe05984c	-0.13046378
255	0x3d990f0e	0.074735746

emb_net.v_lins1.5.bias f4 [32]
0	0x3c765bf3	0.015036571
1	0xbe27e944	-0.16397578
2	0x3d39cc47	0.04536083
3	0xbd993eac	-0.07482657
4	0xbd28d4df	-0.041218635
5	0xbdc6a47a	-0.0969934
6	0x3e2344a6	0.15944156
7	0x3dfb49be	0.122699246
8	0xbd9aeec9	-0.07565076
9	0xbd405e40	-0.046964884
10	0x3d5b96b1	0.053610507
11	0x3d80ea18	0.0629465
12	0xbdb76927	-0.08955603
13	0x3d944dd1	0.07241405
14	0xb91d375d	-0.00014993311
15	0x3dcdc765	0.10047797
16	0xbdc4f637	-0.09617274
17	0xbded5b5a	-0.115896896
18	0x3d9cfaaf	0.076650016
19	0xbb355965	-0.0027671691
20	0xbd9fd40c	-0.078041166
21	0x3e0d1505	0.1377755
22	0xbc9ffc58	-0.019529507
23	0xbdf21595	-0.11820523
24	0xbce04769	-0.027377801
25	0xbda8c691	-0.082409985
26	0xbd7355af	-0.059407886
27	0xbdefd99a	-0.11711426
28	0x3e0fde7f	0.1404972
29	0x3e181fdb	0.14855902
30	0xbe15c7bd	-0.14626975
31	0x3ddced47	0.107874446
