pretrained/smtwtp/100/smtwtp100_sd0/20.pt (torch, 359348 bytes, 234 tensors)

emb_net.v_lin0.weight f4 [32, 2]
0	0xbca8bde0	-0.020598352
1	0x3ec910d7	0.3927066
2	0xbf128129	-0.5722833
3	0xbf0d439b	-0.5518128
4	0xbe90c14c	-0.28272474
5	0x3e4f7307	0.20258723
6	0xbbbe1467	-0.005800772
7	0x3f0871f0	0.53298855
8	0xbd69f65b	-0.05711971
9	0x3e356231	0.17713238
10	0xbe803bd4	-0.25045645
11	0xbe03216b	-0.12805717
12	0xbf304528	-0.68855524
13	0xbefa33c5	-0.48867622
14	0xbe90cdd9	-0.2828205
15	0x3d07a76c	0.03311865
16	0x3e7c1919	0.24618949
17	0x3edf0e23	0.43565473
18	0xbf01f7c3	-0.5076868
19	0xbe94e710	-0.29082537
20	0x3e6ce96f	0.23135923
21	0x3f171efe	0.59031665
22	0xbe3623e6	-0.17787132
23	0x3f0399ef	0.5140676
24	0xbe182d46	-0.1486102
25	0x3da5baed	0.08092294
26	0x3f2d09ee	0.67593277
27	0xbf1cbb2d	-0.6122311
28	0xbee14420	-0.43997288
29	0xbe1f6ba1	-0.15568401
30	0xbe9cd625	-0.3063213
31	0x3f1e1330	0.6174803
32	0xbeed2133	-0.46314391
33	0xbeb6a82d	-0.35675183
34	0xbf0399ce	-0.5140656
35	0xbf257bd5	-0.6464208
36	0xbed48bc7	-0.41512892
37	0x3f17c5f6	0.5928644
38	0x3ea28528	0.31742215
39	0x3ea4adc2	0.32163817
40	0x3d535a4c	0.051599786
41	0xbebbd028	-0.36682248
42	0x3e131768	0.14364398
43	0xbf3065b8	-0.6890521
44	0xbf054d10	-0.52070713
45	0xbeaefb80	-0.34176254
46	0x3ed9efd5	0.4256579
47	0x3ed278aa	0.41107684
48	0xbea324b2	-0.31863934
49	0xbd42af43	-0.047530424
50	0x3eee0489	0.46487835
51	0x3f3b5807	0.73181194
52	0x3e9c6c09	0.30551174
53	0x3dba6635	0.09101526
54	0x3ef92797	0.48663017
55	0xbec443f9	-0.3833311
56	0x3e0f7509	0.14009489
57	0xbf0abf3a	-0.5419804
58	0xbefab82f	-0.48968646
59	0xbebf67ff	-0.3738403
60	0x3ea5fd5e	0.32419866
61	0x3e910f7c	0.28332126
62	0xbed64a6b	-0.4185365
63	0x3e66cd54	0.22539264

emb_net.v_lin0.bias f4 [32]
0	0x3ece5c59	0.4030483
1	0xbdc00b35	-0.093771376
2	0x3d13fd86	0.03613045
3	0x3e0c8848	0.13723862
4	0x3edb30d9	0.42810705
5	0x3f37c608	0.71786547
6	0xbf0950b0	-0.53638744
7	0xbe87e5f5	-0.2654263
8	0x3e8acf8f	0.2711148
9	0x3f1dfa4a	0.61710036
10	0x3f1e986a	0.61951315
11	0x3f1f31a6	0.6218513
12	0x3e2e5d33	0.1702774
13	0xbf1517a4	-0.582392
14	0x3d62d3c4	0.055377737
15	0xbeda88a7	-0.42682382
16	0xbf241c57	-0.64105743
17	0x3f289f4e	0.6586808
18	0x3f070719	0.52745205
19	0xbf39b1b0	-0.72536755
20	0x3e094eb4	0.13408929
21	0xbdb658f4	-0.08903685
22	0xbdced0ee	-0.10098444
23	0xbeaed900	-0.34149933
24	0x3e8dde39	0.27708605
25	0xbec51a54	-0.3849665
26	0x3e8f961a	0.28044206
27	0x3eb3c317	0.3510978
28	0x3f00120f	0.50027555
29	0x3e891601	0.267746
30	0xbf341019	-0.70337063
31	0xbee74d27	-0.4517605

emb_net.v_lins1.0.weight f4 [32, 32]
0	0x3db4c577	0.08826726
1	0x3d178ce5	0.036999602
2	0xbe0d35d5	-0.13790067
3	0xbdd0780b	-0.101791464
4	0x3e2a4b37	0.16630255
5	0x3df3f2b8	0.11911529
6	0xbd9ddba3	-0.07707908
7	0xbd363d3f	-0.044492003
8	0xbe2c704d	-0.16839714
9	0xbb503c12	-0.0031774086
10	0xbe085177	-0.13312326
11	0xbe0ba167	-0.13635789
12	0xbc1f95e4	-0.009740327
13	0x3cd96eea	0.026542146
14	0xbd94440b	-0.07239541
15	0x3dd6d35d	0.10489533
16	0xbddc508f	-0.10757553
17	0x3e244064	0.16040188
18	0x3df81ae5	0.12114505
19	0xbe18a688	-0.14907277
20	0xbd343625	-0.04399695
21	0x3c02b067	0.007976628
22	0x3cd3498f	0.025791911
23	0x3d2bbb86	0.041926883
24	0x3d8e12ff	0.06937217
25	0x3c2d7d4a	0.010588953
26	0xbdb0a62a	-0.08625443
27	0x3dab500e	0.083648786
28	0xbe2da481	-0.16957285
29	0xbdd6952e	-0.104776725
30	0xbd354218	-0.044252485
31	0xbdb05a97	-0.08611029
32	0xbd7d4e71	-0.061842386
33	0xbe145e0c	-0.14489001
34	0xbd1a05b0	-0.03760308
35	0x3d1ac6b5	0.037787158
36	0xbdebdb16	-0.11516397
37	0xbc14a302	-0.009072067
38	0x3e019535	0.12654574
39	0xbc94dee4	-0.018172689
40	0x3ba0fd5d	0.0049130158
41	0xbc79dc86	-0.015250331
42	0x3d128a2e	0.03577631
43	0x3de632cf	0.1124016
44	0x3e2b784a	0.16745105
45	0x3de5ea30	0.11226308
46	0x3e2bdcb9	0.16783418
47	0xbc517744	-0.012784783
48	0xbe229d12	-0.1588023
49	0xbdaba261	-0.08380581
50	0x3df68397	0.120368175
51	0xba9633c2	-0.0011459517
52	0xbdb3f333	-0.08786621
53	0xbe0ab79d	-0.13546605
54	0xbe296846	-0.16543683
55	0xbe18c824	-0.14920098
56	0xbd12de97	-0.03585681
57	0x3dc68b4f	0.0969454
58	0x3dc3bba4	0.09557274
59	0xbe2e94b0	-0.17048907
60	0x3de1d54e	0.11027013
61	0xbe0da63b	-0.13832943
62	0xbd1913d0	-0.03737241
63	0xbd92cbf9	-0.07167811
64	0xbd0b77e6	-0.03404989
65	0xbd0e2ad4	-0.034708813
66	0xbe22700c	-0.15863055
67	0xbe1c4c88	-0.1526357
68	0xbce29b43	-0.027661925
69	0x3b15d288	0.0022861082
70	0xbda4770f	-0.08030521
71	0x3d886133	0.06659164
72	0xbe22ed8f	-0.15910934
73	0xbc4376c4	-0.011930171
74	0x3e1f3122	0.15546086
75	0xbd93ac34	-0.072105795
76	0x3e237605	0.1596299
77	0x3d831d19	0.06402034
78	0xbe235ce5	-0.15953405
79	0x3de50f97	0.11184614
80	0xbca71bea	-0.020399053
81	0xbda19dd5	-0.07891432
82	0x3e10c0b1	0.14136006
83	0xbe1247e6	-0.1428524
84	0x3c9b64e6	0.01896901
85	0xbd179961	-0.037011508
86	0x3e0144a8	0.12623847
87	0x3d4a1f4a	0.049346246
88	0x3dadf626	0.08494215
89	0x3d7fb6e2	0.06243027
90	0xbd2e1f4e	-0.042510323
91	0xbd184704	-0.0371771
92	0xbe152cb7	-0.14567839
93	0x3dc42b25	0.09578542
94	0x3e0fb9b3	0.14035682
95	0x3df7b742	0.120955005
96	0xbdff5fcd	-0.124694444
97	0x3c012cd2	0.007884221
98	0xbdff36a2	-0.12461592
99	0xbdc74beb	-0.09731277
100	0xbdd2f640	-0.10300875
101	0x3d777327	0.060412552
102	0xbdd7be5d	-0.10534356
103	0xbb7cc1ed	-0.0038567737
104	0x3bf3af42	0.007436664
105	0x3de960e3	0.11395433
106	0xbe08d60e	-0.13362905
107	0xbdf88b42	-0.12135936
108	0xbdd238d0	-0.102647424
109	0x3dfd6728	0.12373191
110	0xbd8223e6	-0.06354503
111	0x3e18b011	0.14910914
112	0x3d82ea79	0.06392378
113	0x3cb75fc2	0.022384528
114	0xbaac7b48	-0.0013159299
115	0xbd0f2301	-0.03494549
116	0x3cb5b1d6	0.022179525
117	0xbd2556d6	-0.040366016
118	0xbaa2ce4a	-0.0012421098
119	0x3cb8c643	0.022555476
120	0xbe0d9821	-0.13827564
121	0xbdbdc17f	-0.09265422
122	0x3e122bfb	0.1427459
123	0xbe12e7d8	-0.14346254
124	0xbc4ff913	-0.012693661
125	0x3e331243	0.17487435
126	0x3d82c823	0.06385829
127	0x3ba401b4	0.005005086
128	0xbe1cdf87	-0.15319644
129	0x3db35890	0.08757126
130	0xbe00efc4	-0.12591463
131	0xbd4d8a28	-0.050180584
132	0xbd72f095	-0.05931147
133	0xbcd67414	-0.026178397
134	0x3afd71ff	0.0019336342
135	0x3e154e5d	0.14580674
136	0x3cb4c933	0.022068596
137	0x3e222341	0.15833761
138	0x3ddd76ac	0.108136505
139	0xbde4e2ca	-0.11176069
140	0x3da26036	0.07928507
141	0xbdffec78	-0.12496275
142	0xbd9970eb	-0.074922405
143	0x3d54f7b3	0.051994037
144	0x3d6f15a9	0.058370266
145	0x3e07ce48	0.13262284
146	0xbd69178c	-0.05690722
147	0x39945ef2	0.000282995
148	0x3dba62d3	0.091008805
149	0xbe2f0ff8	-0.17095935
150	0x3e02df9c	0.12780613
151	0xbe15b05f	-0.14618061
152	0x3b1fac6e	0.002436425
153	0xbcf635e8	-0.030055001
154	0xbdbead0d	-0.093103506
155	0x3cbf6773	0.023364758
156	0x3e15b033	0.14617996
157	0xbd53a976	-0.051675282
158	0xbdd6f0b2	-0.10495128
159	0xbd85e55d	-0.06537888
160	0xbe336ac1	-0.17521192
161	0x3da36c0d	0.079795934
162	0xbdaddfc1	-0.08489943
163	0xbdf19a5d	-0.117970206
164	0xbdd0922c	-0.1018413
165	0x3dd02805	0.10163883
166	0x3dbfb9e5	0.093616284
167	0x3e0aefb1	0.13567998
168	0x3d8351de	0.06412099
169	0xbd71d00a	-0.059036292
170	0xbd4a5792	-0.04939992
171	0x3d55ea04	0.052225128
172	0x3e14cdde	0.14531657
173	0x3d44def8	0.048064202
174	0xbdab4c03	-0.083641075
175	0xbdaa2faa	-0.083098724
176	0xbe2b25ef	-0.1671369
177	0x3d1c6f7a	0.03819225
178	0xbdcb2b76	-0.09920399
179	0xbe216478	-0.15760982
180	0x3e1ebb4a	0.15501133
181	0xbdeb1caa	-0.114800766
182	0xbca4be8b	-0.02011039
183	0x3d4f7188	0.05064538
184	0x3bb88b0a	0.005631809
185	0xbdf39bf5	-0.11894981
186	0xbe125265	-0.14289244
187	0x3e10498e	0.14090559
188	0x3cebd0cc	0.028786086
189	0x3e162d97	0.14665829
190	0xbd72bd79	-0.059262726
191	0x3d5547e9	0.052070532
192	0xbd25944a	-0.040424623
193	0xbc00cd5c	-0.0078614615
194	0xbddc7f5f	-0.107664816
195	0x3d74e235	0.05978604
196	0x3d64edb7	0.055890765
197	0xbb6efca5	-0.0036466506
198	0xbd22d8b8	-0.03975746
199	0xbddf2be2	-0.10897042
200	0x3dfa5daf	0.122249
201	0xbe06c152	-0.13159683
202	0x3d945093	0.07241931
203	0xbd73793b	-0.059441786
204	0xbdaeac0d	-0.0852891
205	0x3d0213b1	0.03175706
206	0xbdbc1042	-0.091827884
207	0x3d26d4b8	0.04073021
208	0x3d0e31e7	0.03471556
209	0xbe0667ab	-0.13125484
210	0x3cf11d9b	0.029433062
211	0x3d9a33ed	0.07529435
212	0x3d8f4e5e	0.06997369
213	0xbcb64ab4	-0.022252418
214	0xbe1465bd	-0.14491935
215	0xbcdf3d2a	-0.027250845
216	0x3d7b7a45	0.061395902
217	0xbd841981	-0.06450177
218	0x3d896c4c	0.06710109
219	0x3df11aad	0.11772666
220	0xbdbd0a00	-0.09230423
221	0x3ae480d2	0.0017433411
222	0x3d95b3df	0.07309698
223	0x3c6301a9	0.013855376
224	0x3c71eedd	0.014766422
225	0x3cb4d30e	0.022073295
226	0xbe0e4ed5	-0.1389726
227	0x3c639daa	0.0138925705
228	0x3dfab36b	0.122412525
229	0x3e231e77	0.1592959
230	0x3dd4c9df	0.10390066
231	0x3cc20ea0	0.023688614
232	0x3da913c3	0.082557224
233	0xbdb01fdb	-0.08599826
234	0xbe160235	-0.1464928
235	0xbe1ba98f	-0.152014
236	0x3e34962f	0.17635415
237	0x3de5d17b	0.11221596
238	0xbdfa40db	-0.122194014
239	0x3d8da51c	0.06916258
240	0x3e08b32f	0.13349603
241	0x3e34f31a	0.17670861
242	0x3e1e484a	0.15457264
243	0x3e0c3ed4	0.13695842
244	0xbd26005e	-0.040527694
245	0xbd7e1be1	-0.062038306
246	0x3e14a02f	0.1451423
247	0x3dcae10c	0.099062055
248	0xbdd9de05	-0.1063805
249	0x3e22bd50	0.1589253
250	0x3daeec0e	0.085411176
251	0x3dc55c31	0.09636725
252	0xbde2ead2	-0.11079945
253	0x3d4fbcd6	0.050717197
254	0xbd7dd596	-0.06197127
255	0x3e0d70ce	0.13812563

emb_net.v_lins1.0.bias f4 [32]
0	0xbce92775	-0.028461197
1	0xbe247e43	-0.1606379
2	0xbdf1be46	-0.1180387
3	0x3c3de7a0	0.011590868
4	0xbe2ab234	-0.16669542
5	0xbccb8b68	-0.024846748
6	0xbde9c4f4	-0.11414519
7	0xbdfafa8d	-0.1225482
8	0x3d8e4adc	0.06947872
9	0xbe0b5426	-0.13606319
10	0xbe092ec2	-0.13396743
11	0x3dce76c6	0.10081248
12	0x3d0760c9	0.033051286
13	0x3e24db4c	0.1609928
14	0xbd418ae8	-0.047251612
15	0xbdaedec1	-0.08538581
16	0xbc860587	-0.016360058
17	0x3a6a74a3	0.0008943772
18	0x3e0a0da9	0.13481773
19	0xbe344f4a	-0.17608371
20	0xbc4e3826	-0.012586629
21	0x3da0260a	0.078197554
22	0xbdc75e59	-0.09734792
23	0xbdb7f774	-0.08982745
24	0x3daef62d	0.08543048
25	0xbe2d7336	-0.1693848
26	0x3d2b9305	0.041888256
27	0xbe0c2489	-0.13685812
28	0x3db3f4a3	0.08786895
29	0xbe1ac763	-0.15115122
30	0x3dde9545	0.10868315
31	0xbe2b5bdb	-0.16734259

emb_net.v_lins1.1.weight f4 [32, 32]
0	0xbe1828a9	-0.1485926
1	0x3b2abafa	0.0026051388
2	0x3e0ea422	0.13929799
3	0xbe1b062f	-0.15139078
4	0xbda17da9	-0.07885296
5	0x3e1efc72	0.15525988
6	0xbcf2da11	-0.029644998
7	0x3d95fcaf	0.07323586
8	0xbe2e23e9	-0.17005886
9	0xbd63b560	-0.055592895
10	0xbdb7dad9	-0.08977289
11	0x3e189c42	0.14903358
12	0x3d9642b0	0.073369384
13	0xbe0415dd	-0.12898965
14	0x3ce97b4b	0.028501173
15	0xbb05277f	-0.002031773
16	0xbd94c032	-0.07263221
17	0xbdcec077	-0.100953035
18	0xbd7046dd	-0.05866133
19	0x3e0eaf2a	0.13934007
20	0xbe01c39e	-0.12672278
21	0xbe00f2ab	-0.1259257
22	0xbd5f6447	-0.05453899
23	0x3b498a66	0.0030752658
24	0x3d451a3c	0.048120722
25	0x3badd34a	0.0053047286
26	0xbd2e4dd1	-0.04255468
27	0xbddb85b0	-0.10718858
28	0xbd01ec50	-0.031719506
29	0xbd91bd68	-0.071162045
30	0x3e124030	0.14282298
31	0xbe3034b9	-0.17207612
32	0xbde6edfb	-0.1127586
33	0xbe13468a	-0.14382377
34	0xbd04547e	-0.03230714
35	0x3e0d1045	0.13775738
36	0x3e1eaba9	0.1549517
37	0xbe1d965c	-0.15389389
38	0xbbfaf9d8	-0.007659178
39	0x3dd48123	0.103761934
40	0x3d9f95f2	0.07792272
41	0x3e14460d	0.14479847
42	0xbba0ad49	-0.0049034697
43	0xbdf3404c	-0.11877498
44	0x3def7fe7	0.11694317
45	0xbd784bf3	-0.060619306
46	0x3dbb7567	0.09153252
47	0xbd327067	-0.043564226
48	0x3d99e688	0.075146735
49	0x3e22d041	0.15899755
50	0x3e285263	0.16437678
51	0xbe24bd47	-0.16087829
52	0xbdef7b40	-0.1169343
53	0xbd95b0e4	-0.0730913
54	0xbde6df58	-0.11273068
55	0x3e2db025	0.16961725
56	0xbc7fcc73	-0.015612709
57	0xbdf027aa	-0.11726315
58	0xbda11a77	-0.07866376
59	0xbdc7fa33	-0.097645186
60	0x3d93b53b	0.07212301
61	0xbe1de4f2	-0.15419367
62	0xbe28c872	-0.16482714
63	0xbe32711c	-0.1742596
64	0x3d9bddcb	0.07610663
65	0x3db302fe	0.08740805
66	0xbde0daca	-0.10979231
67	0x3d338e40	0.043836832
68	0x3e05a02e	0.13049385
69	0x3cd26b38	0.025685892
70	0xbd193391	-0.037402693
71	0x3c55fc72	0.013060676
72	0xbc9b4843	-0.018955356
73	0x3db64942	0.089006916
74	0xbdf5d40f	-0.120033376
75	0x3db79739	0.0896439
76	0x3dcc0db3	0.099635504
77	0xbddb599d	-0.10710452
78	0x3e13d055	0.14434941
79	0x3e31cb60	0.17362738
80	0xbd8eb9dd	-0.06969044
81	0xbd4acf5c	-0.04951416
82	0x3db46c89	0.08809764
83	0xbe0dd072	-0.13849047
84	0x3d8f2bcc	0.069907755
85	0x3d28ee41	0.04124284
86	0x3de43428	0.111427605
87	0xbe1d3c10	-0.15354943
88	0xbe16635b	-0.14686339
89	0x3da29a23	0.079395555
90	0x3d826905	0.06367687
91	0xbe287c97	-0.16453777
92	0xbdc9e4f1	-0.0985812
93	0xbe25a0f9	-0.16174687
94	0xbe01afb8	-0.12664688
95	0xbda35a0a	-0.07976158
96	0x3e15cceb	0.14628951
97	0xbd1020d5	-0.03518756
98	0x3dcfeff5	0.1015319
99	0x3e2be91e	0.16788146
100	0x3da4fe21	0.08056284
101	0xbe220ce6	-0.15825233
102	0x3db62fa3	0.08895805
103	0x3d8a1814	0.06742874
104	0x3e0c4d46	0.13701352
105	0xbe32904c	-0.17437857
106	0x3ddea8d9	0.10872049
107	0x3e142bfc	0.14469904
108	0xbe2869fc	-0.1644668
109	0x3c9783db	0.01849549
110	0x3e1a8806	0.15090951
111	0xbe03a826	-0.12857112
112	0x3d6d956f	0.05800384
113	0x3d9ffa08	0.078113616
114	0x3d3dc603	0.046331417
115	0x3e33fbaf	0.17576478
116	0x3e143706	0.14474115
117	0x3e1b4e70	0.1516664
118	0xbcb48200	-0.022034645
119	0x3e17d2bd	0.14826484
120	0xbe28b1b8	-0.16474044
121	0xbdc35ddf	-0.09539389
122	0xbd1addd2	-0.0378092
123	0xbd571793	-0.052512717
124	0x3e2734e4	0.1632877
125	0x3daac2d5	0.083379425
126	0x3de915d0	0.113811135
127	0x3df64319	0.120245166
128	0xbe0738db	-0.13205282
129	0xbca7ba0b	-0.020474454
130	0x3cd37758	0.025813743
131	0x3d3c53bc	0.045978293
132	0x3dba2c0f	0.09090435
133	0xbd900ec1	-0.07034064
134	0xbd5a5590	-0.053304255
135	0x3e177763	0.14791636
136	0xbd4254bd	-0.047444094
137	0xbdfb7cae	-0.1227964
138	0x3df57a04	0.11986163
139	0x3df5280f	0.11970531
140	0xbd630bf5	-0.055431325
141	0xbd10c1f1	-0.035341207
142	0xbe05920f	-0.13043998
143	0xbe172b09	-0.1476251
144	0x3d8824fc	0.06647679
145	0xbd9aa905	-0.07551769
146	0x3e101bd2	0.14073113
147	0xbe10f1cf	-0.14154743
148	0xbcc82bda	-0.024434973
149	0x3b7a255b	0.0038169238
150	0x3dba1198	0.09085387
151	0x3e128127	0.1430708
152	0x3df52c99	0.11971397
153	0x3d9f5e34	0.0778164
154	0xbda62c6b	-0.08113941
155	0xbe014648	-0.12624466
156	0xbe21f135	-0.1581467
157	0x3c0faba1	0.008768947
158	0x3e2f912c	0.17145222
159	0xbd098876	-0.033577405
160	0xbbf3dc56	-0.0074420376
161	0xbe038bb0	-0.12846255
162	0x3d5e4c7c	0.05427216
163	0x3de586c8	0.11207348
164	0xbe327847	-0.17428695
165	0xbdfeeb62	-0.124472395
166	0x3e06151a	0.13093987
167	0x3d2b6f93	0.041854452
168	0xbc3492d7	-0.0110213375
169	0x3d016f4f	0.031600293
170	0xbcdc2e22	-0.026877467
171	0xbdfd0d66	-0.12356071
172	0xbe29265e	-0.16518542
173	0x3dee1d9f	0.116267435
174	0xbcac3d1a	-0.02102523
175	0xbd8674e0	-0.06565261
176	0xbd3ae535	-0.045628745
177	0xbdc576d8	-0.09641808
178	0xbd5675ab	-0.05235831
179	0xbe1b63bd	-0.15174766
180	0x3e0776f4	0.13228971
181	0x3d93d5f5	0.072185434
182	0xbdb69578	-0.08915228
183	0xbd77231e	-0.060336225
184	0x3da26c93	0.07930865
185	0xbd86109c	-0.06546137
186	0x3d3eef43	0.046614897
187	0x3d475e59	0.04867396
188	0xbde3e6a1	-0.11127973
189	0x3d3561e9	0.044282828
190	0x3c313552	0.010815935
191	0x3e1e1970	0.15439391
192	0xbd82fe2a	-0.06396134
193	0xbd3a2332	-0.04544372
194	0x3e1bf764	0.15231091
195	0xbe13d221	-0.14435627
196	0x3c5140ff	0.012771844
197	0x3e2e699c	0.17032474
198	0xbda25398	-0.079261005
199	0x3e2d8a3e	0.16947266
200	0x3e20a035	0.15686114
201	0x3e2868d3	0.16446237
202	0xbc8a2ffa	-0.01686858
203	0x3e23c191	0.15991808
204	0xbd9dbf4c	-0.077025026
205	0xbd77dafd	-0.060511578
206	0x3d88ef51	0.06686271
207	0x3d18f596	0.037343584
208	0x3dc79545	0.09745268
209	0x3e2c06b3	0.1679943
210	0xbde2a1db	-0.11066028
211	0x3dc024c1	0.0938201
212	0x3d724029	0.05914322
213	0x3dbf0003	0.09326174
214	0x3dabab32	0.08382262
215	0xbd876d83	-0.066126846
216	0xbe0f11d9	-0.13971652
217	0x3e10e297	0.14148937
218	0xbdce7285	-0.100804366
219	0x3de7760e	0.11301814
220	0xbe2c7268	-0.16840518
221	0xbcfa88c0	-0.030582786
222	0x3af594dd	0.0018736381
223	0x3cfa909e	0.030586537
224	0x3c6a1d4f	0.014289214
225	0x3d64294c	0.055703446
226	0xbca13e82	-0.019683126
227	0x3d315469	0.04329339
228	0x3e332247	0.17493545
229	0xbdea4203	-0.11438372
230	0xbc1e2111	-0.009651438
231	0xbd8a32d1	-0.06747974
232	0x3e1ed4ec	0.15510911
233	0x3e1af5b3	0.1513279
234	0xbb9df5d8	-0.0048205666
235	0xbd7afd23	-0.061276566
236	0xbddfb102	-0.109224334
237	0x3e0186c8	0.12649071
238	0xbc47734c	-0.012173485
239	0x3e2a7c59	0.16648997
240	0x3dce74f6	0.10080902
241	0x3e1e7272	0.15473345
242	0x3e0f2c26	0.13981685
243	0xbdeb449d	-0.11487696
244	0x3d53f064	0.051742926
245	0xbd961f60	-0.07330203
246	0x3db5a771	0.088698275
247	0xbc82340a	-0.015893955
248	0x3c7abbb5	0.015303542
249	0xbdfa639e	-0.12226032
250	0xbe21c818	-0.15798986
251	0x3d88557f	0.06656932
252	0x3d2843d7	0.041080322
253	0x3c7b94e0	0.015355319
254	0x3df5e50b	0.12006577
255	0xbd972d97	-0.073817424

emb_net.v_lins1.1.bias f4 [32]
0	0x3dd9cbfd	0.10634611
1	0xbcf1fd01	-0.029539587
2	0xbd96cdd8	-0.0736348
3	0xbcecb641	-0.0288955
4	0x3d837593	0.0641891
5	0xbcb8e029	-0.022567825
6	0x3dd2b4ec	0.10288414
7	0xbe139e5c	-0.14415878
8	0xbdb1a0ad	-0.086732246
9	0x3e09ff8c	0.1347639
10	0x3cbdfb61	0.023191156
11	0x3d11cf04	0.035597816
12	0x3d6e254a	0.05814103
13	0xbd2b1834	-0.04177113
14	0xbd90c835	-0.070694365
15	0x3d4fb9f1	0.050714437
16	0xbd3fe726	-0.0468513
17	0xbd958eb2	-0.073026076
18	0x3cbf53a7	0.023355318
19	0x3d2f240d	0.04275899
20	0xbc82c198	-0.015961453
21	0xbdf4d855	-0.119553246
22	0xbcdaf6d4	-0.026729025
23	0xbdcd2d62	-0.10018422
24	0x3dbe8c09	0.09304053
25	0xbdefe2ff	-0.11713218
26	0x3e105551	0.14095046
27	0x3d90321c	0.070408076
28	0xbe1b028b	-0.15137689
29	0x3e0655aa	0.13118616
30	0xbe33043e	-0.17482087
31	0xbc28651e	-0.0102780145

emb_net.v_lins1.2.weight f4 [32, 32]
0	0xbde20a9a	-0.11037178
1	0xbe1bb9f9	-0.15207662
2	0x3c8f7bad	0.017515028
3	0xbdaf89a1	-0.085711725
4	0x3e02d8e5	0.12778051
5	0xbe0e4d13	-0.13896589
6	0x3e16400c	0.1467287
7	0x3dda6ab6	0.10664885
8	0x3e1e8c2d	0.1548316
9	0xbd54087a	-0.051765896
10	0xbddde9d5	-0.108356155
11	0xbdf0869d	-0.117444254
12	0x3e1687c4	0.14700228
13	0xbdb411ba	-0.087924436
14	0xbcb24ebf	-0.021766065
15	0xbcdf36ab	-0.027247747
16	0x3cf92321	0.030412259
17	0xbe148a6c	-0.14505929
18	0x3e11f687	0.14254199
19	0xbe05f174	-0.13080388
20	0x3e320b13	0.17387037
21	0xbd8da8f7	-0.06916993
22	0xbda19f42	-0.07891704
23	0xbcc70d6e	-0.024298396
24	0x3d564b8e	0.05231815
25	0xbd062915	-0.032754023
26	0xbe34aa83	-0.1764317
27	0x3dfea6ef	0.12434184
28	0x3e334c2b	0.17509525
29	0x3db6a8af	0.089188926
30	0x3e3121d6	0.17298064
31	0x3d4558f7	0.048180547
32	0xbc62f439	-0.0138521725
33	0xbe102e59	-0.1408018
34	0xbe1e3638	-0.1545037
35	0xbdf94334	-0.12171021
36	0xbd37b710	-0.044852316
37	0x3dd2d151	0.1029383
38	0xbd955f10	-0.07293522
39	0xbbe0fb15	-0.006865869
40	0xbb2380d5	-0.0024948616
41	0xbdeca833	-0.11555519
42	0xbb9ccea1	-0.0047853743
43	0x3e2ec8ac	0.17068738
44	0x3e10ae37	0.14128958
45	0x3e09de28	0.13463652
46	0xbc8ed385	-0.017434845
47	0x3b4d76d8	0.0031351354
48	0x3dc5ebf5	0.09664146
49	0xbd70d8ed	-0.058800627
50	0xbd92b94d	-0.071642496
51	0x3e1ae0cc	0.15124816
52	0x3c255aae	0.0100924205
53	0xbdf4736f	-0.1193608
54	0x3e188720	0.14895296
55	0x3cf05c58	0.029340908
56	0x3dc1b626	0.0945857
57	0xbe1d3795	-0.15353234
58	0x3d065e45	0.032804746
59	0x3ddd70ed	0.108125545
60	0xbcd0eb09	-0.025502698
61	0xbdcdc8d0	-0.100480676
62	0x3e10d38d	0.141432
63	0x3da8644d	0.08222256
64	0x3d4e38a8	0.050347
65	0x3d2b3df8	0.041807145
66	0x3b7fb469	0.0039017445
67	0x3dcf9dfd	0.10137556
68	0xbd1e49f8	-0.03864476
69	0xbdd51cb6	-0.10405867
70	0x3d8a3e68	0.06750184
71	0x3d412e40	0.047163248
72	0x3d89d881	0.06730748
73	0xbca0d920	-0.019634783
74	0xbcc02d2d	-0.023459041
75	0xbc66321a	-0.014050031
76	0x3d3eed3b	0.04661296
77	0xbe0ae821	-0.13565113
78	0xbe28b885	-0.16476639
79	0x3d877931	0.06614912
80	0xbdc637af	-0.096785896
81	0xbc73a545	-0.014870946
82	0x3d48bc25	0.049007554
83	0x3ccb1e06	0.02479459
84	0x3de96480	0.11396122
85	0x3cbdd444	0.023172505
86	0x3d33437f	0.04376554
87	0xbc81a02b	-0.015823444
88	0x3cd5c309	0.026093977
89	0x3d84c034	0.06481972
90	0x3df6fcef	0.12059962
91	0xbe2b849b	-0.16749804
92	0xbd96cfdd	-0.073638655
93	0xbe226f83	-0.15862851
94	0xbd9057be	-0.070479855
95	0x3ddcb0fe	0.10775946
96	0xbe2b8423	-0.16749625
97	0xbe223255	-0.15839513
98	0x3dd1a0f4	0.102357775
99	0xbdd5cc19	-0.10439319
100	0x3e044d07	0.12920009
101	0x3d619d58	0.055081695
102	0x3d35c15f	0.044373866
103	0x3e0fcdd4	0.14043361
104	0xbe27ad66	-0.1637474
105	0x3e048f41	0.12945272
106	0x3d6ad10c	0.05732827
107	0xbdf29b08	-0.11845976
108	0x3d302d3d	0.043011893
109	0xbd49cccd	-0.04926758
110	0xbd91519e	-0.07095645
111	0xbc9cd712	-0.019145522
112	0xbdaab045	-0.08334402
113	0x3e1e4a3a	0.15458003
114	0x3e1bcdc1	0.15215208
115	0xbc9a7c59	-0.018858122
116	0xbe208613	-0.15676145
117	0xbc312ede	-0.010814397
118	0x3c3f5c45	0.011679714
119	0x3df1fe88	0.11816126
120	0x3bba5f52	0.0056876326
121	0x3d52bd65	0.051450152
122	0x3d401f8a	0.046905078
123	0xbdcd6bda	-0.10030337
124	0xbde09159	-0.10965223
125	0xbe21ca28	-0.15799773
126	0xbab5f3f4	-0.0013881908
127	0x3d6044a1	0.05475295
128	0xbc4df0ff	-0.012569665
129	0x3e2fb597	0.17159115
130	0xbd0a2077	-0.033722367
131	0xbdec3d70	-0.11535156
132	0x3cf15c5c	0.029462986
133	0xbd4be880	-0.049782276
134	0xbcc686d0	-0.024234205
135	0x3e2f660f	0.17128776
136	0xbba63462	-0.0050721625
137	0x3e1e20c1	0.15442182
138	0x3cc16502	0.023607735
139	0xbd86afb0	-0.065764785
140	0x3e04b74c	0.12960547
141	0xbdce3a48	-0.1006971
142	0x3bbfa8e7	0.005848992
143	0x3d22c0f6	0.039734803
144	0x3da27ece	0.07934342
145	0xbe2704eb	-0.1631047
146	0x3c0e149a	0.008671904
147	0xbd3b7a57	-0.04577097
148	0x3deabbd3	0.11461606
149	0x3d739c85	0.05947544
150	0x3d911aa1	0.07085157
151	0x3dd9ade7	0.10628872
152	0xbd221b6f	-0.039576944
153	0xbc3990ac	-0.011325996
154	0x3e113932	0.14181975
155	0xbe11e64d	-0.14248009
156	0xbdfa3f8e	-0.12219153
157	0x3c53e130	0.012932107
158	0xbd8f69db	-0.07002612
159	0x3c25dfe2	0.010124179
160	0x3e1fe7be	0.15615746
161	0xbca7e018	-0.020492598
162	0xbe1a57e5	-0.15072592
163	0xbda4931d	-0.08035872
164	0x3e263dfd	0.16234584
165	0xbd1f1275	-0.03883596
166	0xbd9ebef6	-0.07751267
167	0x3da2f695	0.07957188
168	0x3cb346ad	0.021884287
169	0xbe1f99de	-0.1558604
170	0x3e16c020	0.14721727
171	0x3dcbdf79	0.099547334
172	0x3e1d56dd	0.15365167
173	0x3d9e6d89	0.07735736
174	0xbd742021	-0.059600953
175	0xbd6c5f80	-0.057708263
176	0x3daf73b3	0.0856699
177	0xbd0c5d7d	-0.034268845
178	0x3d0df539	0.03465769
179	0xbe2f67d5	-0.17129453
180	0xbdb2f6bb	-0.08738466
181	0x3d867a77	0.06566327
182	0xbc0ec8ea	-0.008714894
183	0xbdae0ce3	-0.08498552
184	0xbe1de5b4	-0.15419656
185	0x3de618e6	0.11235218
186	0xbd119509	-0.03554252
187	0xbe31db83	-0.17368893
188	0x3e2ea506	0.17055139
189	0x3db02d7b	0.08602425
190	0xbdd88caa	-0.105737045
191	0xbe041d14	-0.12901717
192	0x3e2eebda	0.17082158
193	0x3a417cd4	0.00073809666
194	0xbdd9bcf9	-0.10631747
195	0x3dd0557f	0.10172557
196	0xbd16d31a	-0.036822416
197	0x3c4667ec	0.012109738
198	0xbdbc991e	-0.09208892
199	0xbe19528b	-0.14972894
200	0xbdf07027	-0.11740141
201	0xbc9f02fd	-0.019410605
202	0xbe030c6c	-0.12797707
203	0x3e326a0c	0.17423266
204	0x3afac6ee	0.0019132772
205	0xbd8a9994	-0.06767574
206	0x3d8f15c1	0.06986571
207	0xbe207c70	-0.15672469
208	0xbdb92e10	-0.09041989
209	0x3d87fb6b	0.06639751
210	0xbe19ce2d	-0.15020056
211	0x3db470ef	0.08810603
212	0x3c737327	0.014858997
213	0xbe16ef6b	-0.14739768
214	0xbe33a640	-0.17543888
215	0x3d64d859	0.055870388
216	0x3dab1fcb	0.083556734
217	0xbd10bf66	-0.03533878
218	0xbe20113c	-0.15631574
219	0xbdd0a8e1	-0.10188461
220	0x3c99ea33	0.018788433
221	0x3bd2bdc6	0.006431314
222	0x3d3958da	0.04525075
223	0x3d00080e	0.03125768
224	0xbc17d05b	-0.009265984
225	0x3dbf0eb2	0.09328975
226	0x3e2f975a	0.1714758
227	0x3e16c161	0.14722206
228	0x3e247ce7	0.16063271
229	0xbd7460e5	-0.05966272
230	0xbd772368	-0.0603365
231	0xbca02af5	-0.019551734
232	0x3d5601e7	0.052247908
233	0x3d928ba9	0.07155544
234	0xbc811538	-0.015757188
235	0xbde9d9ab	-0.1141847
236	0xbe08943f	-0.13337801
237	0x3e2e454b	0.1701862
238	0xbd42ac22	-0.04752744
239	0xbcc3becd	-0.023894692
240	0xbddde10c	-0.1083394
241	0xbdb37bf7	-0.08763879
242	0x3d1f093e	0.038827173
243	0x3d987c5c	0.07445595
244	0xbd8f1f55	-0.06988398
245	0xbd8541a3	-0.0650666
246	0x3e0f6569	0.14003529
247	0xbdba74b9	-0.09104294
248	0xbe070e47	-0.1318904
249	0xbce1ef4d	-0.027579928
250	0x3e2c3f76	0.16821083
251	0x3d1d8d1b	0.038464647
252	0x3cc818a0	0.024425805
253	0xbcb45032	-0.022010896
254	0x3de23be1	0.11046577
255	0xbdb371dd	-0.08761952

emb_net.v_lins1.2.bias f4 [32]
0	0x3df6dcfe	0.1205387
1	0xbd83c6ea	-0.06434424
2	0x3d93690d	0.07197771
3	0xbdac6f35	-0.084196486
4	0xbad843a2	-0.0016499648
5	0x3dd5f683	0.10447409
6	0x3da61f23	0.081114076
7	0xbd227c82	-0.03966952
8	0xbb12b1bc	-0.002238377
9	0xbdc8facd	-0.098134615
10	0x3da7b21f	0.08188271
11	0x3df39bef	0.11894976
12	0x3d793e5b	0.060850482
13	0xbe2f2a64	-0.17106014
14	0xbe019553	-0.12654619
15	0x3df25e71	0.118344195
16	0xbccf5a6b	-0.02531167
17	0x3dde56a0	0.10856366
18	0x3e056e3d	0.13030334
19	0xbd541a33	-0.051782798
20	0xbdd46a80	-0.10371876
21	0xbe2a4d48	-0.16631043
22	0x3d8a7c8e	0.06762038
23	0x3db9af13	0.09066596
24	0xbcfb0f8b	-0.03064706
25	0xbe2fbcf6	-0.17161927
26	0xbde93161	-0.113863714
27	0xbc1c0e08	-0.00952483
28	0x3da53c52	0.08068146
29	0xbd72a02c	-0.059234783
30	0xbde9b77f	-0.11411952
31	0xbdfc0ad4	-0.12306753

emb_net.v_lins1.3.weight f4 [32, 32]
0	0x3e21f69d	0.15816732
1	0x3d831a3a	0.06401487
2	0xbe12f8fe	-0.14352795
3	0xbddf95cf	-0.109172456
4	0xbe19aa99	-0.15006484
5	0x3cd18595	0.025576392
6	0xbd9302e8	-0.07178289
7	0xba1cdf6c	-0.000598422
8	0xbce51874	-0.027965762
9	0xbe1e742d	-0.15474005
10	0xbe21c377	-0.1579722
11	0xbe0c675f	-0.13711308
12	0xbd97a027	-0.074035935
13	0x3ce13d06	0.027494919
14	0xbdaa4226	-0.08313398
15	0xbbce7a00	-0.0063011646
16	0xbcad76ec	-0.02117487
17	0x3e258ca6	0.16166934
18	0xbda50ae4	-0.08058718
19	0x3e2a12e2	0.16608766
20	0xbe0af753	-0.13570909
21	0xbe1707de	-0.14749095
22	0x3d6b7721	0.057486657
23	0xbdd2b46a	-0.102883175
24	0x3db9b2ca	0.090673044
25	0xbdc84c03	-0.09780123
26	0x3e0e8bdd	0.13920541
27	0x3e2f4792	0.17117146
28	0x3c396ba3	0.0113171665
29	0x3d1abfec	0.037780687
30	0x3e28c49b	0.16481249
31	0x3dd69f58	0.10479611
32	0xbe1e0718	-0.15432394
33	0xbbb96d7e	-0.0056588044
34	0xbe2366ef	-0.15957235
35	0x3e0a473c	0.13503736
36	0xbd04a054	-0.032379463
37	0xbaa182a7	-0.0012322263
38	0xbdde6eca	-0.10860975
39	0xbdc4dc2c	-0.09612307
40	0x3cbbf139	0.022942172
41	0x3e155a97	0.14585339
42	0xbdb5fad3	-0.088857315
43	0x3c88d765	0.01670427
44	0x3e23dc23	0.16001944
45	0x3e223b61	0.15842964
46	0xbd0d8fb5	-0.034560878
47	0x3e29a996	0.16568598
48	0x3d83d7da	0.06437655
49	0x3e24dd9e	0.16100165
50	0x3babdd6c	0.0052449014
51	0xbe1969b7	-0.14981733
52	0xbd4518c1	-0.04811931
53	0x3d592c3f	0.053020712
54	0x3dc110da	0.09427042
55	0xbe345539	-0.17610635
56	0x3e0cce49	0.13750567
57	0xbe226358	-0.15858209
58	0x3dd4203b	0.1035771
59	0x3e329b0b	0.17441957
60	0x3d326ff6	0.043563806
61	0xbd08a7f4	-0.033363298
62	0x3dc75728	0.097334206
63	0xbd56e86c	-0.05246775
64	0xbe061641	-0.13094427
65	0xbe00779a	-0.12545624
66	0x3daa395b	0.08311721
67	0x3e0a3fb3	0.13500862
68	0x3bea8f27	0.0071581784
69	0xbe2f83b8	-0.1714009
70	0xbe31defc	-0.17370218
71	0xbd238086	-0.03991749
72	0x3dc36f79	0.09542746
73	0xbdf142c5	-0.117803134
74	0x3d432b1b	0.04764853
75	0xbdc5e127	-0.09662085
76	0x3e1347ac	0.1438281
77	0xbd3dbb13	-0.046320986
78	0xbd16e5aa	-0.03684012
79	0xbe1ec4bd	-0.15504737
80	0xbe222333	-0.1583374
81	0x3c43bf11	0.011947409
82	0x3cea2763	0.028583234
83	0x3dc39901	0.095506676
84	0xbe1e49e0	-0.15457869
85	0x3cfdbf1d	0.030974919
86	0xbcd1331e	-0.02553707
87	0x3dd45ecf	0.10369646
88	0xbda49e15	-0.08037964
89	0x3d57b8dd	0.052666534
90	0x3d91e3fd	0.071235634
91	0x3db5dd9c	0.08880159
92	0xbd7859c8	-0.060632497
93	0x3d690414	0.056888655
94	0xbd0de808	-0.03464511
95	0x3d42faa5	0.047602315
96	0xbdde9e63	-0.108700536
97	0xbe0fd6f3	-0.1404684
98	0xbe141244	-0.14460093
99	0xbde3965c	-0.11112663
100	0xbd99398b	-0.074816786
101	0x3cd78f8a	0.026313562
102	0xbd1e61f7	-0.038667645
103	0xbdce1991	-0.1006347
104	0x3ac2a51b	0.0014850231
105	0xbd64a948	-0.0558255
106	0x3ddf2bf1	0.10897053
107	0xbe1516a8	-0.14559424
108	0xbd85a1b1	-0.06524981
109	0xbde8a871	-0.11360253
110	0x3cb2b06b	0.021812638
111	0x3c1e02a9	0.009644189
112	0xbc269cf2	-0.010169255
113	0x3e339b50	0.17539716
114	0xbd8a1ca4	-0.06743744
115	0xbcd02462	-0.025407974
116	0x3d3b1216	0.045671545
117	0x3e1714b5	0.14753993
118	0x3e093559	0.13399257
119	0x3ca56f5d	0.020194704
120	0xbd88f808	-0.06687933
121	0x3d6ddf70	0.058074415
122	0x3de3ca1a	0.11122532
123	0xbb773e8b	-0.0037726487
124	0x3dc6c57b	0.09705635
125	0x3e142669	0.14467777
126	0xbdc1f80b	-0.094711386
127	0xbd201388	-0.039081126
128	0xbe22f978	-0.15915477
129	0x3d2636e1	0.04057968
130	0x3e0102be	0.12598702
131	0xbd0c9c00	-0.03432846
132	0x3ce71499	0.028208064
133	0x3d675e06	0.056486152
134	0xbb771ad5	-0.0037705202
135	0x3e0cbb58	0.13743341
136	0x3cd306f5	0.025760153
137	0xbe31eea3	-0.17376189
138	0xbe157bb6	-0.14597973
139	0xbe335902	-0.17514423
140	0x3beec030	0.007286094
141	0x3dc3b4db	0.0955598
142	0xbcbf0e44	-0.023322232
143	0x3e22c1bf	0.15894221
144	0xbd02437d	-0.031802643
145	0x3d1409b2	0.03614206
146	0x3e233b85	0.15940674
147	0x3db7398d	0.08946524
148	0xbbb8cd28	-0.005639691
149	0x3e2e5cab	0.17027538
150	0xbdd84e24	-0.10561779
151	0x3d86d9bf	0.065845005
152	0x3de4a40b	0.11164101
153	0xbde02bdb	-0.10945865
154	0xbe2a0a13	-0.16605406
155	0x3d679adc	0.05654417
156	0xbd895a7a	-0.0670671
157	0xbdb6b325	-0.08920888
158	0x3d1005da	0.03516183
159	0xbe035108	-0.1282388
160	0x3e22cf3a	0.15899363
161	0xbc81feb3	-0.01586852
162	0xbd67e334	-0.056613162
163	0x3e17542a	0.147782
164	0x3d499cfc	0.049221978
165	0x3d09f3f0	0.033679903
166	0xbdad1a15	-0.084522404
167	0x3e2c8663	0.1684814
168	0xbd5c8800	-0.053840637
169	0x3e168f2a	0.1470305
170	0xbc54e742	-0.012994589
171	0x3db59cb9	0.08867783
172	0x3dfe8ec0	0.12429571
173	0xbe06c4f3	-0.13161068
174	0xbdf14cc8	-0.11782223
175	0xbe330071	-0.17480637
176	0x3e028ffe	0.12750241
177	0x3e1bac8e	0.15202543
178	0xbd84506a	-0.0646065
179	0xbdb151ab	-0.08658155
180	0x3cf2682d	0.02959069
181	0x3dc2ea04	0.09517291
182	0x3d32ba5c	0.043634757
183	0xbd16e7a7	-0.036842015
184	0xbde6489e	-0.112443194
185	0x3e1ad1ed	0.15119143
186	0xbdea7610	-0.114483
187	0xbe2eeb37	-0.17081915
188	0xbd908d57	-0.070582084
189	0x3d106309	0.035250697
190	0x3d869104	0.06570628
191	0x3d8bfd0e	0.06835376
192	0xbdd1ba82	-0.10240652
193	0xbd8af260	-0.067845106
194	0xbda0fdc3	-0.07860901
195	0xbdaf5217	-0.08560579
196	0xbe1877bf	-0.1488943
197	0x3d1437e7	0.036186125
198	0xbd529304	-0.051409736
199	0xbe2e3b72	-0.17014864
200	0xbdd3668f	-0.10322296
201	0xbdd96bbe	-0.10616253
202	0xbd9c2b85	-0.07625488
203	0xbddfb488	-0.109231055
204	0xbcfb234c	-0.03065648
205	0x3d81bdbe	0.063350186
206	0xbe128060	-0.14306784
207	0xbc781c7c	-0.01514351
208	0xbd5061cb	-0.050874513
209	0xbdb91862	-0.09037854
210	0xbd20c7b6	-0.03925296
211	0xbd99717c	-0.074923486
212	0x3bba3841	0.0056829755
213	0xbe02ab37	-0.12760626
214	0x3d09502e	0.03352373
215	0x3e26331f	0.16230439
216	0x3e15fea0	0.14647913
217	0xbda252c7	-0.07925945
218	0x3d5f2e5c	0.05448757
219	0xbe2b19a8	-0.16709006
220	0x3e186875	0.14883597
221	0xbe3465c2	-0.17616943
222	0xbe21c37d	-0.15797229
223	0xbe227cfd	-0.15867992
224	0xbe281ab5	-0.16416438
225	0x3cc41f96	0.023940843
226	0xbd3f783e	-0.04674553
227	0x3d2d4e5b	0.042311054
228	0xbc3334e9	-0.010937908
229	0xbb78dd42	-0.0037973677
230	0xbd82cc3f	-0.06386613
231	0xbdd6cbaf	-0.10488068
232	0xbe178f38	-0.14800727
233	0x3db6adc7	0.08919864
234	0xbdbaaaba	-0.09114595
235	0xbd134311	-0.03595263
236	0x3dafd71d	0.085859515
237	0xbd335389	-0.043780837
238	0xbd3690a4	-0.044571534
239	0xbdf159f9	-0.11784739
240	0xbe1ae158	-0.15125024
241	0x3dadc43e	0.08484696
242	0xbd235d6f	-0.039884027
243	0x3de3a6d5	0.11115805
244	0x3c3ea000	0.011634827
245	0xb96b71c8	-0.00022453733
246	0xbe236ca8	-0.15959418
247	0x3b7fc780	0.0039028823
248	0xbd23a39d	-0.039950956
249	0xbdce977a	-0.100874856
250	0xbd279431	-0.04091281
251	0x3c176a5b	0.009241666
252	0xbe086516	-0.13319811
253	0x3cf0cdec	0.029395066
254	0x3dfbe974	0.12300387
255	0x3d0f0a19	0.03492174

emb_net.v_lins1.3.bias f4 [32]
0	0xbe1141d8	-0.14185274
1	0x3d0e82ee	0.034792833
2	0x3de96297	0.11395758
3	0xbd27dafd	-0.040980328
4	0x3c88dd2f	0.016707031
5	0x3cb8bf3c	0.022552125
6	0x3c790f49	0.015201398
7	0x3d3c391b	0.045952898
8	0xbe2d5192	-0.16925648
9	0x3e095796	0.13412318
10	0x3d9de6be	0.07710026
11	0x3cb2d55d	0.021830255
12	0x3d03c0d1	0.032166306
13	0xbe11fc7d	-0.14256473
14	0xbd4ebd3d	-0.05047344
15	0xbbfbf5c0	-0.007689208
16	0x3d2c1eb2	0.04202146
17	0xbdc6997c	-0.096972436
18	0x3c99a7d2	0.01875678
19	0xbd60b739	-0.054862235
20	0x3e03c2a1	0.12867214
21	0xbe1b6146	-0.15173826
22	0x3c976135	0.01847897
23	0x3df5477d	0.11976526
24	0xbe0c9830	-0.1372993
25	0xbba6063e	-0.005066662
26	0x3da74b9f	0.081687205
27	0x3d92177c	0.071333855
28	0x3caa4da4	0.020788975
29	0x3d925958	0.07145947
30	0xbdfc6042	-0.12323047
31	0x3e16c4b2	0.14723471

emb_net.v_lins1.4.weight f4 [32, 32]
0	0x3b8131af	0.0039426903
1	0x3dea0646	0.11426978
2	0x3d202e29	0.03910652
3	0xbca11a7d	-0.01966595
4	0x3d9b1321	0.07572008
5	0x3e2bd77d	0.16781421
6	0x3e328f7e	0.1743755
7	0xbe185f52	-0.14880112
8	0x3c2fa8cf	0.010721399
9	0xbe020a3d	-0.12699218
10	0x3dd2f0f6	0.10299866
11	0x3e01f3e9	0.126907
12	0xbdfe3901	-0.124132164
13	0xbc2764e1	-0.0102169225
14	0x3dfa85e3	0.12232568
15	0x3def6b2a	0.11690362
16	0xbe081a59	-0.13291301
17	0x3df3156e	0.11869322
18	0xbd0030b7	-0.031296458
19	0xbe19f3b1	-0.15034367
20	0x3d103c4c	0.035213754
21	0x3da8a8fd	0.08235357
22	0x3dd91f47	0.10601669
23	0xbdf6288c	-0.120194525
24	0xbe031bf2	-0.12803629
25	0xbdf34027	-0.118774705
26	0x3dcd2bf8	0.10018152
27	0xbe1e351d	-0.15449949
28	0xbac3629d	-0.0014906708
29	0xbd54c727	-0.05194774
30	0x3d9e1158	0.07718152
31	0x3d0e327a	0.034716107
32	0xbdb6d218	-0.08926791
33	0x3cfcf1bf	0.030876992
34	0x3e269614	0.16268188
35	0x3cee6df1	0.029105159
36	0xbdb367f7	-0.08760064
37	0x3bc1efbc	0.005918471
38	0xbe260a1e	-0.16214797
39	0xbde84858	-0.113419235
40	0xbd067ef3	-0.032835912
41	0xbde19ae1	-0.11015869
42	0x3e194a36	0.14969715
43	0x3d0c8d04	0.03431417
44	0x3e0c350a	0.13692108
45	0xbd24e0fe	-0.04025363
46	0xbcc96700	-0.024585247
47	0x3d36a526	0.04459109
48	0xbd574bfd	-0.052562702
49	0xbd76d17e	-0.06025838
50	0xbe319356	-0.1734136
51	0x3e085ece	0.13317415
52	0x3e23d3e8	0.15998805
53	0xbe333b35	-0.17503054
54	0xbd6f912f	-0.058488067
55	0xbe08ebbc	-0.13371176
56	0xbd92f5f2	-0.071758166
57	0x3e09cfdc	0.13458198
58	0x3dc1a97d	0.094561554
59	0xbc60bb01	-0.01371646
60	0x3d9aa099	0.07550163
61	0x3d583d2e	0.05279272
62	0x3dc5b736	0.09654085
63	0xbe11779a	-0.1420578
64	0x3d5fd148	0.054642946
65	0xbe2b7132	-0.167424
66	0xbdee19b0	-0.11625993
67	0xbd86ea4a	-0.06587656
68	0xbc8d17c4	-0.017223246
69	0xbe2ad42c	-0.166825
70	0x3b90297e	0.0043994775
71	0x3ce73514	0.028223552
72	0xbd8fae4d	-0.07015667
73	0x3d6adb58	0.05733809
74	0x3e1e2dcd	0.15447159
75	0xbcf75db3	-0.030196046
76	0xbdc0d065	-0.09414748
77	0xbe205a21	-0.15659381
78	0xbe042e4a	-0.12908283
79	0xbdc83d32	-0.09777297
80	0xbe05d2ac	-0.13068646
81	0xbd8e55eb	-0.06949981
82	0x3dc7710e	0.0973836
83	0x3d62946f	0.05531734
84	0x3e232836	0.15933308
85	0x3e33b977	0.17551218
86	0xbd825f62	-0.06365849
87	0xbd8dc800	-0.069229126
88	0x3cc62c37	0.024191005
89	0xbe102479	-0.14076413
90	0x3dc4eb71	0.096152194
91	0xbd025163	-0.031815898
92	0xbe17929e	-0.14802024
93	0xbe08aa91	-0.13346316
94	0xbdf97829	-0.12181122
95	0x3d4703a4	0.048587456
96	0x3e0ac39a	0.13551179
97	0x3e0f69be	0.14005181
98	0xbd4760d8	-0.04867634
99	0xbdd24ad5	-0.10268179
100	0xbda0af76	-0.078459665
101	0xbdf750ce	-0.12075959
102	0xbd3aaece	-0.045576863
103	0xbe237c78	-0.1596545
104	0x3dc1823e	0.0944867
105	0xbe2a5fe2	-0.16638139
106	0xbde13533	-0.10996475
107	0x3df2f6d9	0.11863489
108	0xbe076775	-0.1322306
109	0x3d2d19f0	0.042261064
110	0x3e079678	0.13240993
111	0x3e326ee9	0.17425121
112	0x3db73015	0.08944718
113	0xbd425156	-0.04744085
114	0x3dcee1b9	0.10101647
115	0xbbbf2c19	-0.0058341143
116	0xbd5f431c	-0.05450736
117	0x3a16ec50	0.0005757259
118	0x3d226ac9	0.03965262
119	0x3df2c10d	0.11853228
120	0x3d97f88a	0.07420452
121	0x3dacdeb8	0.08440918
122	0x3cd8a3ee	0.026445355
123	0xbc11c69f	-0.008897453
124	0x3d9804d6	0.074227974
125	0x3d2e2824	0.04251875
126	0xbe2d3734	-0.1691559
127	0x3cea2177	0.02858041
128	0xbda0c748	-0.0785051
129	0xbdbffd04	-0.09374431
130	0x3d8c02e6	0.0683649
131	0x3d1410ca	0.036148824
132	0x3cf53c41	0.029935958
133	0xbdabbec3	-0.08385994
134	0x3da749e6	0.08168392
135	0x3e29dfd1	0.16589285
136	0x3cb129bd	0.021626348
137	0x3d94ceb4	0.07265988
138	0xbe1ed037	-0.15509115
139	0x3dd73af1	0.10509289
140	0x3d7b892a	0.061410107
141	0x3da31bcb	0.079642855
142	0x3d96f97f	0.07371806
143	0xbd3e733c	-0.046496615
144	0xbc2dd9eb	-0.010611038
145	0x3e2f181a	0.17099038
146	0x3e047557	0.12935387
147	0xbe01c0a8	-0.12671149
148	0x3e0fa001	0.1402588
149	0x3e3427f9	0.17593373
150	0x3cbe72e1	0.023248138
151	0xbe0d3a61	-0.13791801
152	0x3d0c5b09	0.034266505
153	0xbd123c39	-0.035701964
154	0x3e022689	0.12710012
155	0xbe2deba5	-0.16984423
156	0x3d394b3e	0.045237772
157	0xbb07e1c4	-0.0020733932
158	0x3c640174	0.013916362
159	0x3df90b22	0.121603265
160	0x3b5148c6	0.0031934245
161	0xbe11bc35	-0.14231952
162	0xbdd330d2	-0.10312046
163	0xbd90f631	-0.07078207
164	0x3c9a723b	0.018853297
165	0x3d8bb5ef	0.068218105
166	0xbd07276b	-0.032996576
167	0xbd8ee384	-0.06976989
168	0x3d9edd67	0.07757073
169	0xbe3001ac	-0.17188138
170	0x3dfcfc5f	0.123528235
171	0xbca85809	-0.020549791
172	0x3dfbeac7	0.123006396
173	0x3e08c7de	0.13357493
174	0x3c9ab3ae	0.018884506
175	0x3d650ba3	0.0559193
176	0xbdccc57b	-0.09998604
177	0x3e01b28d	0.12665768
178	0x3dd3e642	0.103466526
179	0xbce3720b	-0.02776434
180	0x3d8d1d4a	0.06890352
181	0xbc223b4c	-0.009901833
182	0x3e0d6db9	0.13811387
183	0x3d950809	0.07276923
184	0x3e03f8ba	0.1288785
185	0xbe248af2	-0.16068628
186	0x3e305f3a	0.17223826
187	0x3d86e38c	0.0658637
188	0x3db00445	0.08594564
189	0x3d215879	0.039391015
190	0x3dedc845	0.11610464
191	0x3e2a6a5e	0.16642138
192	0xbc76bce0	-0.01505968
193	0xbe1487b0	-0.14504886
194	0x3e263932	0.16232756
195	0xbd18b3a5	-0.037280697
196	0xbdae9a46	-0.08525519
197	0x3ddedda6	0.1088212
198	0x3dca0bc7	0.098655276
199	0x3cc1e1d0	0.023667246
200	0xbc35ced4	-0.011096675
201	0xbd0a8441	-0.033817533
202	0x3e25fa76	0.16208825
203	0x3ddc95ab	0.107707344
204	0x3dd79b65	0.10527686
205	0x3de6dd39	0.112726636
206	0xbdbd79ef	-0.092517726
207	0x3d172f12	0.036910124
208	0xbe1c9913	-0.15292768
209	0x3dd25645	0.10270361
210	0xbe336d82	-0.17522243
211	0xbe34e957	-0.17667137
212	0xbe32ef32	-0.17474058
213	0x3ddf41ea	0.10901244
214	0x3c96b59a	0.018397141
215	0x39d2c313	0.00040199663
216	0x3ce655fd	0.028117174
217	0xbd890394	-0.066901356
218	0xbd5be032	-0.053680606
219	0xbdf3ddcb	-0.11907538
220	0xbd30d4fa	-0.04317186
221	0xbddec68f	-0.10877716
222	0x3b986835	0.0046510943
223	0x3e0e3a60	0.13889456
224	0xbe15a5b4	-0.14613992
225	0x3db20a4d	0.08693371
226	0xbe06a44e	-0.13148615
227	0xbd960054	-0.07324281
228	0x3d0d96d8	0.034567684
229	0x3cf92e0c	0.030417465
230	0x3e14731a	0.14497033
231	0xb88aae6b	-6.612841e-05
232	0xbd89e39c	-0.06732866
233	0xbd95ba4b	-0.07310923
234	0x3ba9d3ee	0.0051827347
235	0xbe07bbc7	-0.13255225
236	0xbe0dee02	-0.13860324
237	0xbd9ae72d	-0.075636245
238	0x3b94cd6f	0.004541091
239	0xbdf47fe6	-0.11938457
240	0xbdcea9e8	-0.10091001
241	0x3e013f37	0.12621771
242	0x3e27488c	0.16336268
243	0xbd62ce7b	-0.055372696
244	0xbe1b4da4	-0.15166336
245	0xbd8a9b97	-0.06767958
246	0x3d921e9f	0.07134747
247	0x3d6afee0	0.057371974
248	0xbd6076b9	-0.054800723
249	0xbe1f6d60	-0.15569067
250	0xbd59b8ad	-0.053154636
251	0xbd21e661	-0.039526347
252	0x3dd07c0e	0.101799116
253	0xbdb3862c	-0.08765826
254	0x3dd9486c	0.106095165
255	0x3cc8e2c5	0.024522195

emb_net.v_lins1.4.bias f4 [32]
0	0x3d630f07	0.055434253
1	0xbbdeede1	-0.0068032597
2	0xbd557158	-0.052110046
3	0xba20534e	-0.0006115929
4	0xbe2f776f	-0.17135404
5	0xbdff081e	-0.1245272
6	0x3cbfb053	0.023399508
7	0x3e2ed07d	0.1707172
8	0xbdd696a9	-0.10477955
9	0x3de818b9	0.113328405
10	0x3c8488c0	0.016178489
11	0xbd9bc2a8	-0.07605487
12	0x394b1826	0.00019368585
13	0x3dad920c	0.08475122
14	0x3cac49a7	0.021031214
15	0x3e203de2	0.15648606
16	0xbd09097d	-0.033456314
17	0xbdf1c333	-0.118048094
18	0x3e239376	0.1597422
19	0xbd4ecc06	-0.05048754
20	0x3de5b6b6	0.1121649
21	0x3deeccaf	0.11660134
22	0x3d003cc2	0.031307943
23	0xbe149236	-0.145089
24	0xbe31b6e7	-0.17354928
25	0x3dabdf7f	0.08392238
26	0x3d3107d2	0.04322035
27	0x3dd2a83a	0.10285993
28	0xbe1f8d32	-0.15581205
29	0xbcc783ea	-0.024354894
30	0x3e1c66a4	0.1527353
31	0x3dbe3546	0.09287505

emb_net.v_lins1.5.weight f4 [32, 32]
0	0x3e166ee8	0.14690745
1	0x3e0e1f49	0.13879122
2	0xbd31aa3c	-0.04337524
3	0xbdf68adc	-0.12038204
4	0xbdd7e122	-0.105409876
5	0x3d75ea7d	0.06003808
6	0xbd8fb4c4	-0.070169
7	0x3a37c978	0.0007010917
8	0x3ce71a1f	0.028210698
9	0x3de0bec5	0.109738864
10	0x3dc9e905	0.09858898
11	0x3dcea155	0.100893654
12	0x3beb6de4	0.007184731
13	0x3dcc6387	0.09979921
14	0xbda97d1c	-0.08275816
15	0xbd90e7ba	-0.07075448
16	0xbce54a7b	-0.027989617
17	0xbdd23eb9	-0.1026587
18	0x3e217808	0.15768445
19	0xbcdde89b	-0.027088454
20	0x3d5281c7	0.051393297
21	0xbbb418f4	-0.0054961387
22	0xbb1e7389	-0.002417775
23	0xbdc0f69d	-0.09422038
24	0xbc54a38e	-0.012978448
25	0xbe21ebc1	-0.15812589
26	0xbdad2160	-0.084536314
27	0x3e0b4e2e	0.13604042
28	0xbe29c98b	-0.16580789
29	0x3cee4f46	0.029090535
30	0x3ce6b55c	0.02816265
31	0xbe2d4198	-0.16919553
32	0x3d0d6c49	0.034527097
33	0x3da81994	0.08208004
34	0x3e031beb	0.12803619
35	0x3d07879c	0.03308831
36	0x3e0d7fa3	0.13818221
37	0x3bda0910	0.0066539124
38	0x3d89f1dd	0.06735585
39	0x3d55c112	0.05218608
40	0xbe0578b3	-0.13034324
41	0xbd1ef204	-0.038805023
42	0xbdfef33f	-0.12448739
43	0x3e0ca6d2	0.13735512
44	0x3dacb6b6	0.08433287
45	0xbd998b01	-0.07497216
46	0xbd0480af	-0.032349285
47	0x3d414bcc	0.047191426
48	0xbe1dd5c1	-0.15413572
49	0x3ba390eb	0.004991641
50	0x3dacb2f5	0.08432571
51	0x3cb57473	0.022150254
52	0xbc853ec9	-0.01626529
53	0x3de8c16c	0.11365017
54	0x3d9d7b6d	0.07689557
55	0xbe20ecdd	-0.15715356
56	0x3dd51087	0.10403543
57	0xbe0ec663	-0.13942866
58	0x3dcb5deb	0.09930023
59	0x3e186d43	0.1488543
60	0x3c857635	0.016291717
61	0xbd74b795	-0.05974539
62	0xbdbb0277	-0.091313295
63	0xbda0c26e	-0.078495845
64	0xbd05787b	-0.032585602
65	0xbd96183a	-0.073288396
66	0x3e33b33c	0.17548841
67	0xbd9c29e8	-0.076251805
68	0x3d96507c	0.0733957
69	0xbe27dd31	-0.16392972
70	0x3db77ffa	0.089599565
71	0x3e1a081e	0.15042159
72	0xbe01c451	-0.12672545
73	0xbd38be4e	-0.045103364
74	0x3d2c938b	0.042132895
75	0xbe2d46d2	-0.16921547
76	0xbde5119a	-0.11184998
77	0x3d7bd2ae	0.061480217
78	0x3e2a74bc	0.16646093
79	0xbd585051	-0.05281097
80	0xbad30421	-0.0016099253
81	0xbe2ebe82	-0.1706486
82	0xbe2dc03e	-0.16967866
83	0x3e1d6daf	0.15373872
84	0x3e199d46	0.15001401
85	0xbd5cad25	-0.05387606
86	0xbd8f2824	-0.06990078
87	0xbc3b7e7f	-0.011443733
88	0x3da7fb92	0.0820228
89	0xbe2eef5d	-0.17083497
90	0xbdc88a84	-0.09792045
91	0xbd6eb50d	-0.058278132
92	0xbd9d94b5	-0.07694379
93	0xbb990699	-0.004669976
94	0x3e040974	0.12894231
95	0x3d1e1808	0.038597137
96	0xbe23d1b1	-0.1599796
97	0x3e276bee	0.16349766
98	0x3e11c13d	0.14233871
99	0x3d63fabd	0.055659045
100	0x3db135f6	0.0865287
101	0x3d8756eb	0.06608375
102	0x3e146001	0.14489748
103	0xbe2e1a8e	-0.17002317
104	0xbde15fcb	-0.11004599
105	0xbcb7e7f7	-0.022449477
106	0xbd09bbe7	-0.033626463
107	0xbdf070af	-0.11740243
108	0xbe2d98e2	-0.16952851
109	0xbe0a3fba	-0.13500872
110	0xbce0eb21	-0.027455868
111	0x3e19a9a2	0.15006116
112	0x3df0063e	0.117199406
113	0x3d50b5e5	0.05095472
114	0xbdde5bb5	-0.108573355
115	0xbd91a590	-0.07111657
116	0x3c8b81ee	0.017029729
117	0xbe27c9b1	-0.16385533
118	0xbc043786	-0.008069878
119	0x3d133df6	0.035947762
120	0x3e23a83b	0.15982144
121	0xbd3e11ad	-0.046403576
122	0x3e31af36	0.17351994
123	0x3c5a823f	0.013336717
124	0xbdfb2d73	-0.12264528
125	0x3e2b15ef	0.16707586
126	0x3e1cf08f	0.15326141
127	0xbe0f08a1	-0.13968135
128	0xbdd2044a	-0.10254724
129	0x3dad1bd4	0.084525734
130	0xbddec3cc	-0.10877189
131	0x3df62b3f	0.12019967
132	0xbdacbd79	-0.084345765
133	0xbd60ba2f	-0.05486506
134	0xbd4fdbdd	-0.050746787
135	0x3e2cb2bf	0.16865061
136	0xbd74da85	-0.05977871
137	0xbd0ccb33	-0.034373473
138	0x3ddb0faa	0.10696347
139	0xbdf7b46e	-0.12094961
140	0xba5f3820	-0.0008515138
141	0xbe0bd2dc	-0.13654655
142	0xbe2713b6	-0.16316113
143	0xbd2550b7	-0.04036018
144	0x3ca01651	0.019541891
145	0x3e1a5e12	0.15074947
146	0xbe2d9898	-0.16952741
147	0xbd505992	-0.05086667
148	0x3d3e8be5	0.046520133
149	0x3d88b5ad	0.06675277
150	0x3dd385b2	0.10328235
151	0xbe118e40	-0.1421442
152	0xbd310482	-0.04321719
153	0x3d276de0	0.04087627
154	0xbe111b39	-0.14170541
155	0x3db66f93	0.08908
156	0xbe2cb908	-0.16867459
157	0x3de1e821	0.11030603
158	0x3d6b687a	0.057472683
159	0xbd4dac4c	-0.050213143
160	0x3d6ae7eb	0.05735008
161	0x3e1951ce	0.14972612
162	0x3e052a44	0.13004404
163	0x3ddb987e	0.10722445
164	0xbdd2c0e9	-0.10290701
165	0x3d5011f5	0.050798375
166	0x3e07d82a	0.13266054
167	0x3cff69ad	0.03117832
168	0x3defb1cf	0.11703836
169	0xbde087b1	-0.10963381
170	0x3dfe75bf	0.12424802
171	0xbbc02587	-0.0058638486
172	0xbe226877	-0.15860163
173	0xbd3bb30b	-0.045825046
174	0x3e1ffe4e	0.15624353
175	0xbd7cf3a5	-0.061755795
176	0xbcfad0be	-0.030617114
177	0xbd90d456	-0.0707175
178	0xbdc4d9b8	-0.09611839
179	0x3cfae364	0.030626006
180	0x3ddb9fea	0.107238606
181	0x3cab3cbb	0.020902982
182	0xbc32a328	-0.010903157
183	0x3c278ae3	0.010225984
184	0xbe07be9e	-0.13256308
185	0xbdbec1e3	-0.09314325
186	0x3c10ee12	0.008845823
187	0xbe10b00f	-0.14129661
188	0x3db3518f	0.087557904
189	0x3cdcba3a	0.026944268
190	0x3af3fabe	0.0018614156
191	0xbc39dda8	-0.011344351
192	0x3e18e369	0.149305
193	0x3e2533e2	0.16133073
194	0x3db0c623	0.086315416
195	0x3db3d05d	0.087799765
196	0xbdaf8b7f	-0.08571529
197	0x3d93fefe	0.0722637
198	0xbdf4ded1	-0.11956561
199	0x3d9c76d6	0.07639854
200	0xbe0089e5	-0.12552603
201	0xba7d79c6	-0.000966933
202	0x3e03333b	0.12812512
203	0x3df067a5	0.117385186
204	0x3e200ef0	0.15630698
205	0x3d76ffc9	0.06030253
206	0x3d8c8910	0.0686208
207	0x3d422c59	0.047405574
208	0x3e042ed1	0.12908484
209	0x3dbdfb12	0.092764035
210	0x3d55a738	0.052161425
211	0xbd7ca47e	-0.06168031
212	0xbdaf36ad	-0.085553505
213	0xbd330485	-0.043705482
214	0x3dacc765	0.08436469
215	0xbdc51296	-0.096226856
216	0x3d45d2cf	0.048296746
217	0x3e1e5fd0	0.15466237
218	0x3e19470d	0.1496851
219	0xbe054665	-0.13015135
220	0x3d4e62ff	0.05038738
221	0x3decba25	0.11558942
222	0xbe246c7b	-0.16057007
223	0x3de7628e	0.11298095
224	0xbde19536	-0.11014788
225	0xbe02e2c5	-0.12781818
226	0xbd997735	-0.0749344
227	0xbd882cda	-0.0664918
228	0xbd95ae8f	-0.07308685
229	0x3d50760e	0.050893836
230	0x3d8c410f	0.068483464
231	0x3d8cb481	0.06870366
232	0x3df9f645	0.12205175
233	0xbde510ac	-0.111848205
234	0xbe2be218	-0.16785467
235	0xbe113804	-0.14181525
236	0xbdc6fc4e	-0.09716092
237	0xbda59989	-0.08085925
238	0x3d9f15a9	0.07767803
239	0xbe02ff25	-0.12792642
240	0xbe0459c0	-0.12924862
241	0x3dc1e21a	0.094669536
242	0xbde65ca1	-0.11248136
243	0x3d07cf45	0.033156652
244	0xbe0a067c	-0.13479036
245	0x3d8a233a	0.06745
246	0x3de23a17	0.11046236
247	0xbe1843a6	-0.14869556
248	0x3d764c23	0.060131203
249	0xbdbdce83	-0.092679046
250	0x3de5c381	0.1121893
251	0x3e22cf59	0.1589941
252	0xbe18b655	-0.14913304
253	0x3d876b83	0.06612303
254	0x3df48024	0.119385034
255	0x3e2493d4	0.16072017

emb_net.v_lins1.5.bias f4 [32]
0	0x3d53a3fb	0.051670056
1	0xbd92cf85	-0.071684875
2	0xbd545e48	-0.051847726
3	0x3cf6db31	0.030133815
4	0x3d199cdc	0.03750311
5	0x3e19af39	0.15008248
6	0x3e2cf8fb	0.16891854
7	0x3c2727b7	0.01020234
8	0x3e2a45d4	0.166282
9	0xbdd61dca	-0.104549006
10	0x3ac425c6	0.0014964871
11	0xbe158115	-0.14600022
12	0x3dad6de0	0.084682226
13	0x3d106aae	0.035257988
14	0xbddb4e3f	-0.10708284
15	0xbe0a1fbf	-0.13488673
16	0xbd0fc614	-0.03510101
17	0xbd88bdda	-0.06676836
18	0xbd93890f	-0.07203876
19	0xbe1da851	-0.15396239
20	0xbde6ab10	-0.11263096
21	0x3e163dfb	0.14672081
22	0xbdb20fb1	-0.08694399
23	0x3d935cda	0.071954444
24	0x3c454279	0.012039774
25	0xbcc5a9e3	-0.02412886
26	0x3d6ce152	0.05783207
27	0x3e084ea9	0.13311256
28	0x3d619f22	0.0550834
29	0x3c9cfcd0	0.01916352
30	0x3e12f00c	0.14349383
31	0x3c6faa27	0.01462797
