pretrained/bpp/120/bpp120_sd0/20.pt (torch, 348709 bytes, 229 tensors)

emb_net.v_lin0.weight f4 [32, 1]
00000000: 3a8a c7bb 4523 093f 36ae 51bf b8bf 3cbf
00000010: d855 d0be 617c 883e e135 adbc 921b 4c3f
00000020: 4363 c1bd ff85 883e 061e 9abe a5a4 3abe
00000030: 7b72 74bf a432 2ebf 1a07 d7be 868c 0c3d
00000040: b214 ca3e a938 173f 7ab9 33bf 6db3 cfbe
00000050: a08b b83e ba61 543f cfa1 38be ae04 3f3f
00000060: 69f5 24be bd34 d03d 5213 663f aa1a 6dbf
00000070: 5b2f 19bf 2c79 5cbe e624 d0be 2864 5b3f
-0.006089476 0.5356944 -0.8190645 -0.7373004 -0.40690494 0.26657394 -0.021143856 0.7972957
-0.09442761 0.2666473 -0.3010103 -0.1822687 -0.95487183 -0.6804602 -0.41997606 0.0343137
0.39468914 0.5907083 -0.7020489 -0.40566579 0.36044025 0.8296162 -0.18030475 0.74616516
-0.16109242 0.10166309 0.8987323 -0.9261881 -0.59837884 -0.21530598 -0.4065315 0.856997

emb_net.v_lin0.bias f4 [32]
00000000: f857 24bf efd2 f7be c55a 35bf 5331 6cbf
00000010: 9303 1dbf df50 5b3f d057 df3e e5f6 003f
00000020: 2139 1b3d fae2 00bf 4d35 213e 8306 6cbf
00000030: 7666 32bf 7ae7 09bf 3c53 213f 88da 133f
00000040: 3ce4 f1be fb63 b8bc 590a 223f 9fc7 823f
00000050: a45b c03e 1bc0 1e3e 0b98 333f 53cc 18bf
00000060: d1e5 2d3e cd24 4abf bfd0 2bbf f4f6 03bf
00000070: 214a f03e ab5f d73e 3b7c 1bbf 38de a93e
-0.6419673 -0.48403117 -0.7084163 -0.9226276 -0.6133358 0.85670274 0.43621683 0.5037673
0.03789628 -0.5034634 0.15742989 -0.92197436 -0.69687593 -0.5386883 0.6301763 0.5775533
-0.47244442 -0.022508612 0.6329704 1.021717 0.37569916 0.1550297 0.70153874 -0.59686774
0.16982199 -0.78962404 -0.67115396 -0.51548696 0.46931556 0.42065176 -0.60736436 0.33177352

emb_net.v_lins1.0.weight f4 [32, 32]
00000000: 9cd4 b83d e90a a7bc f934 9f3b b1ef 1f3d
00000010: 11a2 dc3d dab3 2d3e 07db 12be d79f 83bd
00000020: d4f4 aa3d 5c8b 1d3e 7f8b 203e 0f9a 203e
00000030: b443 083d 293b 1fbe 3fbe 943c 7ce1 e9bd
00000040: f305 26be 4a85 213e b67a 0b3e b684 32be
00000050: 419f 083d e55f eebc 44dd b9bc 3bf1 a1bd
00000060: 167e a83d 6946 c4bd 233c 883d d11e b33d
00000070: 1e67 033e 2ea0 913d 03f2 34be db8b e9bd
00000080: d28f c43d 1b84 ee3c b54f 15be 19af e0bd
00000090: b104 223e 8d9d e33d 50ef 90bd f2ff 56bd
000000a0: a247 24be 7377 17bc 4e13 fdbd 1530 12be
000000b0: ee02 91bc 2667 973c a4a1 83bd 5852 cd3d
000000c0: 42e9 ebbd f3f4 1b3e 061c 043e 6f38 10be
000000d0: 1aae 54bd e79f 05b8 8db1 113d 074a 0b3d
000000e0: 16e8 a53d 5848 903c b4b2 c0bd 79d9 9a3d
000000f0: 843e 25be 37d2 c1bd cdb8 55bd 3c9b c0bd
00000100: 885b 9fbd d317 22be f289 a4bc f327 623d
00000110: 2dc5 c7bd f179 223c 5bae e23d f8a2 b93b
00000120: f584 24bc 38a7 03bd 119e 8c3c f35b 033e
00000130: da2c 3d3e 55e0 043e 68c2 193e 970f e2bc
00000140: 89cc 31be b44a 98bd e7b5 d23d 906a 9abc
00000150: a9f7 88bd 9571 f2bd fc1a 3dbe 9fdc 25be
00000160: 23ad 61bd 39e1 a53d 93f0 a93d 1a9e 1cbe
00000170: 0485 bd3d 99e1 21be f4ba a2bc 2fea 3abd
00000180: 7973 febc 55ac 28bd 5137 1abe 1d13 14be
00000190: a1be a2bc f41d 88bb 22cf 98bd 45f9 753d
000001a0: f174 2abe b2c0 96bc 4294 143e d535 87bd
000001b0: df7f 2b3e 8627 933d 5e79 2bbe 8fd8 d43d
000001c0: 1521 dcbc 9ce3 aebd c18a 083e 503f 1abe
000001d0: 3f40 4c3c 0921 32bd 436f e43d 3a5c 2f3d
000001e0: c409 963d d367 603d e6a3 48bd 97d5 efbc
000001f0: 9c12 1dbe 51c7 aa3d a1a0 173e 8e35 ea3d
00000200: 5da3 eabd 0390 c7bc 8a3a 05be 6d8e d2bd
00000210: 82b3 debd 335f 383d 79d2 c2bd e280 bebc
00000220: 19d6 83bc 4e45 a73d a8fd 08be ef0a 08be
00000230: 6677 ddbd 6cc2 f13d 5807 6ebd b9e7 273e
00000240: a3de f93c b38d 14b8 16a1 8a3b 0a8e f1bc
00000250: 2a03 8c3b 7ba6 7bbd 7c77 41bc 6f84 1cbc
00000260: 3339 27be 2ff5 e7bd 6668 e23d 5d85 18be
00000270: 3f67 e8bb 2fc8 2d3e cfc1 6d3d 498f 79bc
00000280: 76fb 28be 88cf 993d 79a4 e4bd e350 13bd
00000290: ec8b 38bd aa11 dbbc a928 1dbc 2d82 0a3e
000002a0: 0e71 a73b 52cb 143e 7de4 c03d df2d c8bd
000002b0: fe4a bf3d 81a9 e2bd 0250 b6bd db2b 1f3d
000002c0: 587f 3b3d 9e24 f83d 6877 91bd 5faf 63bc
000002d0: 54b6 a83d ba36 3abe cb6f e73d 4441 22be
000002e0: 24ce 58bc 4f38 39bd 82d6 d7bd 91b7 193d
000002f0: 4507 073e 0011 87bd 93ad b9bd 70cd 9bbd
00000300: 9acc 22be a3e4 b53d 4e43 d0bd abf1 09be
00000310: 5c58 f3bd 974c df3d 2d2a e73d 096e 133e
00000320: 4f30 653d ec5d 4cbd d970 1abd a80c f03c
00000330: b385 033e 04de fe3c 7000 89bd ac8c 90bd
00000340: 849f 21be 2795 3f3d c89f a8bd f914 10be
00000350: 6ff9 263e f680 d9bd 65e9 89bc 5854 743d
00000360: b02c b1bb c6ad ecbd b8fe 08be a6e5 fd3d
00000370: fe50 3b3d 8f5b 1c3e ad1d 9cbd b6af 773d
00000380: 877f 3abd 92bc 5e3c 5c2b b3bd ad81 a33d
00000390: aad6 9a3d b154 863c 6ed4 31bd 2ddd b4bd
000003a0: 22ad 9d3d 6bad fdbd 4273 2e3d 81f9 4fbd
000003b0: 8d69 85bd ba5e 543d 30e4 e5bd 0d0b e93c
000003c0: 3605 5b3d 1c07 e2bd 0ac8 183c a75b 603d
000003d0: e8fd b83d 2754 c8ba 685c 39be 79d2 bebb
000003e0: 8eef 243c 03fd abbd 3f2d b53d 1e03 0d3e
000003f0: e31a e6bd 29de 06bd 1e0c be3d f242 0d3d
0.09024927 -0.020390945 0.0048586098 0.039046947 0.10773099 0.16963139 -0.14341365 -0.064269714
0.083474785 0.15385193 0.15678214 0.15683769 0.03326769 -0.15549912 0.018157123 -0.11419961
-0.16213207 0.15773502 0.1362103 -0.17433438 0.033355 -0.02909846 -0.022688515 -0.07907339
0.08227174 -0.09583742 0.06652095 0.08746112 0.12832305 0.0711063 -0.17670445 -0.114036284
0.09597744 0.029115727 -0.14581187 -0.10970897 0.15822102 0.11114035 -0.07076895 -0.052490182
-0.16042951 -0.0092447875 -0.12357198 -0.14276154 -0.017701592 0.018481802 -0.06427315 0.100254714
-0.115191 0.1523016 0.12901315 -0.14084028 -0.05192385 -3.185859e-05 0.035569716 0.034006145
0.081009075 0.017612621 -0.09409085 0.07561011 -0.16137129 -0.094639234 -0.052178193 -0.094046086
-0.0778113 -0.158294 -0.020085309 0.05521388 -0.09754405 0.009916768 0.11068412 0.0056651793
-0.010041465 -0.032141894 0.017165216 0.12828045 0.18474141 0.12976201 0.15015566 -0.027595324
-0.1736318 -0.074361235 0.10288601 -0.018849641 -0.066878624 -0.1183807 -0.18467325 -0.16197442
-0.055096757 0.080995984 0.08297839 -0.15294686 0.09253886 -0.15808715 -0.019864537 -0.04563349
-0.031060921 -0.041179974 -0.15060164 -0.14460416 -0.01986629 -0.0041539613 -0.074613824 0.060052175
-0.16646172 -0.018402431 0.14509681 -0.066020645 0.16747998 0.07185273 -0.16745517 0.10392868
-0.026871243 -0.08539507 0.1333418 -0.15063214 0.012466489 -0.043488536 0.11154034 0.042812563
0.073260814 0.054786514 -0.04898443 -0.029276652 -0.1533913 0.08338798 0.14807369 0.11435996
-0.1145694 -0.024360662 -0.13010612 -0.10281072 -0.10874082 0.045012664 -0.09512801 -0.023254815
-0.0160933 0.08167516 -0.13378012 -0.13285421 -0.10813789 0.11804661 -0.058112472 0.16396989
0.03050167 -3.5417917e-05 0.0042306287 -0.029486675 0.004272838 -0.061438065 -0.011808272 -0.009553059
-0.16330414 -0.11326062 0.11055069 -0.14894624 -0.007092386 0.16970895 0.05804616 -0.015231916
-0.16502175 0.075102866 -0.11164183 -0.03596581 -0.045055315 -0.026741821 -0.009592214 0.1352622
0.0051099127 0.14530686 0.09418581 -0.09774374 0.093404755 -0.110674866 -0.08901979 0.038860183
0.04577574 0.12116359 -0.07102853 -0.013896792 0.08237901 -0.18184939 0.1130062 -0.1584521
-0.0132327415 -0.045219716 -0.10538961 0.03752858 0.13186367 -0.06595039 -0.0906631 -0.076075435
-0.15898362 0.088814996 -0.10169087 -0.13471095 -0.118820876 0.1090328 0.11287341 0.14397444
0.055954274 -0.04989426 -0.037705276 0.02930291 0.12843971 0.031111725 -0.066895366 -0.07058081
-0.15783507 0.046773102 -0.08233601 -0.140705 0.16306089 -0.106203005 -0.016834924 0.05965075
-0.0054069385 -0.11556582 -0.13378417 0.123973176 0.045731537 0.15269302 -0.07622848 0.060470305
-0.045531776 0.013594763 -0.087485045 0.07983718 0.07560475 0.016397806 -0.04341548 -0.088312484
0.07699038 -0.123865925 0.042590387 -0.050775055 -0.06514273 0.05184815 -0.11225164 0.028447652
0.053471766 -0.11036512 0.009325037 0.054774906 0.09032804 -0.0015283868 -0.18101656 -0.00582343
0.01006688 -0.083978675 0.08846521 0.1377072 -0.11235597 -0.032926712 0.09279655 0.034487672

emb_net.v_lins1.0.bias f4 [32]
00000000: 7501 2fbc 670f e3bd 67cc 82bd 7250 e33d
00000010: a0a2 91bd 118c e03d 16ae 8ebd 6467 2abd
00000020: 8607 753b 4a07 23be ae05 6c3c f0ff 91bc
00000030: 7573 81bc 861d 23bd 8f97 0e3e 4177 053e
00000040: 1046 f5bd 88d5 993d 8d05 10be 0407 1cbe
00000050: 402f 5d3d c9df 2f3b 41e3 a7bd 131b 2ebe
00000060: cebf 8bbd 30c5 733d 6582 27be 048e 2abe
00000070: 3989 b63c e056 02be f691 1abe 4376 8bbd
-0.0106815 -0.11086922 -0.06386643 0.11099328 -0.071110964 0.109642155 -0.06966798 -0.041602507
0.0037388518 -0.1592075 0.014405651 -0.017822236 -0.015802125 -0.039823078 0.13925003 0.13033773
-0.11976254 0.07511431 -0.14064617 -0.15237051 0.05400014 0.0026836267 -0.08197642 -0.17002515
-0.06823693 0.059514225 -0.16358335 -0.16655737 0.02228223 -0.12728453 -0.15094742 -0.06809666

emb_net.v_lins1.1.weight f4 [32, 32]
00000000: 6d9f 3dbd 6d98 14be fd5c 0cbe 9b55 3abc
00000010: 2233 42be 9aa3 2cbc 371b 08be 86e2 dcbd
00000020: 8ae6 7e3d f63c f5bd f6ef 0dbe bdab a63d
00000030: 9372 1e3c 9a75 0e3e a560 7fbd 1bfa b7bd
00000040: f2a3 8fba b732 843c 3c0b fb3d 7c91 3ebe
00000050: 98a5 0d3b 348d bf3d 6fbe dcbd d917 98bd
00000060: 918b 913d 5198 1cbe 7062 6b3d f14b 21be
00000070: c3ec 923d b62d 2abe 6c60 af3d 808a 1bbe
00000080: d649 1abe ab49 493b 1dea 0a3e d5fe 1ebe
00000090: c7f7 a7bd bff4 1d3e a2fa 05bd be1d 983d
000000a0: 0ec2 2ebe c7ef 7cbd a411 b8bd 44d0 163e
000000b0: 55d4 8e3d 2e34 06be 482d d53c e0e1 d9bb
000000c0: 0332 94bd 2bd5 ccbd 4203 74bd 1b7c 0c3e
000000d0: ef67 01be 749b ffbd b331 64bd 842e 8f3b
000000e0: 0bdf 453d 16b7 7f3b 9999 28bd 5932 dfbd
000000f0: 3196 0bbd e821 94bd fe24 0e3e a8bd 2ebe
00000100: 7e8e 01be 2348 09be cf5a 3cbd f1e9 f83d
00000110: d66d 0d3e b1d9 13be f533 e0bc 8052 e83d
00000120: 5c7a 833d 3823 1e3e ead8 75bc 1b48 08be
00000130: dd62 cd3d 5848 a0bd a07f a03d 6536 4abd
00000140: 8674 ad3d 659a 2c3e 0c8b 153e 5e93 35be
00000150: f7e6 dbbd 96b8 81bd 554f 02be 3688 373e
00000160: e6af f3bc 883b f9bd e710 8dbd 2358 edbd
00000170: 4e86 703d c20b 2cbe ed77 39be 1b6b 28be
00000180: f7fe b23d 419e 9b3d 6297 cabd cb99 0c3d
00000190: 6006 f73d 180f 6b3c fb63 fbbc 19fe d93a
000001a0: dae5 2abc 7917 9f3d 6e16 d5bd 7fe7 cb3d
000001b0: 49d2 b63d 683e eebd 7925 203e aa0c 283e
000001c0: d8f3 a5bd 624f 79bd 3292 c83d 9924 02be
000001d0: 47c3 6f3d 5746 f43c 986f fc3d f6bd 28be
000001e0: 743f 0abe c7cf 953d 3f2b 563d 21b1 30be
000001f0: ce57 b1bd 8277 19be cad1 0bbe ab8e babd
00000200: d0c3 033e c76b 8bbc c16c ac3d 1adf 1b3e
00000210: c263 823d 2957 26be 9be4 923d 1052 ad3d
00000220: 2a09 f03d 723c 1dbe 4543 bc3d 8715 023e
00000230: fd72 39be 77f7 3bba bb23 093e 7b45 13be
00000240: 7e5b 993d ecb1 c23d 96fc e43c 81a2 213e
00000250: e9fa 213e 999a 2d3e d94a 27bd 0fff 293e
00000260: e583 3bbe 9952 eebd 4c81 a5bc 5af9 91bd
00000270: 747e 153e 01d2 863d 3391 c63d 75b1 0c3e
00000280: c280 1cbe 1627 a8bc b931 963b 6e83 033d
00000290: 9cac 9c3d e84e 92bd 98d0 8cbd d6a2 173e
000002a0: 60fd 7abd 168b fcbd fb46 e33d c395 c73d
000002b0: c0c0 8ebd 5859 4fbd 819e 18be 4f3b 1ebe
000002c0: ad14 873d 392d 9abd 23a5 f93d aa8b 1fbe
000002d0: f5ae ccbc e5d1 8a3b 022f 923d 299b 123e
000002e0: 8e5d cb3d d82e 943d e05e a5bd 2c1b 11be
000002f0: 26bb 35be e940 35bc 7df8 203e e5b3 07bd
00000300: 3419 b9bc a759 06be 3a3d 203d 58ef d53d
00000310: 3619 3abe c6bf 04be 9438 ff3d 0b5a 203d
00000320: 71e0 8bbc 5bdb ea3c a81f c0bc 01a1 0fbe
00000330: 68e3 30be dcf0 db3d d217 03bd 217d 90bd
00000340: 8096 49bd b3c9 cabd 3216 7dbd 2836 1fbe
00000350: 6aa6 023e 5a57 8f3d 1797 d8bd a4d5 7cbd
00000360: 7edd 803d 3db2 89bd dd39 3a3d 4229 243d
00000370: 70b4 fdbd 4cab f63c dab6 543b f8b1 1b3e
00000380: 7c03 9ebd 0fed 33bd 970d 0d3e 4559 23be
00000390: e1eb 2bbb 6f3f 0f3e 51e6 bbbd 5df2 303e
000003a0: 9b7f 163e 7646 2f3e 2d27 26bc ada5 133e
000003b0: 0753 bdbd 0dcd 9cbd 7d7c 6a3d 2c06 d03c
000003c0: df03 b93d 102d 2f3e 16e3 f8bd a86d b03d
000003d0: b28d 363d 26d3 ca3d 2811 993d 97aa 77bd
000003e0: 95b9 19be 0b02 0c3e 58af c1bd 7e6a c73d
000003f0: c17f 37be 3e44 29bd 5640 59bc a67f 103d
-0.04629462 -0.14511271 -0.13707347 -0.011372949 -0.18964818 -0.0105370525 -0.13291632 -0.107853934
0.062231578 -0.11974518 -0.13861069 0.08138225 0.009670871 0.13912049 -0.062348027 -0.08983251
-0.0010958894 0.016137464 0.12258002 -0.18610185 0.0021613594 0.09353104 -0.1077851 -0.074264236
0.07106698 -0.15292479 0.057466924 -0.15751626 0.07174065 -0.16619 0.08563313 -0.15189552
-0.15067229 0.0030714076 0.1356587 -0.15526898 -0.08201557 0.15425394 -0.032709725 0.07427548
-0.17066213 -0.061752107 -0.0898774 0.14727885 0.06974093 -0.13105842 0.026022568 -0.006649241
-0.072361015 -0.10001596 -0.05957342 0.13719217 -0.12637304 -0.12480822 -0.05571146 0.0043695588
0.048308413 0.003901904 -0.041162107 -0.10898275 -0.03407878 -0.072330296 0.13881299 -0.17064536
-0.12652013 -0.13406424 -0.04598504 0.12153996 0.1381143 -0.14438511 -0.027368525 0.113438606
0.064198226 0.15443122 -0.01500533 -0.13308756 0.10028622 -0.078262985 0.078368425 -0.04936828
0.08469491 0.16855772 0.14603823 -0.17731997 -0.107374124 -0.06334035 -0.12725575 0.17923054
-0.02974696 -0.12169558 -0.068879895 -0.11589076 0.058721833 -0.1680136 -0.18112154 -0.16447107
0.08740037 0.07598544 -0.09892155 0.034326356 0.12061763 0.01434686 -0.030687323 0.0016631513
-0.010430777 0.07768149 -0.10404669 0.09956264 0.089268275 -0.11632997 0.15639295 0.16411081
-0.0810315 -0.06086672 0.097935095 -0.12709273 0.05853584 0.029818697 0.12325972 -0.16478714
-0.13500768 0.07315021 0.052287336 -0.1725507 -0.086593255 -0.14986995 -0.13654247 -0.09109243
0.12867665 -0.017019166 0.08419181 0.15221825 0.063666835 -0.16244186 0.07172509 0.08462918
0.11720498 -0.1535509 0.09192518 0.12703525 -0.18110271 -0.0007170359 0.13392536 -0.14381973
0.07488154 0.09506592 0.027952474 0.15784647 0.15818371 0.16953506 -0.040842865 0.16601203
-0.18312033 -0.11636848 -0.020203255 -0.07127638 0.1459902 0.06583024 0.09695663 0.1373957
-0.15283492 -0.02052645 0.004583564 0.032107763 0.0765011 -0.071439564 -0.068757236 0.1480821
-0.061276793 -0.12331216 0.11097523 0.09745362 -0.06970358 -0.050622314 -0.14904214 -0.15452312
0.065957405 -0.07528157 0.121897005 -0.15580621 -0.02498577 0.004236447 0.07137872 0.14317001
0.099299535 0.07235497 -0.080747366 -0.14170521 -0.17747173 -0.011062839 0.15719791 -0.033130545
-0.022595026 -0.13120137 0.03912089 0.10446042 -0.1817368 -0.12963781 0.12461963 0.03914837
-0.017074795 0.02866905 -0.023452595 -0.14026262 -0.17274249 0.107393 -0.03200514 -0.070551164
-0.049215794 -0.09901752 -0.061788745 -0.15548003 0.12758794 0.06999083 -0.10575693 -0.06172718
0.06292246 -0.067234494 0.04546534 0.04007841 -0.12387931 0.030110978 0.003245762 0.15204608
-0.07715508 -0.04392725 0.13774715 -0.15952022 -0.0026233124 0.13989042 -0.09174789 0.17279954
0.14697115 0.17116722 -0.010141176 0.14418669 -0.09244352 -0.07656298 0.057247628 0.025393568
0.090339415 0.17107034 -0.12152688 0.08614665 0.044568725 0.099035546 0.074739754 -0.06046542
-0.150122 0.13672654 -0.09457272 0.09737109 -0.17919828 -0.041324846 -0.013259968 0.035277985

emb_net.v_lins1.1.bias f4 [32]
00000000: 6739 b4bd 1f8d 12bc f6c5 d93c 6a53 54bd
00000010: cc73 2bbe 9b53 aabc 6861 093e 4f49 0b3e
00000020: fe2d b53d 2969 d23c da28 353d 5b7b 0bbe
00000030: 8e8e 923d d407 34be f04c 95bd 8d44 3ebd
00000040: 03b2 043e e7a7 a8bb dac0 a4bd 3fc6 fd3c
00000050: 4e22 16be e655 3fbd bad7 473d 8b99 46bc
00000060: 363e 9cbc c36a de3d c685 08be b190 b6bd
00000070: 0142 2f3e e3fc 0f3d aa35 e8bc 3a9d bb3d
-0.08800011 -0.008944779 0.026583653 -0.051837362 -0.16743392 -0.02079182 0.13416064 0.13602184
0.08846663 0.02568491 0.044228412 -0.13621275 0.071560964 -0.17581111 -0.07290065 -0.046452094
0.12958531 -0.0051469686 -0.08044596 0.03097832 -0.14661524 -0.04671278 0.048789717 -0.012121568
-0.019072633 0.10860207 -0.1333228 -0.089143164 0.17115022 0.03515328 -0.028345902 0.09160848

emb_net.v_lins1.2.weight f4 [32, 32]
00000000: b933 bf3d be46 8fbc 5ec8 a4bd 2a79 43bd
00000010: 3156 4b3d de20 27bc 154a ba3d 0e73 07be
00000020: 6cc2 c6bd 169d 103e 4005 973c b056 ac3c
00000030: 03e4 333d 92ae 67bd d2ff a7bd 956e 213d
00000040: 34e2 19bd aadc 78bd 49c8 3f3c a186 003d
00000050: 5a6b 9fbb 2955 dabd 57c2 08bd b608 b8bd
00000060: d70c ab3d debf eebd 8b38 1c3e 02f8 643d
00000070: 6317 24be 54bd f43d 955a 43be 1b6a a33a
00000080: 4f8e ddbd 5036 18be ba55 cf3c 2464 b5bd
00000090: 1976 053e 1922 0bbe 1c1b 153e 552e e13d
000000a0: 5b3f 1f3e 42b5 46bd 8287 d1bd 4130 f0bd
000000b0: d806 193e 131d adbd 529d 9dbc 5495 c5bc
000000c0: bf61 0b3d 9109 11be 4fde 143e 837d 04be
000000d0: a6e0 343e c2ff 87bd a8b9 9ebd e70c a0bc
000000e0: 6fa6 693d 3f23 f7bc f956 31be 186f f93d
000000f0: 9a2c 353e f50b bb3d 46f8 303e e083 4d3d
00000100: 4a2d e2bc 7385 ffbd 9068 2abe a558 0dbe
00000110: 23d7 57bd 6ab4 f33d 8f81 b0bd 78a4 133c
00000120: 0a35 abbc c7cf d0bd 858b aebc 0618 1a3e
00000130: 2fb3 073e c2ef ed3d dd89 11bd ff15 88b9
00000140: 67e9 e63d 3eb4 2fbd 6386 b5bd fd3c 063e
00000150: 4d66 d63c 1ca7 d3bd b0e3 083e acc2 383d
00000160: 0bd5 a23d 3a6c 1ebe 6197 463d 1860 b53d
00000170: 462a 2cbd 02d8 f2bd c5da 073e 83bb c83d
00000180: 27df 663d da56 503d 1762 3c3c ec0b df3d
00000190: a2c5 fabc 16e1 c8bd b065 913d 2905 5e3d
000001a0: 8fd5 913d 77c5 31bb 9435 d3bc c606 0fbc
000001b0: 69ea 5e3d 34ac 02be 8f0a 23be ebd5 b83d
000001c0: 0f7e 9cbd f035 eebb 2e15 5f3d 1c51 e73c
000001d0: 3e5a 003e 56e5 e13c 8ef8 463d 58b7 f1bb
000001e0: a471 0b3d dded af3d ef91 023e bbd6 24be
000001f0: ca1c 96bd a9f1 1cbe 6d3c 76bd bac5 ea3d
00000200: a995 55be c232 46be 8bce 7d3d 86f6 0abe
00000210: 9e12 c83d 6488 c83c d4af b23c f41e da3d
00000220: 30bc 3fbe 757d ca3d 3dea 243d 87db 14be
00000230: e41c 573c a0c7 aabd df0e cdbd 48a9 4cbd
00000240: 9212 f4bd 7697 f53d 0e57 013e 0895 2abd
00000250: b47c 43be a6c1 2dbd 3893 c5bc 0d45 ab3d
00000260: 586f 00bd 8285 bc3c 990c 633c 39a2 05be
00000270: bc63 ffbd 36e3 3ebe 7d9c 76bc a893 d03c
00000280: 0dc7 a6bc 3253 283e 2ed7 1dbd ee33 00be
00000290: 3aa9 a23c 5d9d 71bd bf00 03bd 385d 2e3e
000002a0: c940 74bc dc63 143e 7771 8c3c c547 9abd
000002b0: 2998 f33d 685d e1bd 190f 6bbb 1feb fd3c
000002c0: 184d 903d be98 29be c9aa 3dba 3a97 63bd
000002d0: 2573 dd3d 66e3 8d3d 7b77 843d 6167 cc3d
000002e0: e766 3cbd faae 8fbc 4fb3 103e 55bb 1bbe
000002f0: 9187 06be 0e0f 623b 56e7 97bd 97b6 983c
00000300: 0c4e 183e 8cb8 07bc fd14 25be bb47 b0bd
00000310: 5c1c 243e 5126 0fbd a3c4 aabd e189 b93d
00000320: d00d 8a3c 701c 27be c0b6 133e b648 c23d
00000330: a517 1a3e 8b1d 973d 6ac8 81bd 8d27 7ebd
00000340: 7e5b c53d 9ccf b7bc 2c65 fe3c 79b0 33be
00000350: 4ff4 9cbd fb86 9c3d c481 40bc a526 99bd
00000360: 5480 1fbe 73de d63d 8f8a bfbc 708b 36be
00000370: 94af 283e 89c0 a93d bbb3 f4bd 6932 f1bd
00000380: 942d 2a3e bae9 173c 8dd4 e1bd a448 f03d
00000390: f0fb a7bc 62e9 b53c 7df7 b7bd 9a58 10be
000003a0: b6eb f7bd a170 f5bb bd55 13be 9b5c 343e
000003b0: 5192 933c af45 88bd 51a0 843d bee3 14be
000003c0: 3434 a6bd aa53 993d c5e9 1dbe ed79 aa3d
000003d0: 8e0d c53c 3160 0ebe 88bf 40be 3715 853d
000003e0: 6bc6 9b3d 1474 5dbd dbfb 16be abf6 c8bd
000003f0: dc66 1f3c 0dae c43a 135b 873d 14e9 223d
0.09336037 -0.017489787 -0.080460295 -0.047722973 0.049642745 -0.010200707 0.09096161 -0.13227484
-0.09705052 0.14122424 0.01843512 0.02103743 0.04391862 -0.056562968 -0.08203091 0.0394121
-0.03756924 -0.060757317 0.011705467 0.031378392 -0.004865092 -0.10660774 -0.033388462 -0.089860365
0.083520584 -0.116576895 0.15255944 0.05590058 -0.16024546 0.11950174 -0.19077523 0.0012467535
-0.10818159 -0.14864469 0.025309432 -0.08856991 0.13033332 -0.13587226 0.14561123 0.10995165
0.15551512 -0.048512705 -0.10230924 -0.11727954 0.14944017 -0.08452811 -0.019240055 -0.024119057
0.034028765 -0.14163806 0.14537929 -0.12938504 0.17663822 -0.06640579 -0.07750255 -0.019537402
0.05704349 -0.030168174 -0.17318334 0.121793926 0.17692795 0.0913314 0.17282209 0.050174594
-0.027609486 -0.12476625 -0.1664145 -0.13803346 -0.052695405 0.118996456 -0.08618461 0.00901138
-0.020899314 -0.101958804 -0.021306762 0.15048227 0.13251947 0.11617996 -0.035531867 -0.0002595633
0.11274987 -0.0428965 -0.08863523 0.13109203 0.026171828 -0.10334608 0.13368106 0.04510753
0.07950791 -0.15470973 0.04848421 0.08856219 -0.042032503 -0.118576065 0.13267048 0.0980139
0.05636516 0.050864078 0.011497996 0.10890946 -0.030611817 -0.09808557 0.070994735 0.05420414
0.07120811 -0.0027125755 -0.025782384 -0.008729642 0.05442277 -0.12761003 -0.15921997 0.090251766
-0.07641231 -0.0072696134 0.054463558 0.028236918 0.12534425 0.027575176 0.048576884 -0.0073765926
0.034043923 0.08590291 0.12750982 -0.16097538 -0.0732971 -0.15326561 -0.06011622 0.114634946
-0.20857872 -0.193553 0.061964553 -0.13570604 0.09769176 0.024479099 0.021812357 0.10650435
-0.18724132 0.0988721 0.04026245 -0.14536868 0.013129447 -0.08338857 -0.10012602 -0.049966127
-0.119176045 0.119917795 0.12630865 -0.041646034 -0.19090539 -0.042421006 -0.024118051 0.0836278
-0.031356186 0.02301288 0.013857984 -0.13050164 -0.12470195 -0.18641362 -0.015051958 0.025461033
-0.020358587 0.16437986 -0.03853529 -0.1251981 0.019856084 -0.058987964 -0.031983133 0.17027748
-0.014908024 0.14491218 0.017143948 -0.0753322 0.118942566 -0.11004144 -0.0035867153 0.030995904
0.070459545 -0.16562173 -0.0007235227 -0.055564143 0.10812978 0.069281384 0.064681016 0.099806555
-0.045996573 -0.01753949 0.14130901 -0.1520818 -0.13137652 0.0034493837 -0.07417171 0.018641753
0.14873523 -0.0082837455 -0.16121288 -0.086074315 0.16026443 -0.03494865 -0.08338287 0.090595014
0.01685229 -0.16319442 0.14425182 0.09486525 0.15048082 0.07378682 -0.06337054 -0.062049437
0.096365914 -0.022437863 0.031054102 -0.17547788 -0.07663786 0.07642933 -0.011749689 -0.07478074
-0.15576297 0.104916476 -0.0233815 -0.17826629 0.16473228 0.08288676 -0.11948343 -0.11777193
0.16618949 0.009272033 -0.11026869 0.11732605 -0.020505875 0.022206012 -0.089827515 -0.14096299
-0.12105505 -0.007490233 -0.14388175 0.17613451 0.018014105 -0.06653916 0.064758904 -0.14540002
-0.08115426 0.07486661 -0.15421207 0.08324037 0.024054315 -0.13903882 -0.18823063 0.06498187
0.076062046 -0.05406578 -0.14744513 -0.09812673 0.009729113 0.0015005484 0.06609168 0.039773062

emb_net.v_lins1.2.bias f4 [32]
00000000: b355 8bbd 9f70 80bd 04b6 45bd 2aa5 20be
00000010: 607b febd 1477 89bc 02a7 dbbc 6830 24be
00000020: 1f95 1a3d 1e03 c53d c0e3 133e 5a39 183e
00000030: d8b6 fcbd d115 6abd 0f5c aebd 3c3c 043d
00000040: 42bb 413d b602 213d 1a69 d33d 1ef5 be3d
00000050: 9cd3 c1bd 555d f83d 9300 f43d 4969 c13c
00000060: f1ce 1cbe 21d5 ddbd 80c5 493d 183e 7a3d
00000070: f049 283e cbbe b63d 5528 833d 0fc3 64bb
-0.06803455 -0.06271481 -0.048269287 -0.15688005 -0.12425876 -0.016780414 -0.026813034 -0.1603409
0.03773987 0.09619735 0.14442348 0.14865628 -0.12339562 -0.057149712 -0.085136525 0.032284006
0.047297724 0.039309226 0.10322781 0.09324096 -0.094641894 0.12127177 0.11914172 0.023609774
-0.15313317 -0.10831667 0.049260616 0.061094373 0.16434455 0.089231096 0.06404177 -0.0034906303

emb_net.v_lins1.3.weight f4 [32, 32]
00000000: 99f9 e73d b69c 84bd 4c54 973d 587c c3bd
00000010: 8037 f0bb dead d53d 126e 993d 0fb1 16bd
00000020: 96f7 aabb 79b4 cfbd b04d ab3d 5146 e13d
00000030: 1262 5c3d 2b22 3dbe c211 07be 54f7 e43d
00000040: 7530 fabc 844c f03d 5ba7 003e 7e2d 6bbd
00000050: 6136 c0bd fc52 1ebe f75d 883d c063 b73d
00000060: f3d5 11bd 05b3 31be 9262 e3bd c8c8 89bc
00000070: 52b2 a93d ade3 7fbd a954 fcbd 8cba e1bd
00000080: 51f1 193e 688e 8e3d e527 1ebe a299 d5bd
00000090: c2a6 13be 4335 fe3c 88ae 8abd b7bc a03b
000000a0: f1af f1bc 9e53 18be db7d 25be 1ad4 10be
000000b0: 449e 8bbd 0aed a73c abef babd 328e 48bb
000000c0: a4b3 81bc 0805 2b3e 2feb 99bd 4af3 283e
000000d0: 7394 05be 6275 11be bea7 7d3d a3dd c7bd
000000e0: cbe1 ba3d 1054 bebd cc68 143e 8a13 353e
000000f0: 1688 85bb c314 133d 99ce 313e 53b7 e13d
00000100: 5bf7 14be c058 73bc ecb0 15be 7f92 fe3d
00000110: 1a7a 29bd 817e 26bc e168 ebbd 6f97 d7bd
00000120: 385e 023d 70c9 0b3e a472 9fbd ae0b a63c
00000130: b118 1a3e dc78 193e c9c2 00bd e2bd 1f3e
00000140: 83d8 613d 676f 1b3e 8bd3 6fbc f829 11be
00000150: 7d7f 69bd 3430 343d 016c e33d 1897 3dbe
00000160: c0dc 0b3e a376 29be f901 c13d 7e8d 263e
00000170: f722 733d 3d41 bfbc bd7e bd3d c86c 7bbd
00000180: 0677 11be 4a71 e3bd 713f 8f3d 0d5b 0a3e
00000190: c181 a73c 46ff 20be 5013 20be 8a03 d4bc
000001a0: f2d1 de3d ec29 d3bd 0c38 893d 901d e3bd
000001b0: d477 213e d87c 94bd e853 04bd 32ff 10be
000001c0: 563b 13be 8712 d73c b015 3a3d b5e6 d83d
000001d0: 6f9c 0fbe 485e 393d 6bf2 6abb 5ca3 f03d
000001e0: 804e 5ebd 1a51 8d3d 65f2 ae3d 9309 cc3d
000001f0: 39fe 34bd 88a7 903d 07dc dbbc 8f6e 813d
00000200: 3cb5 05be 4009 24be 0808 3cbe 231a 06be
00000210: 791b babd 7c36 e83b afc1 60bd eaca f9bd
00000220: eed2 66b9 6586 98bd 1276 de3d 90c4 1fbe
00000230: 6660 a9bd d9da ecbd 37c5 4dba 8ee9 37bc
00000240: f174 01bd 8929 1e3e 5d70 91bd f2f5 10bd
00000250: 66be ce3c a3bc 013e 8c15 e53d 2a63 59b9
00000260: 06ba cbbd 4f05 253d cab8 ba3d d8df a9bc
00000270: 52a3 933d caa7 0d3e a01d d4bd d07b 72bd
00000280: 5a41 21be 5292 063d db99 0d3e b503 2fbd
00000290: 81f7 af3c 8200 4a3d a2fb 45bc 5c4b 053e
000002a0: 156d 6f3c bf32 39be 197c 1cbe 8916 3abe
000002b0: 3c06 75ba a946 aa3d c20c dfbc ecbe 1e3e
000002c0: d491 20bd 149d eb3c 1d05 193e 5156 a33d
000002d0: 549c 3dbc b549 283e ef02 e7bd 6644 703d
000002e0: 169d cf3d 8efc edbd 91e8 31be 029f 3e3d
000002f0: bc22 74bd 95e0 c9bd 20a4 e03c a6c0 0abe
00000300: 47f1 143e 708d 49bc b619 c0bd bf5d 1a3e
00000310: d804 5a3d 346c 183d 2f39 a6bd e43b 2f3e
00000320: 08d2 3dbd c508 1b3e 6177 c7bb 2ae4 bd3d
00000330: 25c2 033e 9b43 f4bd 4b09 f7bd ff0c 31be
00000340: 2232 053e 104d 1e3e 9026 7ebd 1c0d a7bd
00000350: a4b4 fb3c 1076 c73d dc9f 2e3d 92f4 09bd
00000360: 0acd e9bd 70f9 1e3e 47c6 e2bd 4977 2abe
00000370: 34aa dfbd a0d9 243d 3401 973d cd9a 923d
00000380: cd3d d9bd a480 81bd 639c d4bd 2390 a9bd
00000390: 11a8 17be 753a 183d cc37 64bd 990d 28be
000003a0: 47f3 d7bd 7104 d5bd 6fef b5bd 75e6 dfbd
000003b0: 4767 f0bc 0fe5 e23d 787b 1abe 3e85 81bc
000003c0: deec 44bd 5388 b3bd 8e90 2cbd 5726 9dbd
000003d0: a18b 643b dfba f9bd 4b4e c23c b8e2 2e3e
000003e0: fd13 113e d04d afbd cced 733d bc61 2abe
000003f0: 023a 0a3e cecf 37be 8068 20be 2218 2fbe
0.11326904 -0.06475203 0.07389125 -0.09545201 -0.007330835 0.10433553 0.07491697 -0.03678995
-0.005217503 -0.10141844 0.08364427 0.1099974 0.053804465 -0.18470065 -0.13190368 0.111799866
-0.030540684 0.11733344 0.12563841 -0.05741643 -0.09385372 -0.15461344 0.06658547 0.08954573
-0.03560443 -0.17353447 -0.11102785 -0.016819373 0.08285965 -0.062472988 -0.12320835 -0.11021909
0.15033461 0.069607556 -0.15444906 -0.10429694 -0.14419082 0.031031257 -0.067715704 0.004905309
-0.02950284 -0.14875647 -0.16161291 -0.1414341 -0.06817296 0.020498771 -0.09127744 -0.0030602333
-0.01583273 0.16701138 -0.07515561 0.16499057 -0.1304491 -0.14204934 0.06192755 -0.09759071
0.09125098 -0.092933774 0.14493102 0.17683235 -0.0040750606 0.03590847 0.17363967 0.110212944
-0.14547484 -0.014852703 -0.14618272 0.12430286 -0.04137621 -0.010161997 -0.114946134 -0.105269305
0.031828135 0.13651061 -0.07785538 0.020269241 0.15048482 0.1498751 -0.03143576 0.15599778
0.055138122 0.15179215 -0.014637838 -0.14176166 -0.057006348 0.043991283 0.111045845 -0.18514669
0.13658428 -0.16549163 0.094242044 0.16264912 0.059359517 -0.023346538 0.09252689 -0.06138304
-0.1420556 -0.111055925 0.06994522 0.13511296 0.020447614 -0.15722379 -0.15632367 -0.025880594
0.10879888 -0.1031073 0.06700143 -0.11089623 0.15768367 -0.072503746 -0.03230658 -0.1415985
-0.14378104 0.026253952 0.04543084 0.10590879 -0.14024518 0.04525593 -0.0035850059 0.11749908
-0.054274082 0.069002345 0.08542327 0.09962764 -0.044187758 0.07063204 -0.026838316 0.063199155
-0.13057417 -0.16019154 -0.18362439 -0.13095908 -0.09087271 0.007086573 -0.05487221 -0.12196906
-0.00022013087 -0.07447509 0.10862364 -0.15602326 -0.0827034 -0.115651794 -0.00078495167 -0.011225117
-0.031605665 0.15445532 -0.0710151 -0.0353908 0.025237273 0.12669615 0.1118575 -0.00020731674
-0.099475905 0.040288266 0.09117277 -0.02073662 0.07208885 0.13833538 -0.10357213 -0.059200108
-0.15747586 0.032854386 0.13828222 -0.042728145 0.021480324 0.04931689 -0.01208392 0.13017029
0.0146134095 -0.18085764 -0.15281714 -0.18172659 -0.00093469373 0.083142586 -0.027227763 0.15502518
-0.039201573 0.028761424 0.14943357 0.07975448 -0.011572916 0.16434367 -0.112798564 0.05865898
0.10137384 -0.116204366 -0.17373873 0.04653836 -0.059603438 -0.09857289 0.02742201 -0.13550052
0.14545165 -0.012301788 -0.09379904 0.15074824 0.053227276 0.037212566 -0.08116376 0.1711269
-0.04634288 0.15140064 -0.006087229 0.092720345 0.12867029 -0.11926957 -0.12062319 -0.17290114
0.13007405 0.15459085 -0.062048495 -0.08156797 0.030725785 0.097393155 0.042632923 -0.033680506
-0.11416061 0.1552484 -0.11072975 -0.16647066 -0.109211355 0.040246606 0.07373276 0.07158432
-0.10607491 -0.063233644 -0.10381391 -0.08279445 -0.14810206 0.037165124 -0.055717275 -0.16411437
-0.10544448 -0.10401238 -0.08883559 -0.10932628 -0.029346121 0.11078846 -0.15086162 -0.015810605
-0.048077457 -0.08766236 -0.042130046 -0.07673328 0.0034873264 -0.12193846 0.023718974 0.17078674
0.14167781 -0.085597634 0.059552953 -0.16638845 0.1349869 -0.17950365 -0.15664864 -0.1709905

emb_net.v_lins1.3.bias f4 [32]
00000000: 562b 2a3e 9a8a 8dbc 0a7b 8c3d 8c49 b83d
00000010: d8f2 0abe abd9 15be 1c1e 893d 0dae a83d
00000020: b6d8 a8bd 8e2b e33c e61b 31be 0416 0e3b
00000030: 1c55 313d 2551 dd3a 34e8 e0bc 2b68 953d
00000040: 1e1f 43bd 1ca9 063e d0ca 1bbe 52b8 cebd
00000050: 086d 17be 7f86 23be 5812 063e e442 33bd
00000060: 640d 0ebe 3a0b 163d f7ff 08be be13 103c
00000070: 4fb4 ab3d ca8b 19bd 69d2 c93d f833 143d
0.16618094 -0.017278004 0.06859405 0.08998403 -0.135692 -0.14633815 0.06695196 0.082363226
-0.08244459 0.02773073 -0.17295799 0.0021680603 0.043294057 0.0016885145 -0.027454473 0.07295259
-0.047637098 0.13150448 -0.15214086 -0.1009375 -0.14787686 -0.15969275 0.13092935 -0.043764964
-0.13872296 0.0366318 -0.13378893 0.008793769 0.083840005 -0.03748683 0.09854586 0.036182374

emb_net.v_lins1.4.weight f4 [32, 32]
00000000: dc47 dcbd ece0 ff3b f721 183e 8a6b 14bb
00000010: 0577 413c ff7f b33c b5cd 003d aaea d03c
00000020: 7626 21be 5f26 fe3d 349d d63d ef66 723d
00000030: 3f2a 633d 134a e1bd 9992 49bc 3628 343c
00000040: 3f69 013d 400d f2bd ce0a 443d 0076 bebc
00000050: 1da7 dc3d be45 35be 2d64 533d a884 cd3d
00000060: 0f78 c3bd 47ad 333c 67c2 4c3d fe48 d33d
00000070: 7401 5e3d e6a3 d83d abeb 1cbe ec17 ff3d
00000080: 5685 7bbb 1110 e73d 885c 9cbb 6319 04bd
00000090: 4292 973d dc74 1f3e 9eff 2a3e dd77 1fbe
000000a0: b123 e03c fdba 01be 9b79 d93d c339 f63d
000000b0: 3634 06be da1f 5cbc aec4 e43d 43dc d93d
000000c0: 20db 0dbe aeb8 e63d 1edf 01bd 11fb 1ebe
000000d0: 9b86 e63c f4b9 9c3d ffaa c83d a46d 01be
000000e0: 205d 10be b05e 02be 1039 cc3d 1c6f 26be
000000f0: 2766 29bd 576d 7fbd 7f4a ea3d 561b fd3c
00000100: cf66 d8bd 52fa 1b3d 8017 1e3e ffeb 503c
00000110: b6a3 c6bd 3ceb cc3b 3243 3abe 4032 c8bd
00000120: b062 57bd c5a8 05be 141e 053e b007 a03c
00000130: 7959 f73d 17fb 45bd 17c9 36bd 7b5f ce3c
00000140: 103e 2cbd 5f59 46bd 0727 42be c738 ec3d
00000150: eca1 203e bc6e 25be 1a51 a0bd 6d27 fcbd
00000160: ff42 b6bd d772 e73d d9d8 df3d a0f4 09bd
00000170: 4c9a 743d 0312 003d 2829 993d b9ff 0dbe
00000180: 57d9 713d 373b 37be 9297 f0bd 0bea 95bd
00000190: e6f8 e3bc 3565 36be 6068 76bb 1e62 893c
000001a0: d109 95bd 331c 3d3d e83f 153e e61c 17bd
000001b0: d23b cdbd 3ec1 27be 442e 0cbe 1d77 dfbd
000001c0: 8113 11be 2e96 a5bd bf09 be3d 9630 543d
000001d0: 7b21 173e 0caa 273e eacc 90bd 5e15 a5bd
000001e0: a23e 993c 2c7b 1abe 05c2 ad3d 4e57 28bd
000001f0: a969 19be adeb 11be 17dd 01be f619 163d
00000200: 98b3 143e 1e2c 0f3e f118 70bd e15a dbbd
00000210: ca78 99bd cb2f fabd c5b5 2ebd 7ea4 25be
00000220: 7664 c93d 365c 29be 1fb7 e0bd d980 023e
00000230: 4ffd 04be 9572 823d a413 073e 5784 313e
00000240: 1a37 b33d 8ba0 49bd b053 d93d 0fb8 d6b9
00000250: bcb3 64bd 1a78 88ba d3fa 203d 809e ef3d
00000260: aa4c 963d 4aad ae3d 4f2a d03c b055 27bc
00000270: ad10 8d3d c287 2c3d 2a51 1fbe 3599 dd3c
00000280: cbaa b4bd 1133 eebd e234 d53d df19 b03c
00000290: 4c9b 213c a8c3 d1bd 8955 7b3d dc98 163e
000002a0: 047e bebb 297f 4a3d 1287 32be 77fa b53d
000002b0: e8a6 243d 4eb4 5f3d e4e1 693d 4598 7abd
000002c0: abbf f2bc 1d7b 1a3e 2e8c e13d 36e6 16be
000002d0: d7e9 f03d a81b 1f3e 12bf 913b 00c2 22be
000002e0: 2a9d a03c 77bc 64bd 7d13 d43d aff2 42be
000002f0: 00bd 8d3d b22b 43bc eea2 b9bc c88c cc3d
00000300: 0ba5 51bc ceab 13be c97d 20be d070 c6bd
00000310: f7b5 043c d1e6 193d bb76 3dbd 7cb9 99bd
00000320: a612 ab3d 302f 3bbe 6a4b e23d 7aaa 0cbd
00000330: 46ac d83d 0816 053e a71c c3bb b87a 133d
00000340: d156 eabd eda9 f53d 6d33 c33d 3787 27bd
00000350: 695f 993d 7869 7dbc 6662 ed3d 528a 843d
00000360: bfa3 cb3d c790 3bbe 7683 2f3e 0adf 253d
00000370: 97fe 2b3d 1465 713c 6ec7 1b3e 9314 263e
00000380: 79af 90bc e580 12be 18a9 173e 0b00 1ebd
00000390: ec68 9cbd 1c46 df3d 17c1 dc3d 83c3 c43c
000003a0: f7ff fb3c c680 02bd 96a8 293e 845b dc3d
000003b0: d173 db3d 523f 0a3e 24ef e2bd cb5b 223d
000003c0: 6263 1dbe 541e d33d faff 36be bc88 33be
000003d0: 4a67 30be c1c8 e03d b27b 913c c23a cc3a
000003e0: 91da 7c39 50fc 86bd ad97 56bd 6cd6 f8bd
000003f0: 1b38 53bd 1727 fdbd 15ac 173d 1c08 0f3e
-0.107558936 0.007808795 0.14856707 -0.0022647106 0.011808162 0.02191162 0.031446178 0.025502522
-0.15737328 0.124096625 0.10479203 0.059180196 0.05546021 -0.11000457 -0.012303018 0.010995915
0.03159451 -0.118189335 0.047861867 -0.023249626 0.10774062 -0.17702386 0.051609207 0.10035068
-0.09544384 0.0109666055 0.049990084 0.103166565 0.054200605 0.10578136 -0.15324275 0.124557346
-0.0038379035 0.11282361 -0.004771773 -0.032250773 0.07400943 0.15571922 0.16699073 -0.15573068
0.027360769 -0.12668987 0.106188975 0.12022736 -0.13105854 -0.013435328 0.11170326 0.10637715
-0.13853121 0.112656936 -0.03170692 -0.15525462 0.028140357 0.07652655 0.0979824 -0.12639481
-0.14098024 -0.12731433 0.09971821 -0.16253322 -0.041357186 -0.062360134 0.1143999 0.030896824
-0.10566484 0.03808052 0.15438652 0.012751578 -0.09699194 0.006253628 -0.18189695 -0.097752094
-0.05258435 -0.13052662 0.12999755 0.019534916 0.120776124 -0.04833516 -0.044625368 0.025192013
-0.042051375 -0.048425075 -0.189602 0.11534267 0.15686768 -0.16155523 -0.07827969 -0.12312207
-0.08899497 0.11301201 0.10930032 -0.03368056 0.05971746 0.031267177 0.07478553 -0.13867082
0.059045162 -0.17893682 -0.1174766 -0.07320031 -0.027828645 -0.17812045 -0.0037598833 0.016770419
-0.07277263 0.04616947 0.1457516 -0.036892794 -0.100211754 -0.1638231 -0.13689524 -0.10911391
-0.14167596 -0.08085285 0.09279203 0.051804148 0.14758866 0.16373461 -0.07070334 -0.08060716
0.018706623 -0.15086049 0.08484272 -0.041098885 -0.14981712 -0.1425006 -0.12681995 0.036645852
0.14521635 0.13981673 -0.058617536 -0.10710693 -0.07493742 -0.12216147 -0.042653818 -0.1617603
0.098336145 -0.16539082 -0.109724276 0.12744464 -0.12987255 0.06369511 0.13191086 0.1733564
0.08750744 -0.04922537 0.10611665 -0.00040954395 -0.05583547 -0.001041177 0.039301705 0.11700153
0.07338841 0.08529146 0.0254108 -0.010213301 0.06887946 0.042121656 -0.15558305 0.027050594
-0.08821639 -0.11630834 0.10410477 0.021496711 0.009863686 -0.102423966 0.06136087 0.14706749
-0.005813362 0.049437676 -0.17434338 0.08885663 0.040198237 0.05461531 0.05710019 -0.06118037
-0.02963241 0.15086026 0.11013065 -0.14736256 0.117633514 0.15537894 0.004447826 -0.15894318
0.019606192 -0.055843797 0.103552796 -0.19037889 0.069208145 -0.011912273 -0.022660699 0.099877894
-0.012795697 -0.14421007 -0.15672983 -0.09689486 0.008100024 0.03757364 -0.04625581 -0.075060815
0.08353166 -0.1827972 0.1104954 -0.034342267 0.105797336 0.12996686 -0.0059543434 0.036005706
-0.1144234 0.119953014 0.09531293 -0.040900435 0.07488901 -0.01546704 0.11591034 0.06471695
0.099433415 -0.18316947 0.17139992 0.04049591 0.041990843 0.014733572 0.15212795 0.16218786
-0.017661797 -0.14306982 0.14810598 -0.03857426 -0.076372 0.10902044 0.107790165 0.024019009
0.030761702 -0.03186109 0.16568217 0.10759643 0.107154496 0.13500717 -0.11080769 0.03963832
-0.15369943 0.10308519 -0.17871085 -0.17532629 -0.17226902 0.10975791 0.017759178 0.0015581476
0.00024114015 -0.065910935 -0.052390743 -0.12150273 -0.05156718 -0.123609714 0.037029345 0.13967937

emb_net.v_lins1.4.bias f4 [32]
00000000: f077 2dbe 6539 cf3c b74b 53bd f265 d2bd
00000010: 9834 083d 8224 303e 9441 163e 3970 ce3d
00000020: 2077 08be 297e ce3d f63b bb3d 8433 7b3d
00000030: 0d2d 34bd 33b6 48bb 9434 c4bd 11a3 28bd
00000040: 0dfb edbc 39d4 ccbc f29f 33be 483c 7f3d
00000050: fef6 13be 9b51 07be fd0a 933d e314 14be
00000060: 9426 2d3e b72f 2d3e ff07 66bd 771e efbc
00000070: 8b6b 0abe 267e 333c 262a 043d 121e c7bd
-0.16940284 0.025295923 -0.05158588 -0.10273351 0.033253282 0.17201427 0.14673454 0.100799985
-0.13326693 0.10082657 0.09142296 0.061328426 -0.043988276 -0.0030626177 -0.09580341 -0.041171137
-0.029050374 -0.02500354 -0.17541483 0.062313348 -0.14449689 -0.13214724 0.0717983 -0.14461093
0.16909248 0.16912733 -0.05615997 -0.029189331 -0.13517587 0.010955369 0.03226676 -0.09722532

emb_net.v_lins1.5.weight f4 [32, 32]
00000000: ecd6 bf3d a86b 14bc fb6a c2ba c2c3 3a3d
00000010: 996d 26be 38f0 e3bd bae2 413d 8c34 383e
00000020: dc8f 03be f576 003e 74be 303d 5d49 2ebd
00000030: 04b1 003d 2f47 d33d ebd1 643d 965e 183e
00000040: 676e 32bc fc10 ecbd 9816 443e ea17 83bc
00000050: ea93 e23d 53b7 f13d 9cc1 853d edda 0cbe
00000060: a2a6 06be 3a81 e13d f4ba 2e3d 200e 093e
00000070: 37bc efbd a9d9 0f3c 4bd6 dd3d 9777 bc3d
00000080: 3960 1e3e 807c f43d d1ba bebc f7dc f3bd
00000090: 116c cbbd af5b 6d3d 78c1 8bbd 5f98 88bc
000000a0: 61bf 083d e5ef e13d 976a cd3d 8736 da3d
000000b0: 6a71 263c 0780 d53d 6360 a6bd 0a01 88bd
000000c0: 098b 27bd 4ed8 f5bd a016 243e cca9 b5bc
000000d0: 0a9e 273d 523f c8bc f69f 203b 2d1d cabd
000000e0: cda6 d3bb 1bf8 1cbe 3538 dabd e0bb 0c3e
000000f0: 8a8c 1ebe 8068 173d c164 773c 875c 32be
00000100: 7a4d 2a3d ca55 913d d9dd 093e 541e 353c
00000110: 5e7f 053e 8d57 82bb de4a 573d cb63 283d
00000120: 6238 00be 54d1 4cbd 18a6 f3bd f671 0e3e
00000130: 85a5 713d cc95 a0bd e81a 6cbd 156f fb3c
00000140: e7b9 2abe b467 cfbb 2581 903d b0b3 933c
00000150: 9ca0 e7bc fdfb d23d b0ed 5f3d 8edc 2bbe
00000160: e89f b43d 565c 1cbe 3c5b b53d ebb1 073e
00000170: 695b 8c3c 7dde 70bd 14ed cebd a736 b5bd
00000180: 11e6 02bd bc97 9dbd c0b0 403e b9f4 8abd
00000190: 02ec 9a3d 33f5 23be 7f76 be3d a55c 153e
000001a0: 6f81 edbd 09c3 1cbd 0919 663d 917a 29be
000001b0: 58d4 e7bd 9b6c 453d 7743 2e3e 0746 1ebd
000001c0: a2bd a5bc 2bfe 31be 2056 2cbe 0520 1e3e
000001d0: ca9d 133e c090 65bd db26 7abd 3b57 bbbc
000001e0: 7db0 ac3d 7949 25be 2b7d d7bd dec7 18bd
000001f0: 527f 88bd e030 6c3b 9929 f63d 3cce 513d
00000200: d19b 1dbe be7e 1f3e d841 103e eba3 623d
00000210: c4d3 b23d 6c94 6d3d 2326 143e c767 36be
00000220: aec4 ccbd a0a4 f5bc 3d4c e1bc 94e3 e2bd
00000230: 1412 2bbe 84a4 fabd d83a bdbc 9b7b 143e
00000240: 8d1e df3d 2d08 2f3d 1610 cebd c68f 83bd
00000250: 8f73 163c fe36 30be 092d 2ebb cc6c e43c
00000260: f53e 213e 2ceb 52bd b7a9 293e 3bb9 9d3c
00000270: ad41 f4bd d916 2f3e 04d8 283e a567 17be
00000280: 4782 a5bd c4ad 873d 1b5b b4bd 7544 e43d
00000290: 2d9a c7bd d3fc 93bd b36e 89bd 2516 1a3e
000002a0: c53b 21bd 735a 56bd d457 053e 06d1 d9bd
000002b0: 640a 94bc 6ee7 0ebe 0be6 39be f033 64bd
000002c0: 4d61 b53a b028 073e d567 32be 53b6 15bd
000002d0: a111 e63c 4b64 473d 902c b13d c7ae 23be
000002e0: 0d81 57bd a6a8 c73c 86b1 23be 6bda b33d
000002f0: 20f1 17be 9f73 033e b713 313d fe98 8abd
00000300: 753b 3a3d 695d 1b3e 5dc9 d03d 1893 be3d
00000310: 7dd5 dbbd 21c7 2c3d 85d8 013e 14b1 093d
00000320: bf73 ec3d ae88 ecbd d920 df3d abc0 82bc
00000330: a97f 26be 1193 35bd 8031 1a3e b6e5 8dbd
00000340: 5731 17bd d59e 92bd 96d2 d0bd cd57 b33c
00000350: 7fd3 cd3d 3975 b53c ed18 91bc 312e 213c
00000360: 4bf3 12be 120c ccbd 22c3 3c3c 5b35 20be
00000370: d578 783d 7567 3e3c 8f32 783c aeac 2cbc
00000380: d095 ba3d 75e7 103e b5bb 883d 1ff3 613d
00000390: 8270 c9bd 7a98 4a3d 1970 0ebe 8ff2 553d
000003a0: a356 7ebd 74d8 bdbc 1c92 e83d daf1 8f3d
000003b0: 60bb fc3d be57 0c3d c02f 023d dced 1e3d
000003c0: 7801 d63d a3f2 903d e4d8 943c f8c9 e2bd
000003d0: 5a14 d7bd f30e 86bd 319c 403d 1eaa f3bd
000003e0: 86b1 57bc 54e5 063e e4e0 023e 46cd 17be
000003f0: 74be af3c b131 973d 3872 fabd 87fd be3d
0.09367165 -0.00905887 -0.0014832908 0.045596845 -0.16252746 -0.111298025 0.047335364 0.17988795
-0.12847847 0.12545379 0.04315038 -0.042550433 0.031418815 0.103163116 0.055864256 0.14879832
-0.01089058 -0.11526677 0.19149244 -0.016002614 0.110633686 0.118025444 0.06531069 -0.13755389
-0.13149503 0.11010976 0.04265876 0.13384295 -0.11705821 0.008779922 0.10831889 0.092024975
0.15466394 0.11937809 -0.02328244 -0.1190738 -0.099327214 0.057948764 -0.068240106 -0.016674219
0.03338564 0.110320844 0.10030096 0.106549315 0.010158876 0.1042481 -0.08123853 -0.06640823
-0.04090408 -0.120041475 0.16024256 -0.022175692 0.040922202 -0.024444256 0.0024509407 -0.09868846
-0.006459093 -0.1532902 -0.10655252 0.13743544 -0.15483299 0.036964893 0.015099705 -0.17418109
0.041577794 0.07096441 0.13463534 0.011054594 0.13036868 -0.003977722 0.052561633 0.041110795
-0.12521508 -0.05000432 -0.11896914 0.1391066 0.058995742 -0.078410715 -0.057642847 0.030692616
-0.16672479 -0.006329501 0.07055882 0.018030018 -0.028274827 0.10301969 0.054670036 -0.16783354
0.08819562 -0.15269598 0.08855292 0.13251464 0.017133432 -0.05880593 -0.10103813 -0.08848315
-0.03195769 -0.07694957 0.18817425 -0.067849584 0.07564546 -0.16011505 0.09299945 0.14586122
-0.11596953 -0.038271938 0.05617622 -0.16550662 -0.11319798 0.048199277 0.17017923 -0.038641002
-0.020232026 -0.17382114 -0.16829729 0.15441902 0.1441566 -0.056046247 -0.06107221 -0.022868743
0.084321 -0.16141309 -0.10521921 -0.037299983 -0.066649094 0.0036039874 0.12019653 0.05122207
-0.1539147 0.15575692 0.14087617 0.055332106 0.08731797 0.058002874 0.14467673 -0.17813025
-0.09998451 -0.029985726 -0.027502174 -0.11078563 -0.16706115 -0.1223841 -0.023099348 0.14500277
0.10894499 0.042732406 -0.10061662 -0.06423907 0.009182825 -0.17208478 -0.0026577136 0.02788391
0.15746672 -0.05149381 0.16568647 0.019253364 -0.11926589 0.1709856 0.16488653 -0.14785631
-0.08081489 0.0662494 -0.088064395 0.1114587 -0.097462036 -0.07225957 -0.06710567 0.1504751
-0.03936364 -0.052332353 0.13021785 -0.10635571 -0.01807136 -0.13955471 -0.1815416 -0.055713594
0.0013838202 0.13199115 -0.17422421 -0.03655083 0.028084578 0.04867963 0.08651078 -0.15984641
-0.052613307 0.02437241 -0.15985689 0.08781894 -0.14838076 0.12837075 0.043231692 -0.06767462
0.04546686 0.15172352 0.10194657 0.093054 -0.10734079 0.04218209 0.12680252 0.03361614
0.11545514 -0.11549507 0.10894937 -0.015961012 -0.16259636 -0.044329707 0.15057945 -0.069285795
-0.03691229 -0.07159201 -0.10196416 0.021892453 0.10050105 0.022150623 -0.01771208 0.009837673
-0.14350621 -0.0996324 0.011521133 -0.15645353 0.06066211 0.011621346 0.015148773 -0.010539217
0.09110606 0.14150794 0.06676427 0.0551635 -0.09835912 0.04946182 -0.1390995 0.052233275
-0.062094342 -0.023174502 0.11355993 0.070285514 0.123404264 0.034263365 0.03178382 0.03880106
0.10449499 0.07077529 0.018169828 -0.11073679 -0.10501929 -0.0654582 0.047023956 -0.11897682
-0.0131648835 0.13173419 0.12781101 -0.148244 0.02145312 0.07382525 -0.12228817 0.093257

emb_net.v_lins1.5.bias f4 [32]
00000000: 1940 843c 1756 2cbe e8a5 383d f0f4 9abd
00000010: 7199 2bbd fa28 c0bd fc7e 273e 6f5c f63d
00000020: 4df8 9bbd c43e 30bd 238b 5c3d 881b 883d
00000030: b74d aabd a8f0 923d bf19 e63c 9dec cf3d
00000040: d27a c3bd 1460 e9bd 2775 a83d 3cfb debb
00000050: 9fe3 9dbd 31f4 0d3e d612 a1bc b39d f1bd
00000060: 3b0f cfbc 02a8 a7bd 150c 7abd 0be9 14be
00000070: a36b 103e 0e2a 1f3e be98 18be 5513 e23d
0.016143845 -0.16829716 0.045080096 -0.07566249 -0.04189438 -0.09382816 0.16357034 0.12029349
-0.07615719 -0.043028608 0.05384363 0.06645876 -0.08315604 0.07174808 0.028088449 0.10152552
-0.095449105 -0.113952786 0.0822547 -0.006804852 -0.07709431 0.13862683 -0.019662302 -0.11797657
-0.025275817 -0.08186342 -0.06104668 -0.14542024 0.1410356 0.15543386 -0.14902017 0.110388435

emb_net.v_lins1.6.weight f4 [32, 32]
00000000: f024 9e3d fc94 97bd 2ab4 e3bc 42eb 903d
00000010: 9731 593d 57d4 1a3e eb49 3b3e a046 f63b
00000020: 10dd 233e 6e40 cbbd 52cc c33c b4d6 01be
00000030: 5cf9 e13d 307b 6f3d 709a a7bd 8c91 fcbd
00000040: d97c 01bd 12ae 92bd 0286 31bd 2e26 f9bd
00000050: 0e59 dfbd cc80 133e dacf 60bd fe32 953d
00000060: 3822 273d 6ad4 49bb f452 5a3d 3581 203e
00000070: 95da 963d 3465 2d3d 2153 f63d a01f 513c
00000080: 2aa9 b23c 2bb8 233e c3d9 06be ce4a e73d
00000090: 6445 c8bd a6cc c1bc 6e82 edbd 1a90 d63d
000000a0: c7f5 16be f8a0 babd 5775 793c eac9 a5bd
000000b0: a8ed c93b 1d6c 173e 2953 2ebe 85bb 01be
000000c0: d1ac 18be 4548 203e 0174 e13c c221 11be
000000d0: 2b6a 2bbe 3350 f33d e547 183e 6f65 f5bd
000000e0: 088e e73c d852 6dbd 3c82 be3d 218c efbd
000000f0: e25e d03d 9b3c 233e ac1c d03d aaaf 30bd
00000100: aeae 093d 5cdf 9e3d 1980 bfbd 8149 94bd
00000110: 62c0 35be 60ef 033e 7170 8fbd 46ed 1c3e
00000120: 72ff 28bd 4482 7dbd 8eb9 c83d 99ac 6bbc
00000130: e840 eebd faab 813c faa1 99bd d41c 22be
00000140: 4e76 d1bd 2222 6e3d b05d b03c 93a1 81bd
00000150: 2260 743d 809d 5bbd c9bf 04be 37b7 843d
00000160: 63ae 4dbd 8d95 47bd d9ec 023e d119 113e
00000170: f98a 2abe eeb5 263e f451 183e f442 00be
00000180: 7bef 39be 4441 04be 30bd 0cbd a5c5 15bc
00000190: 4327 3f3d e3b4 533d cb0a 193d 4681 02be
000001a0: 8a39 343e e77b 243e d9e9 c13d e094 063d
000001b0: 9765 cbbd e2af 86bb d408 00be 9fd2 2d3e
000001c0: b76b 19be 0072 243e 54da 253e af57 b3bd
000001d0: 9699 18be 51c2 933d 38e4 08be c034 1ebe
000001e0: 1ecb e0bd 14ea 043e 2046 cfbd d398 85bd
000001f0: 243e 80bd d79e 023e 37f3 833d 0ffd e43d
00000200: d158 50bd b8d2 e3bd 7761 173d dcfc 653d
00000210: ab15 143e 2a44 33be 4b28 07be 203e da3d
00000220: 7dd9 923d f05d db3d 6703 3fbd d240 273e
00000230: 7a0d 723d 6352 8ebd 2118 c1bd b0bf 303d
00000240: d2fb 8bbc e60e bcbd a2bd d1bd 9040 443d
00000250: 0db0 a63d 5ae8 223e c067 afbd f41c ecbd
00000260: 04fb 0bbe 26ec 03be 67e3 293e e090 aebd
00000270: ddf8 d7bd 1af0 ef3d 8b95 2c3e 431c 2cbe
00000280: 1553 a4bc c5f6 623d d0a8 233d 7b66 c5bd
00000290: 17d2 0fbe 5371 fcbd 9399 753d 43b8 97bd
000002a0: 0e4b 24be d476 363e 46a0 ad3d 2704 4fbd
000002b0: 4ebf e53c 66ba 93bd c550 edbd eeae 23be
000002c0: f14f ee3d c523 21be 6945 0bbe c17f 163e
000002d0: 1ad3 debd 72e8 5cbd 8712 1c3b 6911 2fbe
000002e0: 8508 22be ce61 10be 654f adbc 8eb4 77bd
000002f0: 9609 0b3e 5ed3 f03d af20 2c3e 216f 18be
00000300: df7f 9bbd d169 d53d 18d4 9e3d 1434 d3bd
00000310: 94eb ff3d 365c d7bd 997c 2a3e ea2a 22be
00000320: 8e07 ca3d e588 81bc e379 0fbe fd53 de3d
00000330: 46c4 8abd 5070 4fbc 079c 3fbd 96e6 15bd
00000340: 534f 79bd b155 833d ff34 42bc 972a fa3d
00000350: 75e7 753d 580d 89bc 7a4f a43d d9ed 99bd
00000360: 3be0 04be 2ef0 e2bd c72f 0cbe 1f8d fdbd
00000370: 8343 213d e2c3 aabb 3aa6 1fbe 5b0b a73d
00000380: a576 9d3d 647b da3d 0af4 e93c 60b2 2abd
00000390: 8d2c 9f3d dd50 35be 8971 85bc aece 973d
000003a0: 3d00 193e 79c2 babc 1c48 85bc 3d77 603d
000003b0: f7ea 933b ca71 d7bc 9f7b da3d 2d16 063e
000003c0: 0938 18be 67e6 d03d 3b49 81bd 62c8 d23b
000003d0: 0256 ec3d 033c 0ebe 839b 523d ea75 a0bd
000003e0: dad5 0fbe b4f2 2abd 497d be3d d980 a73d
000003f0: 16fe bebd d87f 073e d9f8 093d 73ad ed3d
0.07721889 -0.074014634 -0.02779587 0.07076122 0.05302581 0.15120064 0.18289916 0.0075157434
0.16002297 -0.09924398 0.023901138 -0.12679559 0.1103389 0.05846709 -0.081837535 -0.12332448
-0.031613205 -0.071621075 -0.04334069 -0.12165485 -0.10905658 0.14404601 -0.054885723 0.072851166
0.040804118 -0.0030796775 0.053301767 0.15674289 0.0736591 0.042332843 0.12027574 0.012763888
0.02180918 0.15988223 -0.13169007 0.11293565 -0.0977886 -0.023657154 -0.11597143 0.10476704
-0.14742194 -0.091127336 0.01522573 -0.08095153 0.006162364 0.14787336 -0.1702391 -0.1266919
-0.14909674 0.15652569 0.027521135 -0.14173034 -0.16739719 0.11880531 0.14871176 -0.119822375
0.028265968 -0.057940334 0.09302184 -0.11696649 0.101743475 0.15941088 0.10161719 -0.043136276
0.033613853 0.07757446 -0.093506046 -0.07240582 -0.1774917 0.12884283 -0.07003868 0.15324888
-0.041259237 -0.06189181 0.09801017 -0.014384412 -0.11633474 0.015829075 -0.07501598 -0.1583131
-0.10227643 0.05813802 0.021529049 -0.06329646 0.059661992 -0.053617 -0.12963785 0.06480258
-0.050215136 -0.048726607 0.12785663 0.14170004 -0.16654576 0.16280338 0.14875013 -0.1252554
-0.18157761 -0.12915522 -0.03436011 -0.00914136 0.046668302 0.05168618 0.03736381 -0.12744626
0.17600074 0.1606289 0.09468431 0.032856822 -0.09931486 -0.0041103223 -0.12503368 0.16974877
-0.14982496 0.16059113 0.16196567 -0.08756959 -0.14902338 0.07214797 -0.13368309 -0.1544981
-0.109762415 0.12979919 -0.10120797 -0.065232895 -0.062618524 0.12755905 0.06442874 0.111810796
-0.050865952 -0.11124176 0.036958184 0.05614935 0.1446139 -0.17506471 -0.13198964 0.10656381
0.07170389 0.107112765 -0.046634104 0.1633332 0.059094884 -0.06949308 -0.0942843 0.043151557
-0.01708785 -0.09182529 -0.10241248 0.047913134 0.08139048 0.15908948 -0.085647106 -0.1152896
-0.13669974 -0.12883052 0.16590653 -0.085237265 -0.10545514 0.117157176 0.16853921 -0.16807656
-0.020059148 0.05541112 0.039955914 -0.09638687 -0.14044987 -0.123263024 0.059960913 -0.07408192
-0.16044256 0.17818767 0.08477835 -0.05054107 0.028045323 -0.07213287 -0.11587671 -0.15984699
0.11636341 -0.15736301 -0.13600697 0.14697172 -0.10880108 -0.053932615 0.0023814754 -0.17096485
-0.15823562 -0.1409981 -0.021156022 -0.060474925 0.13577875 0.11759065 0.16809343 -0.14886142
-0.07592749 0.104205735 0.077552974 -0.103126675 0.12496105 -0.10515635 0.16649093 -0.15836683
0.09864722 -0.015812347 -0.1401134 0.10855863 -0.067757174 -0.012661055 -0.04677966 -0.036596857
-0.060866665 0.06412829 -0.011853456 0.122151546 0.060035188 -0.016729996 0.080229715 -0.07516069
-0.12976162 -0.11080967 -0.136901 -0.12380432 0.039371025 -0.0052113393 -0.15590754 0.08156463
0.07688645 0.10668066 0.02855875 -0.041674018 0.07772169 -0.17706628 -0.01628949 0.07412468
0.14941497 -0.02279781 -0.016269736 0.054801214 0.004514094 -0.026299376 0.1066811 0.13094397
-0.14865126 0.10200196 -0.06312796 0.006432579 0.11539842 -0.1389008 0.05141784 -0.0783499
-0.14046422 -0.041735366 0.0930124 0.081788726 -0.09325807 0.13232362 0.033684585 0.116053484
